models/model2.pkl (torch_old, 80402 bytes, 18 tensors)

action_log_std f8 [1, 1]
-0.8539396276865112
00000000: e080 b532 7953 ebbf

weight f8 [64, 4]
-0.05372235857655806 0.2185570326438139 0.028531380433036498 -0.12791180256942628 0.13108096350797102 0.1810329298510362 0.07457507313616779 0.15422307225168352
-0.02516196889292253 -0.13436875918415256 -0.12326322053980888 -0.07297287549797464 -0.006937161757138077 0.09414895054602641 0.07096062146238975 -0.0771759377224176
0.023615612539087914 0.020787308560943202 -0.046608245925852845 0.06411137182429254 -0.18789271827561457 0.024749535979100727 -0.05183492727877698 -0.0034746884459689225
0.09728699675965595 -0.006651256613675371 -0.04467658165527974 -0.0909625936537569 0.020321572107194694 -0.03191219769256018 -0.11385833833067484 -0.003574999508438382
0.09570766118899576 -0.07240753730911853 0.060176421243775036 0.17318329095178556 0.043754532321109284 0.013902937592563358 0.08386320161904187 0.046840564514179305
0.0018097530817915849 -0.008384821052913527 0.08380660527848921 0.11997155123182378 -0.07649876526120754 -0.04108012831208467 -0.08023573561860967 -0.10018973703383278
0.031495860928676345 -0.01807340558416546 0.0353333963896713 0.039324377533391755 -0.048736151075429876 0.1125836421018841 -0.24555136075530828 -0.26175498184249407
0.11390049782220561 -0.09096005635593601 0.04328941734638175 0.04708968511061805 0.012228748758965135 -0.03170628706984367 -0.08885695689802671 -0.12078325554041787
-0.10226265118147063 -0.004036302539923183 0.1509951414534694 0.08957673609139914 0.12962760227018097 -0.1715341570032211 0.08889933665438174 0.05740371083032125
0.030641935022582008 -0.04532183822017962 0.07438867795694376 0.10058835850095534 0.16668208680325294 -0.04696798073979284 -0.027148530144393484 -0.032923438968748345
0.2501059601493782 0.07297747495123069 -0.1753116959371972 -0.08805522634212092 0.11076540069334743 -0.010311344086629022 0.025425117201049844 0.020471115138232833
-0.15440027969609385 -0.16411048744587306 0.1108915178124479 0.06210587884894935 0.02033707835290581 -0.08294032381891192 0.02717649398192799 0.0423503033437559
-0.009629054146863342 0.0694217273749517 0.10472242450776786 0.1505773304688869 -0.11288717964121467 0.19856354836526308 -0.12331415851349314 -0.10963877051505577
-0.03497249493722402 -0.00859619175853574 -0.04441503196479711 -0.04644760579935927 0.13652369268128917 -0.021661668908336994 0.01556860047744499 0.02855742817359205
-0.05127780509891937 -0.14069717925029918 -0.0011626766001008888 -0.044091043550510446 0.036837378367885955 -0.08505931714129805 0.012776261870635882 0.034090973533623635
-0.12440006529228136 0.11114292191115195 -0.11557444505001767 -0.11652978011535589 0.10454142972333626 -0.07073600133793428 0.021977744957883676 0.034278290976017936
-0.06703754856197627 -0.10291282600253988 0.08804937781062253 0.11886405864378524 0.15443925974877815 -0.14791248226488418 -0.11499322928630147 -0.09709015843319409
0.05263214196729787 -0.046379963794806515 -0.14531002733665696 -0.033468207872363126 -0.016109469669247884 0.01301826001239427 -0.003958065379238991 -0.009254425156087737
0.028380067593952684 -0.13048986477918717 0.2795709407699341 0.2360107573788605 0.18276933873178963 0.04165588518576849 -0.0037126963304210604 0.006036441539022151
0.06745915192260893 -0.07662413457495368 -0.05334163111812379 -0.06871502835940445 0.06825047424100764 -0.16196117758431158 -0.16739808430144332 -0.10685047532257852
0.07906879246535592 -0.1296594080226905 -0.13575680444977364 -0.008869627801071724 -0.12699015732980742 0.13022575111513532 0.09664504083909178 0.015976983359514595
-0.022735320063249752 -0.09270138005250346 -0.009489230518952146 -0.16671958678261956 0.1002650854893744 0.052127244181881714 0.20040770769732602 0.1528832475936462
0.09796594579177807 0.012246704051802433 -0.1402117104528652 -0.18026829270137215 -0.04389647353444788 -0.04718782587004951 0.029266810274936692 0.02871875628650217
-0.1339230152112933 0.11321986970707502 -0.047784095105336405 -0.049832879080045224 -0.01857294216902793 -0.01493138921462944 0.10477345885902206 0.004615961570868936
-0.1493425348125131 0.16775626752823022 0.04629944613512218 0.16035167909968345 0.07485390494521071 -0.10068215146179196 -0.03366409219681862 -0.023710795948852066
0.1890457852126633 -0.1532945649436462 0.029687034943246367 0.047969774386769526 0.13124612337130898 -0.0829073867531156 0.022291106955554606 0.0399742546834409
0.03969593823933442 -0.03495236200311157 0.003861048598834289 0.05499976478014721 0.06545082976581333 0.006669513354140625 -0.1376458320417979 -0.17224227098793324
-0.06182442918162778 0.18786658513043175 0.054782633128317076 0.0701662030819961 0.04323407096968843 -0.00924779094456278 -0.06700201377596511 -0.09561561064153482
0.04411143423499959 0.07043562066635264 0.10110450567760562 0.042871667543677806 -0.11659963369325269 0.03953142816890972 -0.011631506408582857 -6.276175442691768e-05
0.08253614355402412 0.10842366506892259 0.026969419672676173 0.022247987960634884 0.044666533888795636 -0.06437760874782562 0.16978108978261996 0.14913994102619618
-0.02439274572878994 0.10624793067855984 0.08945944532765414 0.13965720020974462 -0.049050789456428746 -0.12709035308673391 0.048232454459122116 0.06154188449746423
0.05125997750716357 -0.15821008516876992 -0.10071680603613642 -0.08907247616215856 -0.19800474571206417 0.04901337575992931 0.011196444107662901 0.009904822279327555
00000000: 62f4 4c3a 7f81 abbf cd0b c245 adf9 cb3f
00000010: 427f 7a87 5437 9d3f a56f 67f8 695f c0bf
00000020: 3f8c b2d1 42c7 c03f 1ec9 9a48 162c c73f
00000030: 4c76 371c 5a17 b33f 3808 cee5 94bd c33f
00000040: 7b06 fe25 0fc4 99bf 8b67 26d9 fe32 c1bf
00000050: 29a3 04ad 2d8e bfbf 0346 c2b1 59ae b2bf
00000060: e6c7 fb2d 246a 7cbf 7d43 8c47 251a b83f
00000070: d51b 7cac 792a b23f 8850 8e60 cdc1 b3bf
00000080: 961e 1fee b02e 983f d5b2 c3a9 4449 953f
00000090: ea6f f337 09dd a7bf f37a 4955 9a69 b03f
000000a0: 3b3d 135c de0c c8bf ae53 7c3e f157 993f
000000b0: 98e0 e78a 1b8a aabf 6abc a727 f376 6cbf
000000c0: d3a5 68f5 cce7 b83f f3ed 201a 593e 7bbf
000000d0: 2c87 3652 d9df a6bf 17f8 e614 5349 b7bf
000000e0: 2c32 6a9e 2dcf 943f 74b6 ddaa cb56 a0bf
000000f0: b1d4 81ef d125 bdbf 9b49 1a3f 5149 6dbf
00000100: f08b c81a 4c80 b83f 1800 bae4 4c89 b2bf
00000110: 68f4 76a2 71cf ae3f 4d00 6dbd de2a c63f
00000120: c3eb bd7a fe66 a63f cd23 3ab2 2479 8c3f
00000130: dca8 4a0c 0f78 b53f 33dd 6d89 7cfb a73f
00000140: c154 3593 a7a6 5d3f d3fe a3a1 0f2c 81bf
00000150: e421 dc84 5974 b53f dfb6 fda0 74b6 be3f
00000160: 5534 fb4e 6c95 b3bf 9655 3b5f 7408 a5bf
00000170: 82d2 7344 548a b4bf d584 f4db 08a6 b9bf
00000180: 78ca 4bb9 3920 a03f da34 a5b7 d581 92bf
00000190: 3686 e60b 3817 a23f fa08 e226 5322 a43f
000001a0: 46f7 00de f1f3 a8bf a864 e414 48d2 bc3f
000001b0: 2557 f71b 3a6e cfbf 8d07 a5f7 97c0 d0bf
000001c0: 73fd 2441 9528 bd3f 0c83 4a83 2849 b7bf
000001d0: 58fd 87cf 072a a63f aede 0ea3 231c a83f
000001e0: 6611 eddf 620b 893f 3ecb 1574 ce3b a0bf
000001f0: d52b e65b 54bf b6bf 5554 73c4 a6eb bebf
00000200: 623a 6d96 e22d babf a2e0 7db6 5e88 70bf
00000210: c1e2 320d cf53 c33f 27b7 fe3f 80ee b63f
00000220: af64 3424 a397 c03f d6e5 3ccd d4f4 c5bf
00000230: de10 915f 1bc2 b63f d0db 5ee9 0464 ad3f
00000240: d28a 3b73 9960 9f3f 5b8a e689 6c34 a7bf
00000250: 3c8b 04eb 220b b33f 85b3 1e9e 28c0 b93f
00000260: 9512 d3af d655 c53f 751f 79ea 2f0c a8bf
00000270: cb26 6b04 d3cc 9bbf 4a06 494b 57db a0bf
00000280: 9f14 d86d bc01 d03f 249c 42dc a6ae b23f
00000290: 180a 5418 9d70 c6bf 079c 618d c98a b6bf
000002a0: 739a 810d 1f5b bc3f b7fb 092d 1d1e 85bf
000002b0: d17c 80bb 0a09 9a3f fa1c 2048 61f6 943f
000002c0: 65dc e46b 63c3 c3bf c35c 418c 9201 c5bf
000002d0: 1184 68f2 6263 bc3f af55 177d 57cc af3f
000002e0: cc0b b039 3ed3 943f 8066 52ba 933b b5bf
000002f0: db41 7da3 27d4 9b3f d199 ac5f f0ae a53f
00000300: 0ab0 37c5 65b8 83bf 0a0e b550 9fc5 b13f
00000310: 642f 6bbc 16cf ba3f 5901 f132 1e46 c33f
00000320: 8a5a b298 2ce6 bcbf d208 34c5 876a c93f
00000330: a0ff f245 8491 bfbf 485e bc55 4911 bcbf
00000340: 55a1 0734 eae7 a1bf 72d1 c853 e19a 81bf
00000350: 9eac 7a2b 91bd a6bf c380 c507 fbc7 a7bf
00000360: 50ff 98bd 9b79 c13f 6300 27fe 792e 96bf
00000370: b132 292f 6ee2 8f3f 37f8 4090 283e 9d3f
00000380: c62f d29f 1541 aabf 7a7e c27b 5d02 c2bf
00000390: 08db 497e 9e0c 53bf e520 31ec 1993 a6bf
000003a0: a58c b84e 59dc a23f 2c8b 5789 72c6 b5bf
000003b0: d133 32d7 702a 8a3f 9bd8 d440 5f74 a13f
000003c0: fbf4 0cc4 aed8 bfbf c14f cace dc73 bc3f
000003d0: b740 be6d 4996 bdbf aa03 9b4a e5d4 bdbf
000003e0: c122 bd25 3ac3 ba3f fc6f 652c c11b b2bf
000003f0: 2ef4 557f 5581 963f 7ad7 6895 ec8c a13f
00000400: be7d ad6e 5f29 b1bf b514 05b6 7e58 babf
00000410: ba38 216e 678a b63f 807d 8bfc df6d be3f
00000420: 2473 eb68 aac4 c33f ccb9 ffd4 cbee c2bf
00000430: d5cc 0b3f 3270 bdbf 35e9 3b8f e6da b8bf
00000440: 379a efa0 99f2 aa3f 7770 6057 1dbf a7bf
00000450: 278d 98db 8499 c2bf 9cf9 88b4 be22 a1bf
00000460: 4592 8a35 007f 90bf 884f 0848 51a9 8a3f
00000470: c888 bf15 5536 70bf 7002 1ceb fbf3 82bf
00000480: b37a b218 aa0f 9d3f 2ed1 d752 e4b3 c0bf
00000490: 5934 e183 7de4 d13f 8523 39ba 9935 ce3f
000004a0: 3e44 4856 fc64 c73f e41b 1e91 eb53 a53f
000004b0: 3160 36aa 166a 6ebf f1b7 e8ef aab9 783f
000004c0: f4d0 52c3 0045 b13f 426f 15a8 a39d b3bf
000004d0: 98d4 5522 984f abbf 6f1f 8cdf 4e97 b1bf
000004e0: da36 cdf2 dc78 b13f 431f 79d4 24bb c4bf
000004f0: 986e bee8 4c6d c5bf 5091 1281 8d5a bbbf
00000500: c0dd c535 da3d b43f 20c0 89f2 ad98 c0bf
00000510: 8f1e a99d 7a60 c1bf ce96 aa4a 3d2a 82bf
00000520: 0b9d 52a6 3641 c0bf 337a 11c7 3cab c03f
00000530: c277 b9b9 babd b83f a347 1234 455c 903f
00000540: 2302 8b80 ed47 97bf 159c 9e13 47bb b7bf
00000550: d0e0 f1f5 166f 83bf 04c0 6a42 1157 c5bf
00000560: 9885 1bff f8aa b93f abcb fb11 6cb0 aa3f
00000570: 6692 36b3 f5a6 c93f 82af 42a2 ad91 c33f
00000580: 1f22 4cd5 4b14 b93f 171b 17cb cc14 893f
00000590: bda4 7413 75f2 c1bf 393e d40a 0813 c7bf
000005a0: 4af9 7a3c 9979 a6bf 5a2d c3b1 0029 a8bf
000005b0: f9d3 f463 1ef8 9d3f d118 211c 7368 9d3f
000005c0: ced1 41ad 6324 c1bf 7336 a635 fafb bc3f
000005d0: ac24 7e2b 2877 a8bf 5521 d4f3 b183 a9bf
000005e0: fd6d d30c c904 93bf 7fac e222 5994 8ebf
000005f0: 1cce 49f3 6ed2 ba3f df99 c8bf 2fe8 723f
00000600: 3bf3 75fb a71d c3bf 97cb 5d91 0979 c53f
00000610: 934f f29d 8fb4 a73f fec0 cb60 6786 c43f
00000620: d8b2 b721 a029 b33f a2be d133 4ec6 b9bf
00000630: cbd9 117e 6b3c a1bf 0259 a694 a447 98bf
00000640: 0aaf 77fc a632 c83f 7b33 8b03 289f c3bf
00000650: cf2a c930 4766 9e3f c016 6088 7e8f a83f
00000660: 8aa3 cd47 accc c03f 9092 b322 6b39 b5bf
00000670: e685 76dd 7ad3 963f b83e 1869 8177 a43f
00000680: 9740 0ba9 0653 a43f 7e50 71a7 46e5 a1bf
00000690: f672 baae 34a1 6f3f fd6e 09de ed28 ac3f
000006a0: 6b19 57b5 62c1 b03f 44c2 c7db 7d51 7b3f
000006b0: f76d 86ed 609e c1bf 81e3 70e4 080c c6bf
000006c0: 90a0 db9a 73a7 afbf 60bd 9223 030c c83f
000006d0: ec8a 5923 780c ac3f 038c 858b 69f6 b13f
000006e0: cd87 c6b1 c622 a63f 974e 567d 81f0 82bf
000006f0: d514 ef41 0b27 b1bf 2a45 b1c0 437a b8bf
00000700: 4984 d61e c695 a63f 3646 3c9f 1108 b23f
00000710: 6e12 5d21 fce1 b93f 65d7 0c74 46f3 a53f
00000720: 5227 703d 79d9 bdbf ab9d 4c9e 763d a43f
00000730: a54d 065d 42d2 87bf d88b 16bb de73 10bf
00000740: 4d70 4db5 1621 b53f f45e 953f a7c1 bb3f
00000750: bce9 f11d df9d 9b3f a35a c532 2dc8 963f
00000760: f55c 8e2c 88de a63f f1a5 2a0c 0d7b b0bf
00000770: 603c 0c02 63bb c53f 9710 9e80 0417 c33f
00000780: 68c0 a874 69fa 98bf 0637 887b 1033 bb3f
00000790: a725 0070 d0e6 b63f a5a0 c681 49e0 c13f
000007a0: 25df 1d61 2f1d a9bf bd82 1227 7f44 c0bf
000007b0: 59f6 039d ecb1 a83f 406b 80fa 6a82 af3f
000007c0: 3c53 f96d bf3e aa3f 353f d962 3a40 c4bf
000007d0: 2831 159c 93c8 b9bf 0b18 172c 74cd b6bf
000007e0: 509f a431 3858 c9bf 7831 e9fb 4718 a93f
000007f0: 9df4 304a 29ee 863f 4867 19be fa48 843f

bias f8 [64]
-0.3099004974836847 0.4258102853583473 0.289602314548486 -0.697451334538186 -0.6651769262791404 0.2992177498052526 0.5691749716498681 -0.6910579251018955
-0.6743771131017692 -0.34708670203700126 0.2793886126977535 0.32957189016257 0.4644339086036203 -0.33097798871951173 -0.4474052254851338 0.46064219017169866
-0.5784583170450336 -0.6440301667106811 -0.5037597858358319 0.42690698188721354 -0.2660927296782161 -0.32838236802497656 -0.6653729572215913 0.41463486429183455
-0.346824892468338 0.6435230259585932 0.47482593469277573 0.416932529629559 0.6314932386094164 0.3432238001935292 0.5841202363038285 0.4270340321866333
-0.6915708506507133 -0.39010591286559265 0.5415957148121926 -0.5577764763960955 0.26329034051431816 -0.5280017552270917 -0.5639669968296803 -0.5596581384047525
-0.3428213645104722 -0.2719257294602835 0.5912919616356697 -0.23853206614682507 0.3675893531090746 0.4657352486321781 -0.5343798519001902 0.5627826791403171
-0.5274224951708575 -0.636711986336939 0.6701903545523976 0.5704307135863654 0.5721899335802363 0.696330287861124 0.6711749077223038 -0.6518296652278497
-0.36383893363887193 0.3243176964884318 0.5675110413959139 -0.6549641700577165 -0.5384422007759474 0.6655192725830316 -0.3736978944561909 0.5589450107509286
00000000: 3738 6de5 68d5 d3bf a687 7ac8 7940 db3f
00000010: cb39 7525 d888 d23f fb93 0c76 8551 e6bf
00000020: d986 0d1f 2149 e5bf 18f6 7234 6226 d33f
00000030: 5d03 1e6e ae36 e23f 4989 7e82 251d e6bf
00000040: fd2c be4f 7f94 e5bf d506 8824 ab36 d6bf
00000050: aa58 9ac6 80e1 d13f 1177 7bb2 b417 d53f
00000060: bec8 2600 49b9 dd3f 15c1 4f4d be2e d5bf
00000070: 7529 e186 49a2 dcbf 1d7f 7c61 297b dd3f
00000080: 03d8 3904 bb82 e2bf 1c1d f526 e59b e4bf
00000090: 3b8e a6d7 cc1e e0bf f8ef 68a9 7152 db3f
000000a0: b1f6 eacc a907 d1bf 1605 d07a 3704 d5bf
000000b0: f71a 5d3a bc4a e5bf 898c 7aab 6089 da3f
000000c0: 4dc6 a508 6132 d6bf 3de2 d699 bd97 e43f
000000d0: 2114 3351 8c63 de3f c170 d9c6 05af da3f
000000e0: 471f ef4e 3135 e43f 1f90 42f5 60f7 d53f
000000f0: 606a fbeb 1cb1 e23f 8951 a18c 8654 db3f
00000100: c32c 4d31 5921 e6bf f9f8 6eca 7ef7 d8bf
00000110: 20b5 5889 c054 e13f d82d 930d 4ed9 e1bf
00000120: 1926 77ba bfd9 d03f 64ca ddef 63e5 e0bf
00000130: 9c04 ed83 040c e2bf da6f 2c2f b8e8 e1bf
00000140: 1e53 3c05 c9f0 d5bf 5c43 be2c 3b67 d1bf
00000150: c79c b31e ddeb e23f 1fef 92ff 3788 cebf
00000160: 7885 7d7e 9586 d73f 7a0e 5e37 9bce dd3f
00000170: 3baf 71c6 a319 e1bf ab36 35d2 5002 e23f
00000180: a6df fd23 a5e0 e0bf 2e3a c9d0 f15f e4bf
00000190: cdb5 dc0a 3372 e53f a398 6fe9 f740 e23f
000001a0: 1a7b 7a43 614f e23f 497d b274 5648 e63f
000001b0: 0505 d2cc 437a e53f 76eb d6e2 c9db e4bf
000001c0: d963 3f18 2349 d7bf bca3 fb02 9fc1 d43f
000001d0: 6042 5dea 0c29 e23f bc63 4e6b 77f5 e4bf
000001e0: 85ce 6323 eb3a e1bf 3142 d312 ef4b e53f
000001f0: 617f d192 aaea d7bf e000 aea5 e0e2 e13f

weight f8 [64, 64]
-0.1588200387904975 0.24053355080499492 0.15371661723157418 -0.1472969185265465 -0.14680893071622433 0.29087610551061793 0.1501257346151373 -0.24916706264203894
-0.001909326796819985 -0.29395370610235944 0.09917822416906352 0.10630251545932427 0.22977376596248775 -0.10575813339562205 -0.045637022977996565 0.24747637665449568
-0.026695578810743945 -0.23973860009654063 -0.24430153343346636 0.005680486526901417 -0.20679224801632462 -0.1979227327184658 -0.2225331251679035 0.18239217168370497
-0.06369896462282482 0.21902762910610407 0.13996919289397006 0.21486936664128786 0.22141550070051338 0.2568865507188552 0.1570126291573659 0.20332340825882053
-0.16956085890670963 -0.16605349933521596 0.01724317182502244 -0.0739365465933275 0.23468399293650272 -0.02404326892503794 -0.023209473053694234 -0.04163051163731249
-0.23228138761201592 -0.2725009544913499 0.2273947453904064 -0.13082351789776997 0.21019158809411254 0.12376966484697058 -0.2144970318468489 0.056135578098557196
-0.05156022466105517 -0.1267017950674428 0.1870697210334969 0.05184624476321239 0.023847612233390894 0.22058003316674543 0.10391298239025515 -0.09595594815588421
-0.0811426685363529 0.28517161745107683 0.05221165116114504 -0.09903066662829775 -0.04608367249400119 0.18863585726536314 -0.1221235269687007 0.02423973340660448
-0.17906162044127896 0.10148103450098722 0.2552368638790095 -0.17681248025570026 -0.05912981388893715 0.21985235987575974 0.22034489605290208 -0.024200903236591985
-0.056230294499206475 -0.04800953156335491 0.1478622584048686 0.27605755714776176 0.23270496999964768 -0.09384268168361236 -0.1513195913677673 0.1156065226506958
-0.05043912509459274 -0.08646113072172282 -0.10037836973521626 0.09531070913371698 -0.0753342313949856 -0.259734111128371 -0.1747283088568457 0.06631435717004379
-0.12032350467487075 0.10804853279429709 0.036021203108438565 0.1461861925951759 0.2431209660485332 0.19373308012002197 0.09633486349965137 0.06905786499720397
-0.0741024490776874 -0.1577668895985786 0.0638232800324569 -0.09777164169591288 0.10372203149207058 -0.01442098823346846 -0.20155016292768668 -0.16463329899080048
-0.20929212390922527 -0.22344161349824918 0.005295422085379532 -0.210209553852421 0.058087272686765036 0.24835324895122832 -0.2113470896231948 0.18776443365234072
-0.06991434686707076 0.0001684790681337943 0.08112763185195161 0.1026443971257402 0.11724764963006014 0.12985628489120402 0.20402096310392503 -0.12738378404613848
-0.08835761820026024 0.06635614019382002 0.1385945486797914 -0.022964152956159063 -0.1456570937951065 0.09035968763073007 -0.1777028599362601 0.21339200423762933
0.2039195658121695 -0.14557762457295872 -0.23591007245332557 0.061154920941745426 0.1345999839155546 -0.20778213465951267 -0.09698523978558113 0.031309369315766646
0.011528639799217949 0.06910256736965004 -0.21346123237991077 -0.12953606345167576 -0.22947844503771941 0.06194847131183683 0.15814383733487614 -0.02240287692850161
0.15062783168197985 0.13178917316003624 0.18034069289911533 -0.1945927633724426 0.13874621594723455 0.14472588278013807 0.15128138114363196 -0.07473058848082176
0.13406573630426677 -0.13522321136927098 -0.02663947502397789 -0.008983894517868045 -0.16076462957387447 -0.22517247557707587 -0.1638438289476965 -0.155875160835672
0.11397221338939521 0.07090441056714977 -0.11038502948649466 0.19955665989340543 -0.20326688805420912 0.08663264687680962 0.03958350990927477 0.10715550794098029
0.19950713094881944 0.10363757283178297 -0.11606647623008114 0.1912288155143012 -0.02347647349017986 -0.045004677144597265 0.07505780334379382 -0.21302044849046645
0.2088517772177991 0.17030661570918132 -0.028074190602209396 -0.09202101393155071 -0.13493206077793843 -0.05105861826860118 -0.1612180231823524 0.14968279156329067
0.19155633437921274 -0.037014288254162274 -0.02322589766947775 0.10335913654050248 0.07194702590293546 -0.1811404579800385 0.0750431750640117 -0.1979455656492489
0.17438953842984167 -0.24011861968704817 -0.02739384327199157 0.11935342963771209 0.2168294048970735 -0.3020117305974504 -0.22012367255622606 0.008155663665084576
0.22188746088625763 0.23247755186381824 -0.08102445896063082 -0.047847240676316176 -0.021189756551896168 0.13241382326790435 0.27141582468213177 -0.051696090117312236
0.20375437793970405 0.17283771719105645 0.14333031878176553 -0.23487960997099494 0.2098666563861522 0.16839268237233243 0.1361292127964568 -0.16570490876199925
0.15115670638688897 -0.017556297175353352 -0.1721445520968895 -0.06229413229588845 -0.2129828443862252 -0.14520062981390316 -0.10436788819475974 -0.22481197972105715
0.023322623315358938 0.04075126156280629 -0.16948933451648968 0.18389088202658305 -0.17998970865271785 0.1542675169682821 0.14994603376262067 0.06594629379196215
0.07708042326073015 0.17680946369806189 -0.0826177762832346 0.07550558709844872 -0.14166060696553298 -0.06732938320702132 0.1552870481884315 -0.21172762080171872
0.16659631898159866 0.03392118698269991 -0.05453503489623711 -0.1104347398466731 -0.09058092760172934 -0.013003345676076703 -0.023512926048617697 0.22807903394762646
0.10752691276696653 -0.22701643814331948 -0.14488744661154576 0.22628247549773367 0.0417849989689068 -0.05595421117717466 0.10721425664067338 -0.055512411422557285
00000000: 62fe 460c 3754 c4bf ab2b 26ab cdc9 ce3f
00000010: 1541 ee71 fcac c33f 89c1 ef1b a0da c2bf
00000020: c7ec 1792 a2ca c2bf e0c7 16d0 b69d d23f
00000030: f3e0 3af0 5137 c33f 3ddb a4d0 b4e4 cfbf
00000040: f3fb 9409 4c48 5fbf 29d9 8f34 23d0 d2bf
00000050: 600f 487d be63 b93f 735d 6143 a436 bb3f
00000060: 7bd1 240d 3a69 cd3f 2b5f 380c f712 bbbf
00000070: 83c6 5a62 bc5d a7bf dabe 2150 4ead cf3f
00000080: 897e c2f7 1556 9bbf 8671 8023 c1af cebf
00000090: 3fcd 3acc 4545 cfbf 580c bcfd 6b44 773f
000000a0: 96f1 251b 2b78 cabf c793 1438 8855 c9bf
000000b0: 91b8 6f27 f77b ccbf 6ac6 366e a058 c73f
000000c0: 8416 d849 934e b0bf 6c2f f7eb 1809 cc3f
000000d0: c5ab f6b0 82ea c13f f47a 51e3 d680 cb3f
000000e0: 9f07 2bd7 5757 cc3f a1a9 8749 d470 d03f
000000f0: 381a a565 fd18 c43f 5bcf 7d5e 8006 ca3f
00000100: 76ce d793 2bb4 c5bf 6cfb 83b6 3d41 c5bf
00000110: 2068 45ac 31a8 913f 31f7 9869 81ed b2bf
00000120: ee4a 4705 200a ce3f 604c e376 cc9e 98bf
00000130: bb5c e45e 39c4 97bf 74fa fe2b 9850 a5bf
00000140: 85ad a181 65bb cdbf 10d3 ead7 a770 d1bf
00000150: 19f5 5d61 451b cd3f 7294 7535 d3be c0bf
00000160: 1017 61d6 8ee7 ca3f be2e c166 5eaf bf3f
00000170: 5186 6f84 a374 cbbf 3295 2670 cdbd ac3f
00000180: 6425 630d 1a66 aabf 635f 14b1 c337 c0bf
00000190: 3a92 f48e e6f1 c73f 5b58 5b4b 978b aa3f
000001a0: d439 852a 826b 983f b306 4d6e f73b cc3f
000001b0: e0f7 fe8c 0a9a ba3f 6caa 2fab 9190 b8bf
000001c0: 697e ac13 c4c5 b4bf 7dc9 ac74 4040 d23f
000001d0: 6420 6a4c 7cbb aa3f d938 78e2 125a b9bf
000001e0: f88c 7b74 4798 a7bf 5c61 e742 3825 c83f
000001f0: 331a 67ca 7c43 bfbf 0602 fbf8 4cd2 983f
00000200: a9cc e1bd 7deb c6bf a892 583c a9fa b93f
00000210: 4503 c6ff cc55 d03f 4787 1c96 caa1 c6bf
00000220: 043c be51 4346 aebf 1eb2 ce43 1f24 cc3f
00000230: 44a1 31f5 4234 cc3f 4642 bd1f 1fc8 98bf
00000240: f14a d697 37ca acbf a8f9 eb8f b494 a8bf
00000250: b2af 1486 26ed c23f b5d9 f050 edaa d13f
00000260: 5ef0 e1c5 46c9 cd3f 4bd0 ccf0 1206 b8bf
00000270: 2496 15bc 705e c3bf 8730 fd99 6398 bd3f
00000280: b6b4 7031 28d3 a9bf ea31 d310 5122 b6bf
00000290: 9d11 3d97 65b2 b9bf 1819 b05a 4866 b83f
000002a0: be5a 1cac 1a49 b3bf 4bed 3cd2 7b9f d0bf
000002b0: 7ade 1c4a 7f5d c6bf 33f4 4c4b faf9 b03f
000002c0: c1c7 846d 85cd bebf 5377 bb92 11a9 bb3f
000002d0: 1c6b a002 5f71 a23f 4e59 29aa 3ab6 c23f
000002e0: 893f 137b 961e cf3f 6b69 a2dd 3ecc c83f
000002f0: 9814 32d0 66a9 b83f 9dcf b1b7 c6ad b13f
00000300: a298 57cb 60f8 b2bf 46d8 9b97 b431 c4bf
00000310: 7b7d 76f4 b856 b03f ae67 8ff3 8f07 b9bf
00000320: 7f14 22ed 868d ba3f 6fc1 b546 c088 8dbf
00000330: c491 234f 65cc c9bf 04c1 7f35 b412 c5bf
00000340: 7510 c095 15ca cabf 8b2d 451b bc99 ccbf
00000350: c1b4 cd0a a7b0 753f cb2b 8d8b 25e8 cabf
00000360: 6dc9 0171 9dbd ad3f 5fe9 0c0d 0aca cf3f
00000370: d7a8 04e3 6b0d cbbf 0fc3 f13a aa08 c83f
00000380: 78b5 5019 e8e5 b1bf b462 e62c 3815 263f
00000390: c126 9bcd c7c4 b43f 0ccf c538 e746 ba3f
000003a0: 55a8 b124 f103 be3f fbd5 6478 219f c03f
000003b0: 7469 1de2 5b1d ca3f 086b 42a1 1c4e c0bf
000003c0: 49c7 85d8 9a9e b6bf 8470 054c b7fc b03f
000003d0: 15e6 fd56 77bd c13f 424b b537 ea83 97bf
000003e0: b8e3 2343 e4a4 c2bf e631 40ff cf21 b73f
000003f0: e37b eaa1 f7be c6bf 76d9 b6df 6d50 cb3f
00000400: bfc1 164d 091a ca3f 17fd 48a0 49a2 c2bf
00000410: 7ef4 fd1e 4d32 cebf 9b57 dea2 b24f af3f
00000420: b4ce 7a80 923a c13f 5c20 87e0 9a98 cabf
00000430: d6e3 1251 06d4 b8bf 7d09 8a1a c807 a03f
00000440: 5073 3dd7 539c 873f c81a ecb2 b4b0 b13f
00000450: a88d 049a b252 cbbf 3fb9 1642 a394 c0bf
00000460: d076 49b8 8c5f cdbf 07a0 a4c4 b5b7 af3f
00000470: 0468 b5a8 0e3e c43f bc16 fa9e c7f0 96bf
00000480: f282 78d5 c547 c33f e838 58b6 77de c03f
00000490: 07e1 1161 6715 c73f 3d88 5c69 6ae8 c8bf
000004a0: bff3 f79d 6fc2 c13f 3f74 b6b2 6086 c23f
000004b0: d7b7 4034 305d c33f ec34 8939 8b21 b3bf
000004c0: 3872 78e8 1029 c13f d5dc 3e83 fe4e c1bf
000004d0: 1dd9 0ae8 6047 9bbf 2fdf 28e9 2566 82bf
000004e0: c7c9 2f75 ef93 c4bf 180d 48a1 73d2 ccbf
000004f0: caaa 7da7 d5f8 c4bf 4423 069f b7f3 c3bf
00000500: ef01 2971 482d bd3f 462f 879c ca26 b23f
00000510: 29cc 9c7b 3142 bcbf 4c78 f897 128b c93f
00000520: 04b9 463e a604 cabf 7910 1aa1 8e2d b63f
00000530: 46de 0a31 4a44 a43f f159 311a 8b6e bb3f
00000540: 603a 5f1d 7389 c93f 0707 f3f1 fd87 ba3f
00000550: fff5 9157 88b6 bdbf 22e7 5792 2f7a c83f
00000560: d682 7677 370a 98bf 3794 0161 da0a a7bf
00000570: 5dd3 abfa fc36 b33f c5a9 d209 4144 cbbf
00000580: 8f53 6eb0 a7bb ca3f 3ab6 6170 9bcc c53f
00000590: a11d fe09 7bbf 9cbf 307a 616d b08e b7bf
000005a0: 858f 1c2a 7445 c1bf 9601 49ef 5a24 aabf
000005b0: 5207 8ccc caa2 c4bf 9ce7 4443 ce28 c33f
000005c0: c50b c0ff ea84 c83f ab9b 126b 89f3 a2bf
000005d0: 5181 a49b 87c8 97bf 732b 2f8f be75 ba3f
000005e0: b92d 4ccb 1e6b b23f 73dc 804b 9c2f c7bf
000005f0: 601c b08e 0736 b33f fb05 6dc1 4756 c9bf
00000600: de0c 297a 6552 c63f 60b7 5bf9 34bc cebf
00000610: c01c dcb3 210d 9cbf ee9b f544 f28d be3f
00000620: 950a 6ce1 10c1 cb3f 9129 7b02 2954 d3bf
00000630: e629 5a33 032d ccbf ffec bfa5 eab3 803f
00000640: fb10 f3ed ce66 cc3f 4895 270d d3c1 cd3f
00000650: 1079 69d9 04be b4bf 7f36 d1fb 6e7f a8bf
00000660: c735 9a7d c4b2 95bf 26ab 3ca8 eff2 c03f
00000670: a21a a87a e05e d13f df14 c5f0 e877 aabf
00000680: 337c d59a 9f14 ca3f c8e9 6cdb 8b1f c63f
00000690: 2db2 d8db a558 c23f e24c a9f9 8810 cebf
000006a0: b885 d91c e9dc ca3f 9562 d633 e48d c53f
000006b0: 4ed9 7e9a ae6c c13f 8fb0 f585 d135 c5bf
000006c0: 855a 405b 1a59 c33f c3f7 d328 47fa 91bf
000006d0: 2469 b82a d508 c6bf 7317 e339 04e5 afbf
000006e0: 01bb 9f97 0543 cbbf 7d64 342a ef95 c2bf
000006f0: 5990 8c9a dab7 babf 8452 5392 a3c6 ccbf
00000700: 3de8 95c1 e2e1 973f 81b1 5d6f 59dd a43f
00000710: c272 6296 d3b1 c5bf 3a1b 2b86 bc89 c73f
00000720: c2d6 231c e709 c7bf f760 1bba 09bf c33f
00000730: 7272 967f 6e31 c33f a0fe 2037 dbe1 b03f
00000740: 8711 11e9 8abb b33f c66d 1a48 b1a1 c63f
00000750: a669 3447 7026 b5bf 43cc 408b 5554 b33f
00000760: 6534 064d ef21 c2bf 291b ef9a 7f3c b1bf
00000770: a318 bb2c 72e0 c33f 316b 8003 e419 cbbf
00000780: 4079 d436 0753 c53f 87e2 7629 1e5e a13f
00000790: 4e2a bb1e 04ec abbf aad5 fb7b 7345 bcbf
000007a0: 62d6 b0c9 4f30 b7bf 65b2 5683 7fa1 8abf
000007b0: 2cf8 a5c1 c513 98bf 8aaa da9b b131 cd3f
000007c0: a522 c63d e286 bb3f 776f bde8 df0e cdbf
000007d0: a115 66fe ab8b c2bf 16d9 f5fb d2f6 cc3f
000007e0: a7d7 11e8 d764 a53f bbac 28c6 07a6 acbf
000007f0: d6c7 efbd 6472 bb3f 55f9 296f 1f6c acbf

bias f8 [64]
0.002600696562812691 0.1324147714042666 -0.06010157553256235 -0.0765543617111761 -0.06206736085765949 -0.1898014397736689 -0.008084558766832659 0.21073406677414624
-0.03197444164977555 -0.010365645647928513 0.005725480040190935 -0.06226355129335648 0.0764972542561731 -0.11421044614879589 0.011916296197298611 0.20084221022173973
-0.07553517483433797 0.23459452241296888 0.11927307046771404 -0.04128051202925606 -0.18932199372303252 0.059512785301235216 0.12994923579198603 0.19589455726838773
-0.12801041148048373 -0.029724426449636437 -0.027456846001701667 0.08782075611604374 0.2118994578783394 0.09064971209479994 -0.07750595457992832 0.07832561164681869
-0.004994243221498999 0.13801150261125217 0.16059991449066782 -0.13988849148855567 0.04603085214895473 0.2076505997824402 0.14257405480382654 0.10610272063378469
0.06952319713215845 0.15187868707426677 0.07454948594684731 0.06889290934108905 -0.06453067963215083 -0.09146616023779344 0.050654363898730716 -0.12966995334524042
-0.024975837327613864 -0.22953590965547427 0.12461617223749175 -0.14312717394456909 0.11295979330951748 -0.12146912196753075 0.011960580230959968 0.16240302761120587
-0.16887656345349397 0.11890278525650029 -0.029964592218017973 0.09152700932195527 -0.07213503681819587 0.08511062732394284 0.16148422725427386 -0.13822863775497313
00000000: ee25 e455 0e4e 653f 6425 589c f7f2 c03f
00000010: 716b b33a a2c5 aebf 6e68 ea0f 1199 b3bf
00000020: 2cbb 100a 4bc7 afbf 37e3 47e0 694b c8bf
00000030: 3891 0c1c a38e 80bf 5259 797a 55f9 ca3f
00000040: 9b25 633a f45e a0bf ba6c 7a68 953a 85bf
00000050: 1ba1 6cd8 9973 773f 8058 1319 02e1 afbf
00000060: 7499 43f5 5295 b33f f415 1253 e53c bdbf
00000070: 3e9f a733 9267 883f 6f84 4792 32b5 c93f
00000080: 9c72 9cf1 4556 b3bf f1ce ca7c 3107 ce3f
00000090: 3ecc f310 ae88 be3f 9c6d 4122 b822 a5bf
000000a0: c51a bafd b33b c8bf e816 20b5 7578 ae3f
000000b0: 68f2 ee32 2da2 c03f da4f 77a6 1213 c93f
000000c0: 5397 6d29 a562 c0bf 1864 f97d 1470 9ebf
000000d0: 2eb4 83be a51d 9cbf 9dab 6dcb 6b7b b63f
000000e0: 1b55 d07c 851f cb3f 7cc7 d6cc d134 b73f
000000f0: 7c82 2a24 6ed7 b3bf 2d58 76b4 250d b43f
00000100: 84ac dff4 d774 74bf 6cf4 1765 5caa c13f
00000110: 0929 3dba 898e c43f 01db 03b8 dde7 c1bf
00000120: 5d6d 2c19 5b91 a73f 0dba 877b 4b94 ca3f
00000130: 6ffd 51db dd3f c23f c983 2343 8c29 bb3f
00000140: a5f8 feb1 45cc b13f 20c1 f8c4 c270 c33f
00000150: 3948 13d4 ac15 b33f 60d8 8b38 f7a2 b13f
00000160: 75d6 9b26 1585 b0bf 0a7a e986 536a b7bf
00000170: a580 b068 5eef a93f b321 7268 0699 c0bf
00000180: fb9c 0c12 4493 99bf ee2a 9dc4 6e61 cdbf
00000190: 160f 5070 d8e6 bf3f cc62 a1c1 fd51 c2bf
000001a0: f3fc 06da eeea bc3f 8d0a 53b2 9918 bfbf
000001b0: 1e1b 77e7 c97e 883f 1946 2e56 9fc9 c43f
000001c0: ebfb 8b4a bf9d c5bf 8d79 14b6 6970 be3f
000001d0: a71b 75be 09af 9ebf 5b0d bd67 506e b73f
000001e0: ffa7 0718 7177 b2bf 22fc e560 cfc9 b53f
000001f0: 823f 70e1 83ab c43f 629d 43db 79b1 c1bf

weight f8 [1, 64]
-0.01664453829363046 0.03885507508025185 -0.029004467384036812 -0.04401721753922791 -0.06473562483193153 -0.033807859374619234 0.029943931589277578 0.012941833723585693
-0.016496403840289702 0.0591066893491347 0.025549737956947333 -0.02441344523626754 0.03215398787104579 -0.03889108856625024 0.027434770693836413 -0.006663037334103998
0.05934737984128277 -0.04159448414144285 -0.0536059187607689 0.02766737802590294 0.02535273670850769 0.05131047622778843 0.009726470145898877 -0.00531390347556887
0.04192631370700188 -0.04293922262337223 0.038891989720157866 0.059618599319504424 -0.05240713905487663 0.04055662464488793 0.025053715117734427 -0.01060697020545703
-0.04253658857302724 -0.040318300964740476 0.00824386981884701 -0.012923990852265128 -0.018228658270488404 -0.0039059980274645805 0.010822803208110743 0.029489601348877497
0.010606891460888683 -0.02840403406438082 0.052418045974416065 -0.0016361994224072824 0.04020413604859928 0.0008354871698348913 -0.04137836623454348 0.010478036238017598
-0.0522367312446052 0.0379698793700381 0.03152766119740796 -0.042161912348036484 -0.03916112449334497 -0.025211045029584465 -0.01557940105478525 -0.005759818477456295
0.01658593319855278 -0.04892712578666493 0.054443969514846785 0.016991809325409696 0.035542547455065514 0.046800624253432684 -0.02270428740664852 -0.0001457822439558605
00000000: 063d 830e 440b 91bf 5cb1 81f9 cfe4 a33f
00000010: f9ca 68db 58b3 9dbf 1c74 95bb 6c89 a6bf
00000020: b10d 8a8f 8392 b0bf 2a38 b984 434f a1bf
00000030: 88f5 8e3b 9fa9 9e3f b99b be84 3f81 8a3f
00000040: 7b8c fbeb 6ee4 90bf 566f 7563 3b43 ae3f
00000050: 752c c9e3 b529 9a3f 2065 7d93 d6ff 98bf
00000060: a92a afcc 7c76 a03f b1ea fe62 88e9 a3bf
00000070: 2bf7 9c4b dc17 9c3f 7872 1277 b34a 7bbf
00000080: 0c0f 0b9f c762 ae3f c1b8 294a df4b a5bf
00000090: 7d29 e627 3c72 abbf c837 264f d654 9c3f
000000a0: 62ca 1b5c 11f6 993f d55a aee2 5d45 aa3f
000000b0: 380e 75b9 78eb 833f bf46 441a 08c4 75bf
000000c0: 0644 6da4 5d77 a53f be1e c439 21fc a5bf
000000d0: 0451 d99f a6e9 a33f e106 9f3c 5486 ae3f
000000e0: 059f a2c8 1bd5 aabf 4bcd f880 d6c3 a43f
000000f0: d5be 4b5c aea7 993f 1efd 2271 1bb9 85bf
00000100: 32ef 9b11 5bc7 a5bf 17cf 25b0 99a4 a4bf
00000110: 238d 1d7a 29e2 803f 77b0 5ab0 e477 8abf
00000120: eca0 7c8c 88aa 92bf c18e 28b9 78ff 6fbf
00000130: e097 a30e 442a 863f 4b47 76a5 8532 9e3f
00000140: c970 7edf 10b9 853f 1621 8675 f215 9dbf
00000150: b755 5cc2 89d6 aa3f 0805 93c0 b7ce 5abf
00000160: 0e3f fcf2 a295 a43f f9a9 0b09 9360 4b3f
00000170: 3e82 7a93 8b2f a5bf 4eab bf37 8275 853f
00000180: 17e8 b0d8 c5be aabf c937 41bc c970 a33f
00000190: b843 86c3 6424 a03f 94e0 5705 3f96 a5bf
000001a0: c06e f249 ed0c a4bf 59a6 9997 ecd0 99bf
000001b0: 2f2d 2cd0 17e8 8fbf de79 dd7f 9b97 77bf
000001c0: 8f4c a522 e7fb 903f b231 48ea f90c a9bf
000001d0: 54b6 0f79 14e0 ab3f 68f6 6805 4d66 913f
000001e0: e73f dffd a132 a23f 41a6 335d 40f6 a73f
000001f0: bbe9 8fef ca3f 97bf 249b b4f0 a31b 23bf

bias f8 [1]
0.007062536076986954
00000000: 21c1 a317 9bed 7c3f

weight f8 [1, 64]
-0.33838674071177977 -0.365210770613435 0.4126636021856883 0.36650116497816293 0.4041596132249359 0.4098252228289478 0.4213873257986269 -0.33383570424886183
0.38222168871211537 0.415421918518313 -0.31280752975250087 0.34553477124759363 -0.4066363529394075 0.3449595841677113 0.38544992612819484 -0.3253251343121658
0.4157410076480747 -0.2960000365756901 -0.36775023922057126 0.3403168150393504 0.3120556356943561 -0.34018688777085965 -0.30879648405753657 -0.3221459222281458
0.32343754364197214 0.317305712207153 0.32343804443710306 -0.39864651514953375 -0.3691009503088551 -0.36765649797285804 0.4158969582751912 -0.3362594074391115
-0.41808235494848217 -0.3509404923126791 -0.3774663820979741 0.3695428602171117 -0.285081804110983 -0.40008578889950286 -0.32358621744691607 -0.4172573020077703
-0.36001683221335784 -0.29472887875307385 -0.3340660235209152 -0.29724121838549694 0.4098429281825285 0.3433506046350074 -0.4182718542322369 0.3188188302475391
0.3183239059384117 0.3631756992729784 -0.3644960184021823 0.4139483266766533 -0.32548226758712695 0.3802728986981967 -0.3516663854243617 -0.27897842082727936
0.4172465380059402 -0.3345091823781135 0.34061738992061463 -0.2857619988552576 0.31416643938020067 -0.38828507845739885 -0.2892313259592178 0.32916344947638493
00000000: c074 30dc 20a8 d5bf 56a0 fbfe 9c5f d7bf
00000010: 02c6 e898 1469 da3f 2dbc 614d c174 d73f
00000020: 2491 4a48 c0dd d93f 5f14 4892 933a da3f
00000030: 8841 d08b 02f8 da3f 751a ff6d 905d d5bf
00000040: 92c9 35f5 5176 d83f 8cf9 84d0 4596 da3f
00000050: c1b0 8edf 0905 d4bf 91e9 88df 3d1d d63f
00000060: 7453 4f7b 5406 dabf 074b 1c5d d113 d63f
00000070: 6ed6 bd2a 36ab d83f fa00 1c83 20d2 d4bf
00000080: 9f17 dd2b 809b da3f ec45 2d23 aaf1 d2bf
00000090: 1e1b a34c 3889 d7bf 72dd b72d c0c7 d53f
000000a0: 76be 7533 b8f8 d33f 513f 6039 9fc5 d5bf
000000b0: e466 0954 52c3 d3bf 099e 20ee 099e d4bf
000000c0: f969 0f62 33b3 d43f a0e0 309e bc4e d43f
000000d0: 6dee c87b 35b3 d43f ccd2 4eac 6c83 d9bf
000000e0: 7ff0 9f97 599f d7bf e423 bd1e af87 d7bf
000000f0: 870f 9346 0e9e da3f b917 7b2d 4685 d5bf
00000100: 0f75 627e dcc1 dabf 60ce 541c cf75 d6bf
00000110: b6d0 9cc1 6828 d8bf 2e94 c618 97a6 d73f
00000120: afd8 55c0 c73e d2bf 00bc ba6c 019b d9bf
00000130: febb 57f7 a2b5 d4bf 13ff 88f8 57b4 dabf
00000140: c36a 170a 840a d7bf ce98 db83 d6dc d2bf
00000150: c488 6e75 5661 d5bf 314a ff07 0006 d3bf
00000160: 119d 42d5 dd3a da3f 1707 7ed0 74f9 d53f
00000170: 72f1 b04f f7c4 dabf 2ac7 5018 8767 d43f
00000180: df96 623b 6b5f d43f 7314 c549 453e d73f
00000190: 47d0 a31b e753 d7bf 81d9 531f 217e da3f
000001a0: 84bc ad93 b3d4 d4bf 24b0 dd23 6456 d83f
000001b0: b202 20ba b381 d6bf 838b 6f4e c8da d1bf
000001c0: f7b3 c6d2 2ab4 da3f 05a5 a133 9968 d5bf
000001d0: 5c1b 8ae1 accc d53f 8977 e1b1 ec49 d2bf
000001e0: ede0 a88d 4d1b d43f e5f4 5fa8 a9d9 d8bf
000001f0: bf4e 7e1b c482 d2bf 2989 a292 0311 d53f

bias f8 [1]
-0.01622363883863744
00000000: 45ae eff8 ed9c 90bf

weight f8 [64, 4]
-0.053740354399217954 0.21858997597314367 0.028542816798396587 -0.12805526840645737 0.131086509093129 0.18107267191596038 0.07453704791781804 0.1543645483884073
-0.025184578823644065 -0.13440333694960702 -0.12325244337688646 -0.07285717077209952 -0.006940293317373357 0.09418173331280069 0.07099556941973284 -0.07727429810268176
0.023642796650353553 0.02080004543340626 -0.04666033224998955 0.06412427175517561 -0.18796997473861637 0.024766477671348337 -0.05181097336660108 -0.0033186411400740385
0.09730010914290524 -0.006666821743361981 -0.04462467505704486 -0.09096059567626637 0.02035080809911622 -0.03191872149794404 -0.11390034666181544 -0.003566578174813791
0.09577950808168054 -0.07244299154905788 0.06012177451639012 0.17320603415807415 0.04378829682692095 0.013905059074694697 0.08384761432609016 0.046760679381298596
0.0017880627596585832 -0.00839220655408528 0.08388895863246532 0.12013672728156559 -0.07653812933197539 -0.0410894822018725 -0.08017107760517125 -0.10016302459472505
0.031491952767783785 -0.01808579124325147 0.03537174122203587 0.03944172680220627 -0.04874738207227305 0.1126178574707941 -0.24564565250112164 -0.26187692996526946
0.11395016496495267 -0.09099555392979476 0.043247587724269836 0.047047900526266014 0.012217153688619739 -0.03171892094625388 -0.08880411704773815 -0.12077880981898312
-0.10227817949599542 -0.004031078813421645 0.15101421740709522 0.08950547174549975 0.12968612008808228 -0.1715864030256298 0.08890436252323095 0.057335420802808575
0.030674156446507554 -0.045338379688520926 0.07435212406448807 0.10058105286969524 0.1667057485394422 -0.04699992255727677 -0.027095931024728178 -0.032884071023327965
0.25021685024705537 0.07298020944414413 -0.17543362558407907 -0.08815273628596869 0.1108319824429329 -0.010322594299910396 0.025345495440896433 0.02034038806556232
-0.15441480637933508 -0.16415164650212946 0.11092235096526523 0.062027527311568485 0.020334858726712954 -0.08296409670355577 0.027250410948587003 0.04244383431020297
-0.009617790387653074 0.06944519011528963 0.10464603759066231 0.15057167496896667 -0.1129572298802352 0.19862723565823695 -0.12331545879294933 -0.1096004146446208
-0.03499898669985154 -0.008598750376472997 -0.04437858796935317 -0.0464190643758084 0.13654148097152527 -0.021682393922643543 0.015632896378435044 0.02870130783797172
-0.05129199668851503 -0.14072928790150482 -0.0010992036127851837 -0.04408722548022269 0.03683623483484407 -0.08508424676538846 0.012817388778933906 0.034224059424784264
-0.12445930603684512 0.11119002809351032 -0.11555781632510166 -0.11651534962855163 0.10455798067232876 -0.07076719733648346 0.022029827122491068 0.034420056828841576
-0.06703474531445895 -0.10294025101682283 0.0880253152173474 0.11886216271344485 0.15450611477952134 -0.14795768254753403 -0.11504743458052308 -0.09719358053161473
0.05264056919392932 -0.04639815693065693 -0.14533347056421592 -0.03336387418488725 -0.016103613688520917 0.013027048985893979 -0.003984435955017936 -0.009289129921129794
0.028379362610744148 -0.13052014155332803 0.2797009225954847 0.23612435982468447 0.1828237348468432 0.041653028342983275 -0.003776295412109967 0.0059896882735476
0.06750486672674501 -0.07665255801557722 -0.05337161741204107 -0.06879036694554516 0.06830739973886486 -0.16200456704849567 -0.16743989150795854 -0.106908181886298
0.07912783233518456 -0.1296941540108627 -0.13584390661852197 -0.008881865843207276 -0.1270033445801013 0.1302617015800817 0.09663055197769946 0.015806966237145607
-0.022752679076957886 -0.09273997334658436 -0.009394117105982121 -0.16675087531392302 0.1003146263514072 0.05214552351158315 0.20036519425971258 0.1527891070280827
0.09796648505850095 0.012242255243149026 -0.1401428412173203 -0.18026500074766041 -0.043919096898294284 -0.047199138497210254 0.02932147093490219 0.028836654009990418
-0.13394890347322214 0.11326124716716607 -0.047852808321080596 -0.04995440154017148 -0.01860046543071566 -0.014944262845052502 0.10482479959712443 0.004612628774463105
-0.1493823058469119 0.1678233531633167 0.046191316350343084 0.16036857135901247 0.07489932283835952 -0.10071436686056355 -0.033687888117078124 -0.02375051991271415
0.1890828184258977 -0.15334945224256516 0.02974239354805775 0.04803584160742698 0.1312692698822259 -0.08294512069976785 0.022344781697396635 0.04006919413244496
0.03969905468405801 -0.034970846532753966 0.0038611414673593593 0.0550715044644952 0.06545772806041457 0.006663795568924929 -0.1376102805840607 -0.17224930946589895
-0.06187848403525208 0.18790974632420576 0.054791553762092694 0.07024013616045562 0.04325668879691322 -0.009253058002119969 -0.06702230890608561 -0.09566402682597334
0.04413914036022399 0.07045393858433409 0.10110022687241718 0.04277273171363243 -0.11665367313736424 0.03954992074352693 -0.011576681033157505 8.965645743736107e-05
0.08253643184175934 0.10844830238840494 0.027002162255672705 0.022396496805808512 0.04470624867625281 -0.06440975987475044 0.16978769940812244 0.1491246812958398
-0.024397918713886604 0.10628697729632838 0.08939017827145673 0.13966301447492188 -0.049062489417744395 -0.12711989472478405 0.048298394407584974 0.06162630243652494
0.05131472597255259 -0.15825399399925572 -0.10075630152363423 -0.08919289399029462 -0.19804932169596073 0.04904419613596318 0.011250067553773006 0.010005601812201692
00000000: 8c7c 3d11 db83 abbf bcdf 049f c1fa cb3f
00000010: cd44 bd02 543a 9d3f 3270 f172 1d64 c0bf
00000020: d73a c056 71c7 c03f 9a08 0aaa 632d c73f
00000030: e2bc 2527 dc14 b33f f0b8 7eaf 37c2 c33f
00000040: 93f3 a479 fcc9 99bf 8bfe 55e8 2034 c1bf
00000050: 90b0 74dd 788d bfbf 00c9 be7d c4a6 b2bf
00000060: 980c 2acd 6c6d 7cbf ca85 7548 4b1c b83f
00000070: 1093 d100 c42c b23f a320 2c97 3fc8 b3bf
00000080: 2bd4 9839 d135 983f 7432 916b 9b4c 953f
00000090: 8f82 11f2 dce3 a7bf d57b 11c2 726a b03f
000000a0: 52ef 106f 660f c8bf 05cf 8a2e 625c 993f
000000b0: eaf0 5dc8 f786 aabf adab 3de5 b12f 6bbf
000000c0: 8a7f aaf2 a8e8 b83f 8a2e b255 ab4e 7bbf
000000d0: 96e4 ed9f 0bd9 a6bf 797c a78f 3149 b7bf
000000e0: 1277 ee9c d7d6 943f 6d77 ed91 a657 a0bf
000000f0: 2562 eab7 9228 bdbf 448e d213 a837 6dbf
00000100: 1e79 d67e 0185 b83f 5111 87b7 9f8b b2bf
00000110: 7198 a6fe 47c8 ae3f 81e2 1686 9d2b c63f
00000120: bc69 a36d 6b6b a63f e34f cc6f 417a 8c3f
00000130: 4bd0 6089 0977 b53f f3e2 5c09 04f1 a73f
00000140: d305 dcc4 ad4b 5d3f 5a51 87e5 ee2f 81bf
00000150: 5c6a d22d bf79 b53f 1b09 b9d2 47c1 be3f
00000160: f3ba 60ba 0098 b3bf f481 883c ae09 a5bf
00000170: c637 667c 1786 b4bf 191d e7b2 48a4 b9bf
00000180: 0a1a 7396 b61f a03f faef a5e7 1485 92bf
00000190: cb9f 80af 3e1c a23f 222e 6dbd b431 a43f
000001a0: 0335 88b7 6af5 a8bf bf5b c81e 86d4 bc3f
000001b0: 8ecd f215 5171 cfbf 14c6 7174 97c2 d0bf
000001c0: 76f5 e587 d62b bd3f 39ba 3510 7c4b b7bf
000001d0: cf31 d03d 8c24 a63f f927 3694 a916 a83f
000001e0: f8b5 579c 4e05 893f e6d3 4160 763d a0bf
000001f0: 775e 78da ddbb b6bf 06eb 382e 5ceb bebf
00000200: 9b9b 071c e72e babf d26a bd7a e482 70bf
00000210: 094c 7f12 6f54 c33f d2c0 f5a1 d4e9 b63f
00000220: 2600 4306 8e99 c03f 3178 b712 8bf6 c5bf
00000230: 264e 82b1 6fc2 b63f 693c 807a 115b ad3f
00000240: ee9e 14cb 0b69 9f3f 9d1a 0894 9736 a7bf
00000250: 96bf 3ea5 bd08 b33f ba2e ac0c aebf b93f
00000260: fc1b 042d 9d56 c53f 3b98 98b4 5f10 a8bf
00000270: 9f6b 6c26 09bf 9bbf 9885 3553 2ed6 a0bf
00000280: e707 2e89 8d03 d03f 445d d1bc d4ae b23f
00000290: 4d4c 40ea 9b74 c6bf a3b1 667f 2d91 b6bf
000002a0: 5f78 f11b 7c5f bc3f a286 6c27 0324 85bf
000002b0: 7209 1468 2bf4 993f 703f 1e56 1cd4 943f
000002c0: e66d b547 ddc3 c3bf 5dd5 a7d0 eb02 c5bf
000002d0: 3e8f ca3d 6865 bc3f a386 8272 12c2 af3f
000002e0: 09d0 cc44 a9d2 943f f97d 1592 223d b5bf
000002f0: 5495 4e1f 88e7 9b3f a5ee 8ec0 32bb a53f
00000300: f6e4 65f9 7db2 83bf 3ae0 68f4 28c7 b13f
00000310: 1b9e 1b2d 15ca ba3f 2e0b d9c1 ee45 c33f
00000320: 6baf 2ed8 c3ea bcbf 1d9e 9f04 9e6c c93f
00000330: 4661 9b16 9a91 bfbf e1d4 86d4 c50e bcbf
00000340: 8bba 891e 63eb a1bf da33 3abd 389c 81bf
00000350: f72a f14f cab8 a6bf 395e cf56 3dc4 a7bf
00000360: 47f9 a8f5 307a c13f 71dd 2fd3 e833 96bf
00000370: 69a0 bfea 1102 903f d5e9 102a e063 9d3f
00000380: a0bd a5d0 f142 aabf a32b 90d4 6a03 c2bf
00000390: a03e 63e4 6402 52bf 3ec6 37cf 9992 a6bf
000003a0: fbcb d8ef 32dc a23f 6d1b 43c9 14c8 b5bf
000003b0: c24e 01cd 0040 8a3f 847e eedf d085 a13f
000003c0: 6371 1ca9 90dc bfbf 018e 4d1e f376 bc3f
000003d0: 41da e971 3295 bdbf 83fa 2230 f3d3 bdbf
000003e0: f500 86d3 4fc4 ba3f 1495 308e cc1d b2bf
000003f0: ce4b 1cac fc8e 963f 470b d074 819f a13f
00000400: 1740 d266 3029 b1bf 4a2d 8fd3 4a5a babf
00000410: 031f 14ba d388 b63f 1809 962d c06d be3f
00000420: db49 013b dbc6 c33f e3e6 ddff 46f0 c2bf
00000430: 7415 03a9 bf73 bdbf 86b1 c3b1 ade1 b8bf
00000440: ddf1 4266 b4f3 aa3f 0b44 39cd 7fc1 a7bf
00000450: be32 8b83 499a c2bf cbe0 fbd8 1115 a1bf
00000460: 4ef7 8e38 777d 90bf a9c8 dcea ecad 8a3f
00000470: 62bc eae1 fb51 70bf 22a2 c1e9 2d06 83bf
00000480: e289 2dc9 7a0f 9d3f 446d b84d e2b4 c0bf
00000490: 435a cdb2 9ee6 d13f cf33 9eb1 5239 ce3f
000004a0: 2bc5 0ca5 c466 c73f 0663 06b5 8b53 a53f
000004b0: b906 7129 77ef 6ebf 674e f8b3 a488 783f
000004c0: 7d86 e9ba ff47 b13f cee6 d485 809f b3bf
000004d0: 9b80 a34e 8653 abbf ce9a 4fd8 3e9c b1bf
000004e0: 7506 f4ff 977c b13f 9d51 a3ce 90bc c4bf
000004f0: b346 099d ab6e c5bf 4e60 e0a8 555e bbbf
00000500: c43e 15bc b841 b43f e8c1 fa6a d199 c0bf
00000510: 80ca 2448 5563 c1bf 839f 97da a730 82bf
00000520: b721 ba45 a541 c0bf f697 1a5a 6aac c03f
00000530: cae4 89a4 c7bc b83f be6a 268c b32f 903f
00000540: 01af 2072 7a4c 97bf b134 8e90 cebd b7bf
00000550: f1bb f50d 393d 83bf febd 06ba 1758 c5bf
00000560: 8060 7d27 38ae b93f aae7 3a6c d1b2 aa3f
00000570: 5513 4d12 91a5 c93f c171 efec 978e c33f
00000580: 622a 6ee1 5414 b93f 3a5a 30af 7712 893f
00000590: 3201 e65b 33f0 c1bf 0d8d 696d ec12 c7bf
000005a0: db30 b259 907c a6bf 9162 7d48 7c2a a8bf
000005b0: 15af f19a 7206 9e3f 318d 9817 5b87 9d3f
000005c0: 8e53 e0d7 3c25 c1bf ecb5 7c68 b0fe bc3f
000005d0: 4b87 85cd 2980 a8bf 0d05 d091 9f93 a9bf
000005e0: 3678 dc1a 000c 93bf 9968 7501 199b 8ebf
000005f0: c853 144e ccd5 ba3f 782e c21b b1e4 723f
00000600: cf55 1b9b f51e c3bf 62b6 ab52 3c7b c53f
00000610: baf6 2a62 63a6 a73f 9b87 a514 f586 c43f
00000620: 2753 151e 9a2c b33f 9749 e7af 6ac8 b9bf
00000630: 80e3 77f3 893f a1bf bf04 2769 0e52 98bf
00000640: 60f7 afa4 dd33 c83f f1e3 1e71 f4a0 c3bf
00000650: e2ea 5f3e ca74 9e3f 8abe 7a61 2798 a83f
00000660: 2d96 8e72 6ecd c03f b5ad c434 e43b b5bf
00000670: a49d 81ea 8ce1 963f 6679 c00c f383 a43f
00000680: 93ac 193b 6f53 a43f b2dd 57e4 b2e7 a1bf
00000690: c330 7b8a 66a1 6f3f 26a9 3b0d 5532 ac3f
000006a0: a539 4a71 d6c1 b03f 797b 9200 7f4b 7b3f
000006b0: a9d8 59b3 369d c1bf 3e12 75ef 430c c6bf
000006c0: 8fd2 8362 89ae afbf 8cf3 8733 6d0d c83f
000006d0: 65ab 0277 a30d ac3f 8dfd acef 41fb b13f
000006e0: 7c96 6e9f bd25 a63f 8a88 0e6c 44f3 82bf
000006f0: d7a2 dac0 5f28 b1bf 6b08 9f0a 707d b8bf
00000700: d934 a4c8 6799 a63f 6d17 18f2 4409 b23f
00000710: aa03 0958 b4e1 b93f a7c3 bdb7 4ee6 a53f
00000720: 1450 15df 03dd bdbf 1141 4e20 e33f a43f
00000730: 9d15 78d3 83b5 87bf 8490 d435 be80 173f
00000740: db27 7d8b 1b21 b53f 769e 1098 44c3 bb3f
00000750: 51d3 3c6f 74a6 9b3f eebc 4d75 1bef 963f
00000760: 1c92 fbc7 bce3 a63f 538c 3474 287d b0bf
00000770: 9048 1c74 9abb c53f 4195 987e 8416 c33f
00000780: d7ce dd9b c4fb 98bf 0e7a 7a93 9f35 bb3f
00000790: ac6f 4254 46e2 b63f 53b6 d047 7ae0 c13f
000007a0: d2e4 04f7 b71e a9bf d1c7 41f7 7645 c0bf
000007b0: 1e1a dc30 91ba a83f 6799 1393 7b8d af3f
000007c0: dfeb b57b ec45 aa3f 6616 58b8 aa41 c4bf
000007d0: c7f0 e83b 2acb b9bf 3052 b972 58d5 b6bf
000007e0: e2ed d61f ae59 c9bf 2ad6 ec24 521c a93f
000007f0: 821c c581 460a 873f 8d4c 7b24 d17d 843f

bias f8 [64]
-0.30997036514415643 0.42587556575220936 0.2897227068384574 -0.6975326653582306 -0.665236189318938 0.29934401503472874 0.5692559619424369 -0.6911187175789003
-0.6744536911690067 -0.3471967834874381 0.2795021201574819 0.32965607111641615 0.4645067593477703 -0.3310900683683856 -0.44747540654653 0.46072715219026183
-0.5785392811729612 -0.644081431515919 -0.5038313097344969 0.426973918030647 -0.2662273594124221 -0.32852934100768044 -0.6654423229660413 0.4147151626717803
-0.3469119639154532 0.6436009488106007 0.4749055787053489 0.41700640474781775 0.6315507358064905 0.3433017518019291 0.5841885814174332 0.4271188279969667
-0.691643076838452 -0.3901910044671008 0.5416698995776039 -0.5578475039694373 0.26347683325059795 -0.5280865299306629 -0.56404205087829 -0.5597361158359245
-0.3429125606236583 -0.27201826964320525 0.5913733067976186 -0.23867052550708093 0.36768856685354334 0.46580883224334624 -0.5344435317384895 0.5628494874571291
-0.5275001365712995 -0.6367824946043547 0.6702495236344951 0.5705055072391837 0.5722655513662595 0.6964061798603194 0.6712351918650769 -0.6518850265068663
-0.3639355487887851 0.32443067932862835 0.5675914151952152 -0.6550204489575082 -0.5385248667625459 0.6655832588240554 -0.3737964741351253 0.5590031231690887
00000000: 3e7e 41f1 8dd6 d3bf 258f c496 8b41 db3f
00000010: c1e7 b11b d18a d23f b85e 3306 3052 e6bf
00000020: 34b2 a767 9d49 e5bf a2f5 b4cc 7328 d33f
00000030: b010 7347 5837 e23f 6df4 3400 a51d e6bf
00000040: 8498 47e8 1f95 e5bf 54b7 96db 7838 d6bf
00000050: 8c4c 4fdc 5ce3 d13f e6dc 17c7 1519 d53f
00000060: fcda 0a8f 7aba dd3f 360c eb65 9430 d5bf
00000070: f76c 38e3 6fa3 dcbf 3454 c2bc 8d7c dd3f
00000080: ddda 82cf 6483 e2bf a94b 8aa9 509c e4bf
00000090: 1a56 c0d6 621f e0bf 7af1 8b69 8a53 db3f
000000a0: bd83 7e7a de09 d1bf 01e2 d9ed 9f06 d5bf
000000b0: ea6d d0b2 4d4b e5bf d228 3577 b18a da3f
000000c0: 88e9 e63c ce33 d6bf 7e1d 5a04 6198 e43f
000000d0: 2c8e 4e5e da64 de3f 9952 a7a1 3bb0 da3f
000000e0: 32b7 81e3 a935 e43f da85 29e9 a7f8 d53f
000000f0: e64d 7c40 acb1 e23f 392e 7035 ea55 db3f
00000100: b8d4 70a9 f021 e6bf 2b4b d8b0 e3f8 d8bf
00000110: ae3a fd1c 5c55 e13f de86 3602 e3d9 e1bf
00000120: 5d28 84ef cddc d03f 8f54 f0b8 15e6 e0bf
00000130: aae9 42ea a10c e2bf bdf8 fcb6 5be9 e1bf
00000140: e909 5186 47f2 d5bf 890d 0251 bf68 d1bf
00000150: 6a8a 8db6 87ec e23f d138 c97a c18c cebf
00000160: e6f0 6fa0 3588 d73f 7014 2bd9 cfcf dd3f
00000170: 8204 4c52 291a e1bf 035c a6ed dc02 e23f
00000180: 4cb2 66f7 47e1 e0bf 45b6 9fae 8560 e4bf
00000190: 796e 0521 af72 e53f 47f7 f8c3 9441 e23f
000001a0: 13db 77d8 ff4f e23f 8a6f e79c f548 e63f
000001b0: 6783 9f39 c27a e53f b22b b3fc 3ddc e4bf
000001c0: c693 f953 b84a d7bf fe45 62e5 78c3 d43f
000001d0: 2f1f b878 b529 e23f c27a cf71 edf5 e4bf
000001e0: 177e 5a80 983b e1bf f142 2d43 754c e53f
000001f0: 6e4f f10b 48ec d7bf 67f0 8b84 5ae3 e13f
