models/model3.pkl (torch_old, 81528 bytes, 18 tensors)

action_log_std f8 [1, 1]
0	0xbfeb537932b64bf8	-0.8539396276922835

weight f8 [64, 4]
0	0xbfab817f3a59989e	-0.05372235858230677
1	0x3fcbf9ad45be054f	0.21855703263649182
2	0x3f9d3754877d57de	0.028531380433683633
3	0xbfc05f69f867a8ae	-0.12791180256983153
4	0x3fc0c742d1b28be7	0.13108096350796858
5	0x3fc72c16489b872b	0.1810329298523866
6	0x3fb3175a1c3103e3	0.07457507313030436
7	0x3fc3bd94e5ca934b	0.15422307224539575
8	0xbf99c40f25ee06e5	-0.02516196888928492
9	0xbfc132fed923b089	-0.13436875917921423
10	0xbfbf8e2dacfe052e	-0.12326322053379066
11	0xbfb2ae59b1bd5d53	-0.07297287549350999
12	0xbf7c6a242e37415f	-0.006937161760518811
13	0x3fb81a254788a95f	0.0941489505427504
14	0x3fb22a79ac7cdc16	0.07096062146307278
15	0xbfb3c1cd609345a8	-0.07717593772692644
16	0x3f982eb0ee148403	0.023615612536676888
17	0x3f954944a9b9e9ff	0.02078730855871846
18	0xbfa7dd0937f830dc	-0.046608245928014574
19	0x3fb0699a554bc946	0.06411137182638979
20	0xbfc80cde5c12f825	-0.1878927182751237
21	0x3f9957f13e984720	0.02474953598545604
22	0xbfaa8a1b8aebec07	-0.051834927280616276
23	0xbf6c76f326ee3c1b	-0.003474688440696661
24	0x3fb8e7ccf56cb008	0.09728699676333019
25	0xbf7b3e5919d6f916	-0.006651256609471431
26	0xbfa6dfd952309889	-0.0446765816525821
27	0xbfb7495314ea3f62	-0.09096259365673867
28	0x3f94cf2d9e61c1ea	0.020321572105276
29	0xbfa056cbaae226be	-0.031912197694578634
30	0xbfbd25d1ef836492	-0.1138583383320955
31	0xbf6d49513ebf10ee	-0.003574999505845714
32	0x3fb8804c1ac52f55	0.09570766118593828
33	0xbfb2894ce4be24f2	-0.07240753731288743
34	0x3faecf71a2706f7f	0.060176421240810456
35	0x3fc62adebd6dd7b2	0.17318329095331603
36	0x3fa666fe7ab41915	0.043754532316642315
37	0x3f8c7924b218000c	0.013902937588682128
38	0x3fb5780f0c48c678	0.08386320161732808
39	0x3fa7fb7c89683c0b	0.0468405645116193
40	0x3f5da6a7942b6f85	0.001809753085288941
41	0xbf812c0fa17e8ee1	-0.0083848210486574
42	0x3fb5745984d9a8df	0.08380660527624027
43	0x3fbeb674a0fbcabd	0.11997155123007537
44	0xbfb3956c4ef7996c	-0.0764987652579287
45	0xbfa508745f30dcf6	-0.041080128307322925
46	0xbfb48a54447151c0	-0.08023573561633324
47	0xbfb9a608dbf462c3	-0.10018973703371174
48	0x3fa02039b9509992	0.03149586093086322
49	0xbf9281d5b797aeb8	-0.018073405581090468
50	0x3fa217380be93e7a	0.035333396390908114
51	0x3fa4225326e6110f	0.0393243775352251
52	0xbfa8f3f1de0a2d9c	-0.04873615107961912
53	0x3fbcd24814e1de8b	0.11258364209958864
54	0xbfcf6e3a1bfbc395	-0.24555136076335474
55	0xbfd0c097f7a83c0c	-0.261754981854154
56	0x3fbd28954121c67b	0.11390049781928184
57	0xbfb74928834ddfd8	-0.09096005635899418
58	0x3fa62a07cf82e0e1	0.04328941734405745
59	0x3fa81c23a30f3bdf	0.04708968511078359
60	0x3f890b62e013b3d4	0.012228748763357368
61	0xbfa03bce740d34cc	-0.03170628706593845
62	0xbfb6bf545be53c41	-0.08885695689717556
63	0xbfbeeba6c4769ec2	-0.12078325554341077
64	0xbfba2de2966e3dcf	-0.10226265118239229
65	0xbf70885eb6c1a085	-0.004036302543774299
66	0x3fc353cf0d32f9da	0.15099514145363352
67	0x3fb6ee803ffb8076	0.08957673608847636
68	0x3fc097a32432277a	0.1296276022661081
69	0xbfc5f4d4cd3f25ba	-0.17153415700731306
70	0x3fb6c21b5f90979f	0.08889933665395099
71	0x3fad6404e9596cd1	0.05740371082785035
72	0x3f9f6099732fd133	0.030641935019916033
73	0xbfa7346c89ec7012	-0.04532183822286141
74	0x3fb30b22eb03c566	0.0743886779562409
75	0x3fb9c0289e212c21	0.10058835850320282
76	0x3fc555d6afd48783	0.16668208680590277
77	0xbfa80c2fea731336	-0.0469679807370426
78	0xbf9bccd3046c110e	-0.02714853014460155
79	0xbfa0db574b4eab69	-0.032923438971315395
80	0x3fd001bc6dd653fe	0.2501059601430028
81	0x3fb2aea6dc401942	0.07297747494894671
82	0xbfc6709d18568730	-0.17531169594172402
83	0xbfb68ac98d62ce2a	-0.08805522634320853
84	0x3fbc5b1f0d7adecf	0.11076540068722383
85	0xbf851e1d2d32371d	-0.010311344091202873
86	0x3f9a090abb7ce93f	0.025425117200236654
87	0x3f94f661481dfb8a	0.020471115137748387
88	0xbfc3c3636be47c8c	-0.1544002796954128
89	0xbfc501928c422be4	-0.1641104874473448
90	0x3fbc6362f26a45ba	0.11089151781404541
91	0x3fafcc577d1377a2	0.06210587884719067
92	0x3f94d33e39bc83a2	0.02033707835574073
93	0xbfb53b93ba4f393b	-0.08294032381602261
94	0x3f9bd427a389fbd4	0.02717649398482165
95	0x3fa5aef05fb283e6	0.04235030334644545
96	0xbf83b865c5637de3	-0.009629054151843291
97	0x3fb1c59f50af2659	0.06942172736958109
98	0x3fbacf16bc68cf33	0.10472242450560713
99	0x3fc3461e32f1f5e0	0.15057733047062438
100	0xbfbce62c98af0133	-0.11288717963816879
101	0x3fc96a87c537049b	0.1985635483706901
102	0xbfbf918445f55748	-0.12331415851562355
103	0xbfbc114955bd72a3	-0.10963877051603758
104	0xbfa1e7ea34019d0d	-0.03497249493448793
105	0xbf819ae153ab9dd6	-0.008596191755215903
106	0xbfa6bd912b796dc3	-0.04441503196423071
107	0xbfa7c7fb07c79558	-0.046447605800305325
108	0x3fc1799bbd999253	0.13652369268233375
109	0xbf962e79fe171cf0	-0.021661668904724374
110	0x3f8fe26e2f2b9f23	0.015568600477720523
111	0x3f9d3e28904364f3	0.028557428174143373
112	0xbfaa41159fcd8ba8	-0.05127780509680885
113	0xbfc2025d7bc1a910	-0.14069717924878278
114	0xbf530c9e7de03baf	-0.0011626765985999034
115	0xbfa69319ec312f05	-0.04409104355053554
116	0x3fa2dc594ebfd6ae	0.0368373783712007
117	0xbfb5c672895248e2	-0.08505931713651507
118	0x3f8a2a70d73ce43d	0.012776261871851097
119	0x3fa1745f40db575e	0.03409097353657729
120	0xbfbfd8aec40c5aa7	-0.12440006529173307
121	0x3fbc73dcced1af75	0.11114292191785842
122	0xbfbd96496dc141e1	-0.11557444505275029
123	0xbfbdd4e54a9e421c	-0.11652978011830623
124	0x3fbac33a25c0207c	0.10454142972605668
125	0xbfb21bc12c617b66	-0.07073600133433686
126	0x3f9681557f588192	0.021977744958464003
127	0x3fa18cec956d354b	0.03427829097800358
128	0xbfb1295f6eafda67	-0.06703754856412446
129	0xbfba587eb6085578	-0.10291282600549845
130	0x3fb68a676e1eb6a9	0.08804937780834145
131	0x3fbe6ddffc8b3af0	0.11886405864354876
132	0x3fc3c4aa68ecac04	0.15443925975100126
133	0xbfc2eecbd50262e3	-0.14791248226972362
134	0xbfbd70323f0feb3e	-0.11499322929004749
135	0xbfb8dae68f47e67d	-0.09709015844409837
136	0x3faaf299a0f9ffd0	0.052632141972025814
137	0xbfa7bf1d57593b11	-0.04637996379152843
138	0xbfc29984db98ff5b	-0.14531002733746842
139	0xbfa122beb47be649	-0.033468207866417084
140	0xbf907f00359303b8	-0.016109469671167637
141	0x3f8aa95147f03ff4	0.013018260009658868
142	0xbf70365515d7dad3	-0.00395806538062145
143	0xbf82f3fbeb1f584c	-0.009254425156466926
144	0x3f9d0faa18cc2616	0.028380067599789248
145	0xbfc0b3e452d54f3c	-0.13048986477462587
146	0x3fd1e47d83e2d8a6	0.27957094077590694
147	0x3fce3599ba3b69b6	0.2360107573829972
148	0x3fc764fc56484c2c	0.18276933873184598
149	0x3fa553eb91113eba	0.04165588517991865
150	0xbf6e6a16aa66bd20	-0.00371269633179562
151	0x3f78b9aaefe52a9d	0.006036441538820239
152	0x3fb14500c3501507	0.06745915192012229
153	0xbfb39da3a8170653	-0.07662413457639987
154	0xbfab4f98225885ec	-0.05334163111934828
155	0xbfb1974edf8e5130	-0.0687150283614002
156	0x3fb178dcf2cf2b3b	0.06825047424278534
157	0xbfc4bb24d47aafb3	-0.16196117758715686
158	0xbfc56d4ce8bee2fc	-0.16739808430227032
159	0xbfbb5a8d81157cd5	-0.10685047532523424
160	0x3fb43dda35c1d2f1	0.07906879246167954
161	0xbfc098adf28bdbbb	-0.12965940802652462
162	0xbfc1607a9da8cf16	-0.13575680444920896
163	0xbf822a3d4a8f7f7e	-0.008869627797991827
164	0xbfc04136a654ff09	-0.12699015733414168
165	0x3fc0ab3cc70ee4d8	0.1302257511104361
166	0x3fb8bdbab9b9f536	0.09664504083953748
167	0x3f905c4533ff5943	0.01597698335521015
168	0xbf9747ed8077c4a2	-0.022735320058875026
169	0xbfb7bb471399ae66	-0.09270138004802106
170	0xbf836f16f5e46419	-0.009489230517418833
171	0xbfc55711426c5204	-0.16671958678547594
172	0x3fb9aaf8ff159165	0.10026508548395936
173	0x3faab06c11f23237	0.0521272441775164
174	0x3fc9a6f5b335673f	0.20040770769520042
175	0x3fc391ada2421dea	0.15288324759261168
176	0x3fb9144bd55b6c1b	0.09796594580568334
177	0x3f8914cccb456a1a	0.012246704057067116
178	0xbfc1f2751374ea43	-0.1402117104533592
179	0xbfc713080ad8fde5	-0.18026829271001002
180	0xbfa679993c790172	-0.043896473533552874
181	0xbfa82900b1bb60b1	-0.047187825866502726
182	0x3f9df81e64064c1b	0.029266810278908744
183	0x3f9d68731c36256c	0.028718756291288214
184	0xbfc12463ad434aac	-0.1339230152139711
185	0x3fbcfbfa35a35ee9	0.11321986970449029
186	0xbfa877282b81c2ce	-0.04778409510698155
187	0xbfa983b1f3d96815	-0.04983287908244464
188	0xbf9304c90cc6ddcc	-0.018572942166171377
189	0xbf8e945922d0d808	-0.014931389212602411
190	0x3fbad26ef34b4c3b	0.10477345886037963
191	0x3f72e82fbfac4e2a	0.00461596156926051
192	0xbfc31da7fb78afa0	-0.1493425348174897
193	0x3fc57909915b602d	0.16775626752382902
194	0x3fa7b48f9de9086c	0.04629944613090306
195	0x3fc4866760cd0532	0.16035167910198705
196	0x3fb329a021b9a3f2	0.07485390494697677
197	0xbfb9c64e33d467ef	-0.10068215146421243
198	0xbfa13c6b7e13c3f5	-0.03366409219768932
199	0xbf9847a494a5ca1a	-0.02371079594872514
200	0x3fc832a6fc7863f3	0.18904578521394874
201	0xbfc39f28038aba1b	-0.1532945649427838
202	0x3f9e664730cac167	0.029687034943607495
203	0x3fa88f7e88607046	0.04796977438692855
204	0x3fc0ccac47ceb6ca	0.13124612337326474
205	0xbfb5396b22b0c773	-0.082907386750575
206	0x3f96d37add7d6e57	0.022291106957125297
207	0x3fa47781691baa51	0.039974254684996276
208	0x3fa45306a9111f93	0.03969593824200426
209	0xbfa1e546a769a3cb	-0.03495236199962156
210	0x3f6fa134aeb666d3	0.003861048598719255
211	0x3fac28edde10a285	0.05499976478342198
212	0x3fb0c162b55ade5e	0.06545082976924152
213	0x3f7b517ddc0c3436	0.006669513358031278
214	0xbfc19e60ed85d2d1	-0.1376458320406955
215	0xbfc60c08e472aec8	-0.1722422709911966
216	0xbfafa7739ad766fc	-0.061824429179706514
217	0x3fc80c032393ae20	0.18786658513214238
218	0x3fac0c78235c831e	0.054782633129667455
219	0x3fb1f6698b871e00	0.07016620308342425
220	0x3fa622c6b1c23fe9	0.04323407096774174
221	0xbf82f0817d6e8a12	-0.009247790947317678
222	0xbfb1270b41eddb35	-0.06700201377485089
223	0xbfb87a43c0afd620	-0.09561561064023083
224	0x3fa695c61ecebd01	0.04411143423146236
225	0x3fb208119f39e95c	0.07043562066420378
226	0x3fb9e1fc215c3605	0.10110450567682257
227	0x3fa5f3467403e3de	0.042871667539607236
228	0xbfbdd9793d6f8e32	-0.11659963369270868
229	0x3fa43d769e5871a8	0.03953142817428851
230	0xbf87d2425d073ae9	-0.011631506408688224
231	0xbf1073deb3efc074	-6.276175280084552e-05
232	0x3fb52116b54ebadc	0.0825361435551985
233	0x3fbbc1a73f96a3d2	0.10842366507007675
234	0x3f9b9ddf1dfc4d8e	0.026969419675038568
235	0x3f96c82d32d0cae8	0.02224798796323571
236	0x3fa6de882c88a249	0.0446665338861903
237	0xbfb07b0d0c2e5a1e	-0.06437760875119422
238	0x3fc5bb63020c0874	0.16978108978225104
239	0x3fc31704809f0af7	0.1491399410279752
240	0xbf98fa6974bdc57f	-0.024392745733569306
241	0x3fbb33107b8346f6	0.10624793067406899
242	0x3fb6e6d06ffc8472	0.08945944532435293
243	0x3fc1e04981c6fdb7	0.13965720021040592
244	0xbfa91d2f611cf6fa	-0.04905078945601633
245	0xbfc0447f2711b1d9	-0.12709035308524966
246	0x3fa8b1ec9d13c23a	0.04823245446630549
247	0x3faf826afa9194ea	0.06154188450526894
248	0x3faa3ebf6df2ed59	0.0512599775042541
249	0xbfc4403a62da598c	-0.15821008517077606
250	0xbfb9c8939c1a10f4	-0.10071680604056948
251	0xbfb6cd742c20d729	-0.089072476171023
252	0xbfc9583831a46fa0	-0.19800474571172533
253	0x3fa91847fbefbc3b	0.049013375762904286
254	0x3f86ee294a47030a	0.011196444110170418
255	0x3f8448fabe2de49d	0.00990482228165695

bias f8 [64]
0	0xbfd3d568e56dd8f5	-0.309900497485969
1	0x3fdb4079c87b30c2	0.4258102853607505
2	0x3fd288d82576c4da	0.2896023145541001
3	0xbfe65185760cdf57	-0.6974513345403278
4	0xbfe549211f0dbea1	-0.6651769262807258
5	0x3fd3266234742baf	0.29921774980965216
6	0x3fe236ae6e1e3e46	0.5691749716515424
7	0xbfe61d25827eca2a	-0.6910579251037394
8	0xbfe5947f4fbe675a	-0.674377113103428
9	0xbfd636ab24893a11	-0.3470867020413673
10	0x3fd1e180c69b2fe8	0.2793886127008123
11	0x3fd517b4b27c3c61	0.32957189016537397
12	0x3fddb949002766bd	0.4644339086058656
13	0xbfd52ebe4d50a2a4	-0.3309779887227171
14	0xbfdca24986e1b131	-0.4474052254870627
15	0x3fdd7b29617d422b	0.46064219017447056
16	0xbfe282bb043a2923	-0.5784583170473393
17	0xbfe49be526f54666	-0.6440301667118546
18	0xbfe01eccd7a6d5fe	-0.5037597858378715
19	0x3fdb5271a96944f7	0.4269069818884214
20	0xbfd107a9ccec1784	-0.26609272968232056
21	0xbfd504377ad1e530	-0.3283823680317992
22	0xbfe54abc3a5d5e15	-0.6653729572234989
23	0x3fda8960ab7b2cc6	0.41463486429411167
24	0xbfd6326108a6793e	-0.3468248924708809
25	0x3fe497bd99d7291e	0.6435230259606077
26	0x3fde638c5133d858	0.4748259346955641
27	0x3fdaaf05c6d9eb60	0.41693252963130156
28	0x3fe435314eef6243	0.6314932386113202
29	0x3fd5f760f543276f	0.3432238001956795
30	0x3fe2b11cebfba539	0.584120236305501
31	0x3fdb54868ca1d7bb	0.42703403218854036
32	0xbfe62159314d6fe5	-0.6915708506526214
33	0xbfd8f77eca6f9e1e	-0.3901059128679395
34	0x3fe154c08958f0b9	0.5415957148138865
35	0xbfe1d94e0d93742b	-0.5577764763980942
36	0x3fd0d9bfba7952db	0.26329034052223016
37	0xbfe0e563efde32a2	-0.5280017552300544
38	0xbfe20c0483ed5e0a	-0.5639669968322221
39	0xbfe1e8b82f2cbe6f	-0.559658138406986
40	0xbfd5f0c9053d0168	-0.342821364512949
41	0xbfd1673b2cbeb1f8	-0.27192572946185534
42	0x3fe2ebdd1eb3e1bc	0.5912919616376295
43	0xbfce8837ff93ab00	-0.23853206614816003
44	0x3fd786957e7e1788	0.36758935311115026
45	0x3fddce9b375ebb7b	0.4657352486346366
46	0xbfe119a3c671ea86	-0.5343798519018754
47	0x3fe20250d2357dbe	0.5627826791423371
48	0xbfe0e0a523fe1dde	-0.5274224951726258
49	0xbfe45ff1d0c97d91	-0.6367119863388543
50	0x3fe572330adce962	0.6701903545538637
51	0x3fe240f7e96fcc4a	0.5704307135878335
52	0x3fe24f61437ac832	0.5721899335824274
53	0x3fe6485674b2d5b9	0.6963302878636376
54	0x3fe57a43ccd247d7	0.671174907724203
55	0xbfe4dbc9e2d73406	-0.651829665229912
56	0xbfd749231840774d	-0.36383893364278636
57	0x3fd4c19f02fc95c0	0.32431769649187103
58	0x3fe2290cea5d931e	0.5675110413982087
59	0xbfe4f5776b4eaf72	-0.6549641700598683
60	0xbfe13aeb23642a0b	-0.5384422007785487
61	0x3fe54bef12d3903a	0.6655192725852495
62	0xbfd7eaaa92d21627	-0.3736978944583335
63	0x3fe1e2e0a5ae451c	0.558945010752868

weight f8 [64, 64]
0	0xbfc454370c47c7e9	-0.15882003879192944
1	0x3fcec9cdab26dd90	0.24053355080625893
2	0x3fc3acfc71eff35b	0.15371661723465987
3	0xbfc2daa01bf03e8b	-0.14729691852743473
4	0xbfc2caa292183024	-0.14680893071670298
5	0x3fd29db6d0174575	0.29087610551240256
6	0x3fc33751f03b0766	0.1501257346154105
7	0xbfcfe4b4d0a525a5	-0.24916706264256763
8	0xbf5f484c09b15347	-0.0019093267972227366
9	0xbfd2d0233490c294	-0.2939537061056765
10	0x3fb963be7d496527	0.09917822417027776
11	0x3fbb36a443634bd8	0.10630251546108072
12	0x3fcd693a0d256875	0.2297737659635605
13	0xbfbb12f70c39d8f5	-0.10575813339696423
14	0xbfa75dbc625c6ce7	-0.04563702297874688
15	0x3fcfad4e5022253b	0.24747637665522312
16	0xbf9b5615f7c61631	-0.026695578811560764
17	0xbfceafc12380a3d3	-0.23973860009689804
18	0xbfcf4545cc3b414d	-0.24430153343429098
19	0x3f77446bfdbdc341	0.0056804865269988744
20	0xbfca782b1b268a1f	-0.20679224801740845
21	0xbfc9558838165464	-0.1979227327216534
22	0xbfcc7bf727703fa0	-0.22253312516886314
23	0x3fc758a06e3751d2	0.18239217168469551
24	0xbfb04e9349d869c8	-0.06369896462312064
25	0x3fcc0918ebf76fe4	0.21902762910656215
26	0x3fc1ea82b0f77d91	0.13996919289546075
27	0x3fcb80d6e351c4df	0.21486936664181308
28	0x3fcc5757d72b905c	0.22141550070148497
29	0x3fd070d44987fcd6	0.25688655072003763
30	0x3fc418fd65a577e3	0.15701262915803146
31	0x3fca06805e7e29b7	0.20332340825946257
32	0xbfc5b42b93d84e24	-0.16956085890761685
33	0xbfc5413db684c1b8	-0.16605349933662494
34	0x3f91a831ac481132	0.017243171825627353
35	0xbfb2ed816999a0db	-0.07393654659393027
36	0x3fce0a200546f84d	0.2346839929359156
37	0xbf989ecc76e8f185	-0.024043268926321488
38	0xbf97c4395ee9357a	-0.02320947305479624
39	0xbfa550982c01473f	-0.041630511638358396
40	0xbfcdbb6581a2182c	-0.23228138761277373
41	0xbfd170a7d7eb2e8f	-0.27250095449265016
42	0x3fcd1b45615e2c5f	0.22739474539079915
43	0xbfc0bed33572ab33	-0.13082351789247468
44	0x3fcae78ed660c26d	0.21019158809351116
45	0x3fbfaf5e66c2b0ee	0.12376966484834259
46	0xbfcb74a3846fd793	-0.21449703184742627
47	0x3facbdcd702813ce	0.056135578099236846
48	0xbfaa661a0d63d426	-0.0515602246613656
49	0xbfc037c3b114a755	-0.126701795067954
50	0x3fc7f1e68ef4dafc	0.18706972103401387
51	0x3faa8b974b5c7c5c	0.05184624476373109
52	0x3f986b822a887006	0.02384761223412115
53	0x3fcc3bf76e4d875f	0.2205800331676597
54	0x3fba9a0a8cffe870	0.1039129823911098
55	0xbfb89091ab30e910	-0.09595594815701625
56	0xbfb4c5c413af793f	-0.08114266853906303
57	0x3fd2404074ad8a6c	0.2851716174538186
58	0x3faabb7c4c6cc2ed	0.052211651162343255
59	0xbfb95a12e27949dc	-0.09903066662926768
60	0xbfa79847747cf3d0	-0.04608367249463863
61	0x3fc8253842e7ef93	0.18863585726637364
62	0xbfbf437cca68ebca	-0.1221235269703548
63	0x3f98d24cf8ffb493	0.02423973340767256
64	0xbfc6eb7dbde2743a	-0.1790616204424696
65	0x3fb9faa93c5aa38c	0.10148103450286622
66	0x3fd055ccffc6f96a	0.25523686388250744
67	0xbfc6a1ca961ce65f	-0.17681248025637594
68	0xbfae464351bfb628	-0.05912981388960886
69	0x3fcc241f43d02cd3	0.21985235987845062
70	0x3fcc3442f531fc20	0.22034489605354768
71	0xbf98c81f1fc0e263	-0.024200903237416315
72	0xbfacca3797d7d070	-0.05623029449989836
73	0xbfa894b48ff07bd0	-0.048009531565405106
74	0x3fc2ed2686168bfa	0.1478622584082528
75	0x3fd1aaed50f11ffe	0.27605755714876057
76	0x3fcdc946c5e2996e	0.23270497000084894
77	0xbfb80612f0cf9fa0	-0.09384268168616794
78	0xbfc35e70bc1615ed	-0.15131959136867526
79	0x3fbd986399fe53f2	0.11560652265173113
80	0xbfa9d328317299b6	-0.05043912509545427
81	0xbfb6225110d3d992	-0.08646113072231845
82	0xbfb9b265973e30c1	-0.10037836973623639
83	0x3fb866485ab0a796	0.09531070913422321
84	0xbfb3491aac1cea0f	-0.07533423139549476
85	0xbfd09f7bd23d7aba	-0.2597341111303809
86	0xbfc65d7f4a1d894c	-0.17472830885805946
87	0x3fb0f9fa4b4dcb1d	0.06631435717080732
88	0xbfbecd856d860d10	-0.12032350467602648
89	0x3fbba91192bc5382	0.10804853279507934
90	0x3fa2715f02a3138d	0.03602120310964727
91	0x3fc2b63aaa29dddf	0.14618619259611784
92	0x3fcf1e967b139eca	0.24312096604921002
93	0x3fc8cc3edda3343d	0.1937330801214631
94	0x3fb8a966d032e4a4	0.0963348635003905
95	0x3fb1adc6b7b29323	0.06905786499789861
96	0xbfb2f860cb58e1a9	-0.07410244907885634
97	0xbfc431b4979cc27c	-0.15776688960024277
98	0x3fb056b8f4771c75	0.06382328003302169
99	0xbfb9078ff3901d74	-0.09777164169655866
100	0x3fba8d86ed1fb455	0.10372203148990995
101	0xbf8d88c046bde2da	-0.014420988234392796
102	0xbfc9cc654f242cd7	-0.20155016292878855
103	0xbfc512b435805d27	-0.1646332989919099
104	0xbfcaca1595c0f860	-0.20929212391087315
105	0xbfcc99bc1b45f4b6	-0.22344161349966435
106	0x3f75b0a70ada5c4b	0.005295422086098854
107	0xbfcae8258b8c92b1	-0.21020955385133314
108	0x3fadbd9d71041ce0	0.058087272687822766
109	0x3fcfca0a0d0d9a52	0.24835324895248562
110	0xbfcb0d6be304f6f8	-0.21134708962374993
111	0x3fc808aa3af23acf	0.1877644336531916
112	0xbfb1e5e81951729b	-0.06991434686774271
113	0x3f2615382b16073a	0.00016847906730893
114	0x3fb4c4c7cd9bbcab	0.08112763185248421
115	0x3fba46e738c63b8e	0.10264439712612569
116	0x3fbe03f124b285e3	0.11724764963084726
117	0x3fc09f2178656f5b	0.1298562848922938
118	0x3fca1d5be21dee1e	0.20402096310486767
119	0xbfc04e1ca143124e	-0.12738378404732703
120	0xbfb69e9ad888215d	-0.08835761820239925
121	0x3fb0fcb74c0a4d42	0.06635614019824224
122	0x3fc1bd7756febf85	0.1385945486813364
123	0xbf9783ea37ba6f00	-0.022964152957327677
124	0xbfc2a4e443245c2d	-0.1456570937959624
125	0x3fb721cfff4106e5	0.09035968763148679
126	0xbfc6bef7a1ea9d79	-0.17770285993649873
127	0x3fcb506ddfb7775c	0.21339200423875126
128	0x3fca1a094d17c991	0.20391956581404405
129	0xbfc2a249a049d516	-0.14557762457449347
130	0xbfce324d1effd19c	-0.2359100724567157
131	0x3faf4fb2a2e033d8	0.061154920942591395
132	0x3fc13a92807b0943	0.1345999839159707
133	0xbfca989ae089e241	-0.20778213466452836
134	0xbfb8d40651137b41	-0.09698523978611907
135	0x3fa007c81a8b5527	0.0313093693163558
136	0x3f879c53d74209a8	0.011528639799739462
137	0x3fb1b0b4b2f0d38f	0.06910256737394448
138	0xbfcb52b29a058e1e	-0.21346123238173303
139	0xbfc094a342176f13	-0.12953606345296773
140	0xbfcd5f8cb849ffcc	-0.22947844503869275
141	0x3fafb7b5c4a8988c	0.061948471313642534
142	0x3fc43e0ea8b5d973	0.15814383733568213
143	0xbf96f0c79efeef07	-0.022402876929603213
144	0x3fc347c5d5790f86	0.15062783168297872
145	0x3fc0de77b65886cc	0.1317891731605897
146	0x3fc7156761126647	0.18034069290006213
147	0xbfc8e86a695cc170	-0.19459276337284903
148	0x3fc1c26f9df73498	0.13874621594587633
149	0x3fc28660b2b78e76	0.14472588278214332
150	0x3fc35d303441516b	0.1512813811447232
151	0xbfb3218b398a00ba	-0.07473058848154582
152	0x3fc12910e87931ad	0.13406573630562715
153	0xbfc14efe833f531e	-0.13522321137011145
154	0xbf9b4760e8116369	-0.026639475025464963
155	0xbf826625e92f0662	-0.008983894518567574
156	0xbfc493ef75301bdd	-0.16076462957445772
157	0xbfccd273a148cecd	-0.22517247557845224
158	0xbfc4f8d5a77e2a9a	-0.16384382894860466
159	0xbfc3f3b79f068852	-0.15587516083639003
160	0x3fbd2d48712a39e3	0.1139722133905035
161	0x3fb226ca9c8882fa	0.07090441056835664
162	0xbfbc42317b9d86ed	-0.11038502948715818
163	0x3fc98b1297f8c1fb	0.19955665989392898
164	0xbfca04a63e4863f3	-0.20326688805724266
165	0x3fb62d8ea11b4f3e	0.08663264687794212
166	0x3fa4444a310d0215	0.03958350991024787
167	0x3fbb6e8b1a324a69	0.10715550794183461
168	0x3fc989731d5fe158	0.19950713095000583
169	0x3fba87fdf1f48078	0.10363757283312391
170	0xbfbdb68857927df1	-0.11606647623056411
171	0x3fc87a2f92560394	0.19122881551086535
172	0xbf980a37777bf2a0	-0.023476473491416017
173	0xbfa70ada61044a40	-0.04500467714583012
174	0x3fb336fcfaac68a1	0.07505780334432412
175	0xbfcb444109d2f60f	-0.2130204484910085
176	0x3fcabba7b06ea37a	0.20885177721836695
177	0x3fc5cc9b7062063a	0.17030661570974975
178	0xbf9cbf7b0a003bca	-0.02807419060269093
179	0xbfb78eb06d61ece3	-0.0920210139319582
180	0xbfc145742a1d005d	-0.13493206077874023
181	0xbfaa245aef4b82bb	-0.051058618269740084
182	0xbfc4a2cacc8c798a	-0.16121802318316397
183	0x3fc328ce4345865b	0.14968279156441863
184	0x3fc884eaffc1cfd2	0.19155633438242475
185	0xbfa2f3896b1f81dd	-0.03701428826002815
186	0xbf97c8879ba9b5c3	-0.0232258976706612
187	0x3fba75be8f3099f9	0.10335913654180463
188	0x3fb26b1ecb4d1fb1	0.0719470259037951
189	0xbfc72f9c4b8150ec	-0.1811404579808661
190	0x3fb336078eb0de0c	0.07504317506469976
191	0xbfc95647c16d99cc	-0.1979455656502992
192	0x3fc652657a2a1077	0.17438953843168623
193	0xbfcebc34f95c81be	-0.24011861968848608
194	0xbf9c0d21b3e4cea7	-0.027393843273968568
195	0x3fbe8df244f6b954	0.11935342963872603
196	0x3fcbc110e16c52c0	0.2168294048975863
197	0xbfd35429027c1195	-0.30201173060074754
198	0xbfcc2d03335a5c4b	-0.22012367255658413
199	0x3f80b3eaa5c493e6	0.008155663665613443
200	0x3fcc66ceedf364ae	0.22188746088685235
201	0x3fcdc1d30d2a245f	0.23247755186847294
202	0xbfb4be04d96afa7f	-0.08102445896200015
203	0xbfa87f6efbd53301	-0.04784724067812896
204	0xbf95b2c47d9e0eb2	-0.02118975655277095
205	0x3fc0f2efa83d7364	0.13241382326932716
206	0x3fd15ee07aa85455	0.2714158246829517
207	0xbfaa77e8f0c70aff	-0.05169609011820419
208	0x3fca149f9ad61aa5	0.20375437794082987
209	0x3fc61f8bdb6d2fb8	0.17283771719155339
210	0x3fc258a5dbd93300	0.14333031878268088
211	0xbfce1088f9a973d0	-0.23487960997127155
212	0x3fcadce91cda256e	0.20986665638728702
213	0x3fc58de433d6ffe3	0.16839268237345015
214	0x3fc16cae9a7f742e	0.13612921279755724
215	0xbfc535d185f6490c	-0.16570490876308275
216	0x3fc3591a5b40d774	0.15115670638777667
217	0xbf91fa4728d72906	-0.017556297176079226
218	0xbfc608d52ab950a6	-0.17214455209853446
219	0xbfafe50439e48f9e	-0.062294132296556656
220	0xbfcb430597a02bbe	-0.21298284438702625
221	0xbfc295ef2a354085	-0.14520062981546658
222	0xbfbab7da9a8d8915	-0.10436788819564342
223	0xbfccc6a39253cc9f	-0.22481197972192477
224	0x3f97e1e2c199ee10	0.023322623316273605
225	0x3fa4dd596f5f8081	0.040751261563628745
226	0xbfc5b1d39662d053	-0.1694893345171545
227	0x3fc789bc862b6c13	0.1838908820271575
228	0xbfc709e71c24117b	-0.1799897086531351
229	0x3fc3bf09ba1c248c	0.15426751696967178
230	0x3fc3316e7f96ee8f	0.14994603376350255
231	0x3fb0e1db3721d288	0.065946293792715
232	0x3fb3bb8ae911d15e	0.0770804232614117
233	0x3fc6a1b1481b33c8	0.17680946369946882
234	0xbfb526704734f97b	-0.0826177762837456
235	0x3fb354558b3c8efb	0.07550558709459303
236	0xbfc221ef4d0630d2	-0.14166060696550759
237	0xbfb13c7f9af09d5a	-0.06732938320839335
238	0x3fc3e0722cbb75a3	0.1552870481890923
239	0xbfcb19e40380c316	-0.21172762080234325
240	0x3fc5530736d4bad6	0.16659631898206467
241	0x3fa15e1e297829bb	0.033921186983281136
242	0xbfabec041ebc6b90	-0.05453503489680778
243	0xbfbc45737bfc6f9a	-0.11043473984721999
244	0xbfb7304fc9b1bad7	-0.09058092760254098
245	0xbf8aa17f835fb839	-0.013003345677102473
246	0xbf9813c5c1a94cf3	-0.023512926049375115
247	0x3fcd31b19bdb5064	0.2280790339488049
248	0x3fbb86e23dc9bf07	0.1075269127702506
249	0xbfcd0edfe8bf7fb3	-0.2270164381470728
250	0xbfc28babfe66a214	-0.1448874466125437
251	0x3fccf6d2fbf67ec1	0.2262824754989108
252	0x3fa564d7e81374b8	0.04178499896964055
253	0xbfaca607c62b2a46	-0.055954211178307164
254	0x3fbb7264bdf065b0	0.10721425664123418
255	0xbfac6c1f6f2c3e66	-0.05551241142358947

bias f8 [64]
0	0x3f654e0e56087386	0.002600696563844487
1	0x3fc0f2f79c589ab1	0.13241477140510008
2	0xbfaec5a23ab54160	-0.06010157553339712
3	0xbfb399110feb5948	-0.07655436171203178
4	0xbfafc74b0a12769a	-0.062067360858447176
5	0xbfc84b69e04861cc	-0.18980143977456831
6	0xbf808ea31c13a965	-0.008084558767639203
7	0x3fcaf9557a79d671	0.21073406677503528
8	0xbfa05ef43a64f32a	-0.031974441650595445
9	0xbf853a9568825031	-0.010365645648825335
10	0x3f777399d87960a8	0.005725480040915588
11	0xbfafe1021915d222	-0.062263551294482036
12	0x3fb39552f5447756	0.07649725425696138
13	0xbfbd3ce55312c8b4	-0.11421044614943093
14	0x3f88679233a01fc3	0.01191629619644619
15	0x3fc9b53292481555	0.2008422102227693
16	0xbfb35645f19d513b	-0.07553517483512888
17	0x3fce07317ccb13b2	0.2345945224134574
18	0x3fbe88ae10f4c3e7	0.11927307046859391
19	0xbfa522b82243e307	-0.04128051203037413
20	0xbfc83bb3fdba8c4d	-0.1893219937238392
21	0x3fae7875b522920f	0.05951278530236347
22	0x3fc0a22d32ef5f74	0.12994923579276085
23	0x3fc91312a677b94c	0.19589455726913696
24	0xbfc062a5296e10ac	-0.12801041148134595
25	0xbf9e70147dfd9b9f	-0.02972442645059525
26	0xbf9c1da5be871fcb	-0.027456846002479367
27	0x3fb67b6bcb6e6c73	0.08782075611672883
28	0x3fcb1f857cd0c0b8	0.21189945787910403
29	0x3fb734d1ccd7cd82	0.09064971209573083
30	0xbfb3d76e242b5970	-0.07750595458069198
31	0x3fb40d25b4778bb7	0.07832561164791128
32	0xbf7474d7f4ceb6fa	-0.004994243220534983
33	0x3fc1aa5c65188059	0.1380115026122464
34	0x3fc48e89ba3d9427	0.16059991449142894
35	0xbfc1e7ddb8044623	-0.1398884914893169
36	0x3fa7915b192d331d	0.046030852149306
37	0x3fca944b7b883f7a	0.20765059978338823
38	0x3fc23fdddb527c87	0.1425740548047296
39	0x3fbb298c432478b7	0.10610272063465485
40	0x3fb1cc45b1ffd9ca	0.06952319713295832
41	0x3fc370c2c4f926b5	0.15187868707498856
42	0x3fb315acd41463ce	0.0745494859478548
43	0x3fb1a2f7388ca185	0.06889290934180366
44	0xbfb08515269cc8d9	-0.06453067963301197
45	0xbfb76a5386ea8ba5	-0.09146616023876548
46	0x3fa9ef5e68b29b2d	0.05065436389968734
47	0xbfc0990668728d1b	-0.1296699533460036
48	0xbf999344121102c2	-0.024975837328613755
49	0xbfcd616ec49d9acc	-0.22953590965626913
50	0x3fbfe6d87050f798	0.12461617223831778
51	0xbfc251fdc1a1bc3f	-0.14312717394520466
52	0x3fbceaeeda07f711	0.11295979331040608
53	0xbfbf1899b253d8b1	-0.12146912196826311
54	0x3f887ec9e77d7ec8	0.011960580231686349
55	0x3fc4c99f562ebe11	0.1624030276120583
56	0xbfc59dbf4a8c672c	-0.16887656345425606
57	0x3fbe7069b615aa4d	0.11890278525758298
58	0xbf9eaf09be781ec5	-0.029964592218702863
59	0x3fb76e5067bdb1f8	0.0915270093225401
60	0xbfb2777118086d50	-0.07213503681889688
61	0x3fb5c9cf60e6b0f9	0.08511062732458531
62	0x3fc4ab83e1708f6b	0.16148422725484166
63	0xbfc1b179db4418c1	-0.13822863775584973

weight f8 [1, 64]
0	0xbf910b440e86f376	-0.01664453829447462
1	0x3fa3e4cff9832765	0.03885507508091627
2	0xbf9db358db5f0ecd	-0.02900446738182332
3	0xbfa6896cbb958ca3	-0.04401721753927148
4	0xbfb092838f898028	-0.0647356248314287
5	0xbfa14f4384b78d11	-0.033807859373860556
6	0x3f9ea99f3b8da842	0.029943931588981572
7	0x3f8a813f84c25718	0.012941833724009963
8	0xbf90e46eebfd41f4	-0.016496403840678256
9	0x3fae433b63758e92	0.05910668934919018
10	0x3f9a29b5e3cde062	0.025549737958016634
11	0xbf98ffd6937bebc5	-0.02441344523593238
12	0x3fa0767cccb067af	0.03215398787160894
13	0xbfa3e98862ff1c27	-0.0388910885663381
14	0x3f9c17dc4b9d5d1b	0.02743477069392695
15	0xbf7b4ab376f6fa4d	-0.006663037332542543
16	0x3fae62c79f0a3bdb	0.05934737984090762
17	0xbfa54bdf4a2b893b	-0.04159448414226793
18	0xbfab723c27e7e099	-0.05360591876154892
19	0x3f9c54d64f2572aa	0.027667378025727864
20	0x3f99f6115c1d3e97	0.025352736708838277
21	0x3faa455de2ad4749	0.05131047622729896
22	0x3f83eb78b97ee317	0.009726470147016593
23	0xbf75c4081a3265cb	-0.005313903474552582
24	0x3fa5775da46e83d3	0.04192631370756996
25	0xbfa5fc2139c569da	-0.042939222623960396
26	0x3fa3e9a69fdaa533	0.03889198972076215
27	0x3fae86543c9f5564	0.05961859931964389
28	0xbfaad51bc8a33ab3	-0.05240713905515317
29	0x3fa4c3d680f9f2a5	0.040556624645409024
30	0x3f99a7ae5c4f6684	0.02505371511856548
31	0xbf85b91b712c1d88	-0.010606970206494606
32	0xbfa5c75b119d2fdc	-0.04253658857359685
33	0xbfa4a499b025efa9	-0.04031830096479833
34	0x3f80e2297a1b5c06	0.008243869818597826
35	0xbf8a77e4b05d55b5	-0.012923990852565884
36	0xbf92aa888c87b9c9	-0.018228658273011598
37	0xbf6fff78b900da8d	-0.0039059980263361272
38	0x3f862a440ea5b9ad	0.010822803208353127
39	0x3f9e3285a57669f3	0.029489601348908278
40	0x3f85b910df7d0bc8	0.010606891460730142
41	0xbf9d15f27586a006	-0.028404034064493565
42	0x3faad689c25c2082	0.05241804597432155
43	0xbf5aceb7c06750d0	-0.0016361994217862115
44	0x3fa495a2f2fc6d3b	0.040204136048681303
45	0x3f4b609308659a42	0.0008354871686549541
46	0xbfa52f8b937c9e04	-0.04137836623550231
47	0x3f85758237c7b7e7	0.010478036238932687
48	0xbfaabec5d8b1e843	-0.05223673124506025
49	0x3fa370c9bc42db91	0.037969879370783784
50	0x3fa02464c384400c	0.031527661196491946
51	0xbfa5963f0557e6f2	-0.042161912348047795
52	0xbfa40ced49ed918b	-0.039161124491133036
53	0xbf99d0ec979da4b9	-0.025211045030492516
54	0xbf8fe817d0488d98	-0.015579401058011297
55	0xbf77979b7ff277fb	-0.005759818478649588
56	0x3f90fbe722a845db	0.016585933199228946
57	0xbfa90cf9ea47bb63	-0.04892712578645477
58	0x3fabe0147910437a	0.054443969515097515
59	0x3f91664d056315bf	0.01699180932407329
60	0x3fa232a1fde144b6	0.03554254745598355
61	0x3fa7f6405d33b316	0.04680062425345548
62	0xbf973fcaef8f424e	-0.022704287406499817
63	0xbf231ba3ef923537	-0.00014578224344000978

bias f8 [1]
0	0x3f7ced9b17b40ca0	0.007062536077913212

weight f8 [1, 64]
0	0xbfd5a820dc3366b1	-0.3383867407224939
1	0xbfd75f9cfefe69da	-0.36521077062357465
2	0x3fda691498eb97ab	0.4126636021959437
3	0x3fd774c14d64c6d4	0.36650116498922825
4	0x3fd9ddc0484d8eeb	0.4041596132358182
5	0x3fda3a93924af72a	0.40982522283944667
6	0x3fdaf8028bd3294d	0.4213873258091965
7	0xbfd55d906e01d34d	-0.3338357042587646
8	0x3fd87651f538abad	0.3822216887226045
9	0x3fda9645d087f311	0.41542191852913485
10	0xbfd40509df917c90	-0.3128075297626731
11	0x3fd61d3ddf8bdbc1	0.3455347712583113
12	0xbfda06547b522e1d	-0.4066363529497908
13	0x3fd613d15d1f08e7	0.3449595841776855
14	0x3fd8ab362ac0be3f	0.3854499261387651
15	0xbfd4d220831edea9	-0.3253251343225921
16	0x3fda9b802bdff8b4	0.41574100765854927
17	0xbfd2f1aa233023b9	-0.296000036586118
18	0xbfd789384ca5e0b3	-0.36775023923065503
19	0x3fd5c7c02dbad813	0.340316815050188
20	0x3fd3f8b8337877b3	0.3120556357042645
21	0xbfd5c59f39634f19	-0.34018688778199785
22	0xbfd3c352540c3122	-0.30879648406768656
23	0xbfd49e09ee234e4c	-0.3221459222379266
24	0x3fd4b33362124921	0.32343754365241933
25	0x3fd44ebc9e33bd6f	0.3173057122175668
26	0x3fd4b3357bcbd410	0.32343804444764235
27	0xbfd9836cac51a394	-0.39864651515977667
28	0xbfd79f5997a2cd48	-0.3691009503192686
29	0xbfd787af1ebffe5d	-0.3676564979832387
30	0x3fda9e0e4695e5fc	0.41589695828551476
31	0xbfd585462d7dfb93	-0.3362594074496254
32	0xbfdac1dc7e658c00	-0.4180823549597221
33	0xbfd675cf1c57a086	-0.35094049232294144
34	0xbfd82868c19f820f	-0.37746638210777034
35	0x3fd7a69718c965c7	0.3695428602273662
36	0xbfd23ec7c058adc1	-0.28508180412128686
37	0xbfd99b016cbda06a	-0.4000857889100248
38	0xbfd4b5a2f75a91d3	-0.32358621745723076
39	0xbfdab457f88bcf76	-0.4172573020180076
40	0xbfd70a840a1a37e6	-0.36001683222354897
41	0xbfd2dcd683de385a	-0.2947288787626171
42	0xbfd56156757190a5	-0.3340660235319411
43	0xbfd3060008020db3	-0.29724121839555123
44	0x3fda3addd54597bf	0.4098429281933668
45	0x3fd5f974d080f97f	0.34335060464572814
46	0xbfdac4f74fb41d30	-0.41827185424377245
47	0x3fd4678718538e8a	0.31881883025764834
48	0x3fd45f6b3b65902c	0.31832390594923043
49	0x3fd73e4549c803d1	0.36317569928365595
50	0xbfd753e71ba6b8b4	-0.36449601841276125
51	0x3fda7e211f56a7df	0.41394832668686193
52	0xbfd4d4b393b08adb	-0.3254822675973352
53	0x3fd8566423e08413	0.3802728987084844
54	0xbfd681b3ba232e9c	-0.3516663854358997
55	0xbfd1dac84e725170	-0.278978420837368
56	0x3fdab42ad2c98d62	0.41724653801630585
57	0xbfd5689933a49526	-0.3345091823888019
58	0x3fd5ccace18cf8ce	0.3406173899310375
59	0xbfd249ecb1e44c79	-0.2857619988655596
60	0x3fd41b4d8dabbc10	0.31416643939059075
61	0xbfd8d9a9a862bbd2	-0.3882850784675017
62	0xbfd282c41b8118fd	-0.2892313259693678
63	0x3fd5110392a54e53	0.32916344948646276

bias f8 [1]
0	0xbf909cedf914400c	-0.016223638846952368

weight f8 [64, 4]
0	0xbfab83db114a2104	-0.05374035440496708
1	0x3fcbfac19f00da8d	0.21858997596583088
2	0x3f9d3a5402c03e9a	0.028542816799073202
3	0xbfc0641d72f1abe1	-0.12805526840688145
4	0x3fc0c77156c03a87	0.13108650909312677
5	0x3fc72d63aa0ac797	0.18107267191731743
6	0x3fb314dc271f4352	0.0745370479119292
7	0x3fc3c237af7b458a	0.15436454838213037
8	0xbf99c9fc7994f812	-0.02518457882001008
9	0xbfc13420e8534889	-0.1344033369446758
10	0xbfbf8d78dd6e1cab	-0.12325244337090406
11	0xbfb2a6c47db9e078	-0.07285717076763543
12	0xbf7c6d6ccd657e1a	-0.006940293320752322
13	0x3fb81c4b4871ec7a	0.09418173330952753
14	0x3fb22cc400d257e6	0.07099556942043214
15	0xbfb3c83f973118fa	-0.07727429810720202
16	0x3f9835d1398e3c13	0.02364279664794473
17	0x3f954c9b6b876728	0.02080004543117933
18	0xbfa7e3dcf216415f	-0.04666033225214749
19	0x3fb06a72c213cb08	0.06412427175727597
20	0xbfc80f666f10acb8	-0.18796997473814314
21	0x3f995c622ea6c976	0.024766477677709862
22	0xbfaa86f7c86213ca	-0.05181097336848202
23	0xbf6b2fb1e483b518	-0.003318641134788646
24	0x3fb8e8a8f2ae8a72	0.09730010914658196
25	0xbf7b4eab55683349	-0.006666821739156622
26	0xbfa6d90b9fe7ff34	-0.044624675054363655
27	0xbfb749318faac528	-0.09096059567925308
28	0x3f94d6d79ce60865	0.02035080809719893
29	0xbfa057a691f1eb02	-0.03191872149996834
30	0xbfbd2892b7ebf182	-0.11390034666323426
31	0xbf6d37a813773e53	-0.00356657817221854
32	0x3fb885017ed31f11	0.09577950807863213
33	0xbfb28b9fb78b383a	-0.0724429915528341
34	0x3faec847fea01714	0.06012177451343184
35	0x3fc62b9d8617ba93	0.17320603415960942
36	0x3fa66b6b6d999a04	0.043788296822459244
37	0x3f8c7a416faa266d	0.013905059070810933
38	0x3fb57709895ef652	0.08384761432440627
39	0x3fa7f1040957406e	0.04676067937873617
40	0x3f5d4badc5d1cda4	0.0017880627631513346
41	0xbf812feee561d91b	-0.008392206549825467
42	0x3fb579bf2dcfe337	0.0838889586301662
43	0x3fbec147d2b72216	0.12013672727983535
44	0xbfb39800ba5d2237	-0.07653812932870428
45	0xbfa509ae3c7e08be	-0.041089482197109714
46	0xbfb486177c63c115	-0.08017107760293059
47	0xbfb9a448b2e6fba0	-0.10016302459460613
48	0x3fa01fb69677e8a3	0.031491952769969765
49	0xbf928514e7986758	-0.01808579124017426
50	0x3fa21c3eaf834c56	0.03537174122325186
51	0x3fa431b4bd713af9	0.03944172680404807
52	0xbfa8f56ab7916c2b	-0.04874738207646375
53	0x3fbcd4861ec5d658	0.11261785746850117
54	0xbfcf715115f736d2	-0.24564565250914555
55	0xbfd0c2977474fad9	-0.2618769299769333
56	0x3fbd2bd687e2c093	0.11395016496203629
57	0xbfb74b7c103918d8	-0.09099555393285941
58	0x3fa6248c3dcb28ab	0.04324758772197986
59	0x3fa816a9943685d1	0.047047900526432714
60	0x3f89054e9c7e5727	0.012217153693011419
61	0xbfa03d7660393d4e	-0.03171892094234839
62	0xbfb6bbddda7775c1	-0.0888041170469114
63	0xbfbeeb5c2e3c36a0	-0.1207788098219802
64	0xbfba2ee71c089f89	-0.10227817949691888
65	0xbf7082e47b013067	-0.004031078817274026
66	0x3fc3546f127f656c	0.1510142174072756
67	0x3fb6e9d4a1f289d6	0.08950547174257592
68	0x3fc0998e0640c409	0.12968612008401717
69	0xbfc5f68b12b9b900	-0.17158640302972827
70	0x3fb6c26fb181d8fd	0.08890436252281471
71	0x3fad5b117a7acbeb	0.05733542080033501
72	0x3f9f690bcb08e99a	0.030674156443845392
73	0xbfa73697940e02fa	-0.04533837969120742
74	0x3fb308bda53dffa7	0.07435212406380619
75	0x3fb9bfae0caea821	0.10058105287194553
76	0x3fc5569d2d059137	0.16670574854209416
77	0xbfa8105fb4928c93	-0.04699992255452758
78	0xbf9bbf09266d7d83	-0.027095931024971442
79	0xbfa0d62e533b2cad	-0.0328840710258985
80	0x3fd0038d892c49b0	0.2502168502407143
81	0x3fb2aed4bcceda33	0.0729802094418595
82	0xbfc6749bea42c73e	-0.1754336255885906
83	0xbfb6912d7f67e23d	-0.08815273628705085
84	0x3fbc5f7c1beac0b5	0.11083198243682342
85	0xbf8524032794cf87	-0.010322594304490241
86	0x3f99f42b6810b673	0.025345495440140597
87	0x3f94d41c561c131e	0.02034038806506821
88	0xbfc3c3dd47b50e60	-0.15441480637865634
89	0xbfc502ebd0a8a57e	-0.1641516465036083
90	0x3fbc65683dcc5638	0.11092235096688163
91	0x3fafc212727ea9d9	0.06202752730981204
92	0x3f94d2a944d94710	0.020334858729547156
93	0xbfb53d22921250dc	-0.08296409670066701
94	0x3f9be7881f5b174d	0.027250410951430926
95	0x3fa5bb32c094d9ab	0.04244383431289419
96	0xbf83b27df991b0b7	-0.009617790392632093
97	0x3fb1c728f462f938	0.06944519010992145
98	0x3fbaca152d1946bf	0.10464603758853296
99	0x3fc345eec1da0084	0.1505716749707099
100	0xbfbceac3d82b58cb	-0.11295722987719896
101	0x3fc96c9e04a29b0e	0.19862723566367219
102	0xbfbf919a169dbf3f	-0.12331545879510218
103	0xbfbc0ec5d487e98b	-0.1096004146456037
104	0xbfa1eb631e83b832	-0.034998986697118886
105	0xbf819c38bd1cfb60	-0.008598750373150998
106	0xbfa6b8ca4feffaab	-0.04437858796881263
107	0xbfa7c43d56d17383	-0.04641906437675571
108	0x3fc17a30f5a98c77	0.1365414809725711
109	0xbf9633e8d31ff85c	-0.021682393919029472
110	0x3f900211eac09f96	0.015632896378661686
111	0x3f9d63e02a135ce4	0.02870130783852866
112	0xbfaa42f1d0a11ab8	-0.05129199668640666
113	0xbfc2036ad48f568f	-0.1407292878999908
114	0xbf520264e3faad4a	-0.001099203611299187
115	0xbfa69299cf37d546	-0.04408722548024939
116	0x3fa2dc32efe01584	0.03683623483815793
117	0xbfb5c814c93dd959	-0.08508424676060623
118	0x3f8a4000cd0bbadf	0.012817388780118786
119	0x3fa185d0dff502c9	0.034224059427747706
120	0xbfbfdc90a91bd98a	-0.12445930603630564
121	0x3fbc76f31e54efe8	0.1111900281002246
122	0xbfbd953271ece185	-0.11555781632785596
123	0xbfbdd3f330263965	-0.11651534963150352
124	0x3fbac44fd388ff33	0.104557980675051
125	0xbfb21dcc8e2ca0d1	-0.07076719733288718
126	0x3f968efcac1eb220	0.022029827123036694
127	0x3fa19f8174d46ec8	0.03442005683083732
128	0xbfb1293066d49d09	-0.06703474531660815
129	0xbfba5a4ad3926fa0	-0.10294025101978699
130	0x3fb688d3ba11a16a	0.0880253152150822
131	0x3fbe6dc02d95c799	0.11886216271321216
132	0x3fc3c6db3b0283d2	0.1545061147817522
133	0xbfc2f046ffe090ee	-0.14795768255238023
134	0xbfbd73bfa9072c17	-0.11504743458424148
135	0xbfb8e1adb1cfad68	-0.09719358054251404
136	0x3faaf3b4664d57aa	0.05264056919865763
137	0xbfa7c17fcd320fc0	-0.04639815692738081
138	0xbfc29a49838ba731	-0.14533347056504334
139	0xbfa11511d8eec943	-0.03336387417893374
140	0xbf907d77389767bf	-0.016103613690439774
141	0x3f8aadeceac4b463	0.013027048983156491
142	0xbf7051fbe202bb8a	-0.003984435956381991
143	0xbf83062de9c4f621	-0.009289129921508156
144	0x3f9d0f7ac9473425	0.028379362616579713
145	0xbfc0b4e24db5ec75	-0.1305201415487748
146	0x3fd1e69eb2cefd77	0.2797009226014419
147	0x3fce3952b1a07a99	0.23612435982882543
148	0x3fc766c4a50cce4e	0.18282373484690811
149	0x3fa5538bb4f98384	0.04165302833712928
150	0xbf6eef7729a04bde	-0.003776295413453464
151	0x3f7888a4b3f4b7cb	0.005989688273343628
152	0x3fb147ffbae6cc38	0.06750486672426426
153	0xbfb39f8085d67fb7	-0.07665255801702996
154	0xbfab53864ea62475	-0.053371617413241625
155	0xbfb19c3ed851ce32	-0.06879036694754673
156	0x3fb17c97fff5fc03	0.06830739974064674
157	0xbfc4bc90cea4e337	-0.16200456705134922
158	0xbfc56eab9d09ba23	-0.16743989150877878
159	0xbfbb5e55a8e34a3c	-0.10690818188894807
160	0x3fb441b8bc113688	0.07912783233151732
161	0xbfc099d16afcde96	-0.12969415401470447
162	0xbfc1635548247984	-0.13584390661794654
163	0xbf8230a7da7c819a	-0.008881865840124448
164	0xbfc041a545bc83b7	-0.1270033445844356
165	0x3fc0ac6a5a18038d	0.13026170157538922
166	0x3fb8bcc7a48a6d0c	0.09663055197818354
167	0x3f902fb38c136cc4	0.015806966232827305
168	0xbf974c7a720d72ba	-0.02275267907258425
169	0xbfb7bdce908947dd	-0.092739973342105
170	0xbf833d390de84928	-0.009394117104453217
171	0xbfc55817ba0850ef	-0.1667508753167861
172	0x3fb9ae382777708e	0.10031462634600727
173	0x3faab2d16c314fb5	0.052145523507220494
174	0x3fc9a591124bf004	0.20036519425764265
175	0x3fc38e97eceedf94	0.15278910702704407
176	0x3fb91454e17d74e4	0.09796648507240807
177	0x3f891277af5eabc6	0.012242255248414834
178	0xbfc1f0335be64b3a	-0.14014284121784631
179	0xbfc712ec6d6e4e10	-0.1802650007563078
180	0xbfa67c9059b03aae	-0.04391909689740224
181	0xbfa82a7c487594d2	-0.047199138493661544
182	0x3f9e06729b030519	0.02932147093884394
183	0x3f9d875b17ad9df8	0.028836654014780166
184	0xbfc1253cd7e1ccd5	-0.13394890347590285
185	0x3fbcfeb06879df0f	0.11326124716458373
186	0xbfa88029cd891102	-0.04785280832268947
187	0xbfa9939f91d54d1b	-0.04995440154257321
188	0xbf930c001acfeb51	-0.018600465427862038
189	0xbf8e9b1901638d36	-0.014944262843022398
190	0x3fbad5cc4e15d0c9	0.10482479959847803
191	0x3f72e4b11ba5d800	0.00461262877285229
192	0xbfc31ef59b1e1325	-0.1493823058518952
193	0x3fc57b3c52a94c74	0.16782335315892605
194	0x3fa7a6636221b717	0.046191316346137316
195	0x3fc486f514a6ccdc	0.16036857136132354
196	0x3fb32c9a1e17459b	0.07489932284013039
197	0xbfb9c86aafe9f4b9	-0.10071436686299053
198	0xbfa13f89f379c719	-0.033687888117937166
199	0xbf98520e6926732a	-0.023750519912584846
200	0x3fc833dda4b0aced	0.1890828184271877
201	0xbfc3a0f4711e6b1b	-0.15334945224170657
202	0x3f9e74ca3e615626	0.029742393548380396
203	0x3fa89827617b17eb	0.04803584160758575
204	0x3fc0cd6e728fa9cc	0.1312692698841843
205	0xbfb53be434c1e30b	-0.08294512069722886
206	0x3f96e18cea8858ff	0.02234478169892728
207	0x3fa483f30cc3e78e	0.04006919413400488
208	0x3fa4536f3b1f8b8a	0.03969905468672781
209	0xbfa1e7b2e4503056	-0.034970846529262786
210	0x3f6fa1668a769384	0.0038611414672282147
211	0x3fac32550d42df72	0.05507150446777488
212	0x3fb0c1d6714dff34	0.06545772806384492
213	0x3f7b4b7f00d6f365	0.0066637955728169095
214	0xbfc19d36b3594028	-0.13761028058297708
215	0xbfc60c43ef76de2d	-0.17224930946916697
216	0xbfafae89627f9c7e	-0.06187848403333705
217	0x3fc80d6d3388e539	0.18790974632592297
218	0x3fac0da3770597d1	0.05479155376342216
219	0x3fb1fb41efae910f	0.07024013616188916
220	0x3fa625bd9f6a505d	0.04325668879496967
221	0xbf82f3446c26ce14	-0.009253058004879335
222	0xbfb1285fc0d9639b	-0.06702230890495146
223	0xbfb87d700a9d9a6b	-0.09566402682467305
224	0x3fa69967c89c6faf	0.044139140356690525
225	0x3fb20944f215bad5	0.07045393858218614
226	0x3fb9e1b458082f54	0.10110022687166281
227	0x3fa5e64eb7b4cf5f	0.04277273170956052
228	0xbfbddd03df14b9a7	-0.11665367313682982
229	0x3fa43fe3205a18c9	0.039549920748912344
230	0xbf87b583d3796acc	-0.01157668103330902
231	0x3f1780be3d08bd54	8.965645907531755e-05
232	0x3fb5211b8b7e7296	0.08253643184293433
233	0x3fbbc3449811e4fd	0.108448302389565
234	0x3f9ba6746f4718fe	0.027002162258008326
235	0x3f96ef1b755936a6	0.02239649680841773
236	0x3fa6e3bcc7f5da82	0.04470624867365293
237	0xbfb07d2874384207	-0.06440975987812446
238	0x3fc5bb9a741c1637	0.1697876994077647
239	0x3fc316847e99901f	0.14912468129762232
240	0xbf98fbc49bf2d649	-0.024397918718668064
241	0x3fbb359f93758b4f	0.10628697729184221
242	0x3fb6e246543ed516	0.08939017826817905
243	0x3fc1e07a47d11410	0.13966301447558793
244	0xbfa91eb7f703fdfe	-0.04906248941733436
245	0xbfc04576f740f726	-0.12711989472330137
246	0x3fa8ba9130ebd179	0.04829839441473189
247	0x3faf8d7b9324c4da	0.06162630244433283
248	0x3faa45ec7baf8971	0.05131472596964926
249	0xbfc441aab85931ad	-0.15825399400126852
250	0xbfb9cb2a3bedc9c3	-0.10075630152804309
251	0xbfb6d55872c312ec	-0.0891928939991648
252	0xbfc959ae1fd6bf02	-0.19804932169562767
253	0x3fa91c5224f36426	0.04904419613894388
254	0x3f870a4681dae08e	0.011250067556247492
255	0x3f847dd1248fdbd8	0.010005601814539064

bias f8 [64]
0	0xbfd3d68df1421e7a	-0.3099703651464335
1	0x3fdb418b96c537c9	0.4258755657546059
2	0x3fd28ad11bb371fa	0.28972270684405965
3	0xbfe652300633a9b8	-0.6975326653603622
4	0xbfe5499d67a7e9bd	-0.6652361893205164
5	0x3fd32873ccb62a49	0.29934401503911495
6	0x3fe2375847734b44	0.5692559619441018
7	0xbfe61da50035350e	-0.6911187175807372
8	0xbfe5951fe847d28e	-0.6744536911706562
9	0xbfd63878db97e9ad	-0.34719678349179156
10	0x3fd1e35cdc5022e3	0.27950212016052783
11	0x3fd51915c718a190	0.3296560711192109
12	0x3fddba7a8f0b785e	0.46450675935000685
13	0xbfd5309465ebecfd	-0.3310900683715799
14	0xbfdca36fe338f41c	-0.4474754065484505
15	0x3fdd7c8dbcc31694	0.46072715219302407
16	0xbfe28364cf832ba6	-0.5785392811752572
17	0xbfe49c50a98a74b9	-0.6440814315170861
18	0xbfe01f62d6c09d90	-0.5038313097365279
19	0x3fdb538a698c45f0	0.42697391803184725
20	0xbfd109de7a7fa390	-0.2662273594165123
21	0xbfd5069feddbc10f	-0.3285293410144882
22	0xbfe54b4db2d0b0bd	-0.6654423229679406
23	0x3fda8ab17735c863	0.4147151626740479
24	0xbfd633ce3ce79bd0	-0.34691196391798673
25	0x3fe49861045a640b	0.6436009488126059
26	0x3fde64da5e4f51ba	0.4749055787081279
27	0x3fdab03ba1a7cc9c	0.41700640474955164
28	0x3fe435a9e381f9f0	0.6315507358083874
29	0x3fd5f8a7e92a1c85	0.34330175180407024
30	0x3fe2b1ac407c8875	0.5841885814190976
31	0x3fdb55ea3570b3b8	0.4271188279988638
32	0xbfe621f0a971178c	-0.6916430768403514
33	0xbfd8f8e3b0d8efab	-0.3901910044694385
34	0x3fe1555c1cfd75f6	0.5416698995792888
35	0xbfe1d9e30236cce2	-0.5578475039714272
36	0x3fd0dccdef865446	0.2634768332584979
37	0xbfe0e615b8f0bc71	-0.5280865299336154
38	0xbfe20ca1ea4342c8	-0.5640420508808228
39	0xbfe1e95bb6fd4707	-0.5597361158381496
40	0xbfd5f2478651b78f	-0.342912560626126
41	0xbfd168bf51027b71	-0.2720182696447671
42	0x3fe2ec87b68dcf0b	0.5913733067995691
43	0xbfce8cc17ac9f2a5	-0.23867052550840132
44	0x3fd78835a0708240	0.3676885668556089
45	0x3fddcfcfd92bc0d2	0.46580883224579595
46	0xbfe11a29524c3f8a	-0.5344435317401672
47	0x3fe202dceda6a2d1	0.5628494874591415
48	0xbfe0e147f766f038	-0.5275001365730594
49	0xbfe46085ae9ff95a	-0.6367824946062612
50	0x3fe572af2105a1cf	0.6702495236359541
51	0x3fe24194c3f92a9e	0.5705055072406429
52	0x3fe24fffd87827da	0.5722655513684416
53	0x3fe648f59ce7c7a8	0.6964061798628238
54	0x3fe57ac2399fc5f8	0.6712351918669688
55	0xbfe4dc3dfcb37406	-0.651885026508922
56	0xbfd74ab853faa678	-0.36393554879268875
57	0x3fd4c378e563371a	0.3244306793320547
58	0x3fe229b578b86f98	0.5675914151975006
59	0xbfe4f5ed71cfc63b	-0.6550204489596533
60	0xbfe13b98805ad947	-0.5385248667651376
61	0x3fe54c75432d90b4	0.6655832588262656
62	0xbfd7ec480bf1e577	-0.3737964741372574
63	0x3fe1e35a848c3462	0.5590031231710209
