models/model4.pkl (torch_old, 81484 bytes, 18 tensors)

action_log_std f8 [1, 1]
-0.07581542602540624
00000000: afb9 4fc7 a368 b3bf

weight f8 [64, 4]
0.00010940483255073334 0.3399569824149846 0.06982472351544929 -0.35268219319988703 0.1839591849655398 0.432178277109423 0.08780173159165147 0.2476874420741009
-0.1525917875944313 -0.32019488667665935 -0.324914627052404 -0.20496180636180822 0.17708468794945229 0.20963386444965235 0.07719299508687263 -0.3145008828946604
-0.128111181733111 0.0568244835016584 -0.12028252411595698 0.1307719660074636 -0.20370666104513277 -0.01623390683544121 0.08786433779035448 0.3486370013768226
0.40725161247648856 0.07913283665661185 0.10605156783328296 -0.33505913066976667 -0.1843485007207445 -0.20097470820341837 -0.1949042175299095 0.15190670960653274
0.004380853839826085 -0.10686367576900707 -0.11407221954841841 0.1738933234969193 -0.16853076371633235 0.05690137590739658 -0.035052709479878055 0.002823809211035134
-0.07300529090123797 -0.05655378744806322 0.1776473527331578 0.25674561234847465 0.07471765512132478 -0.12409954541943959 0.12109650322196228 -0.08843888838487472
0.10996955397748322 0.02934277435892556 0.08202926238933254 -0.027350630135714402 -0.1047913822380979 0.20608450829107483 -0.38049420685443874 -0.47187240577091977
0.10702844977718012 -0.19976121934758917 -0.15327880563024118 0.024187218907196915 0.312211660530813 -0.08949382725912688 0.07331339168266483 -0.21112852512166821
-0.34264123221000997 -0.05579049606977013 0.15155285665513252 0.22428682864714544 0.1571655551500853 -0.3682276837432539 0.05210037189613817 -0.10280755353809475
-0.18187566374986827 -0.12697470439669079 -0.08094567205879591 0.16748801845123806 0.3970866455835028 -0.03605457227566303 0.0979357724106638 -0.3094912767931254
0.4294778322171242 0.19186609935652646 -0.22788205523495478 0.023016233949336364 0.31970705305236136 0.07797631004766539 0.17345207923876718 0.15176674696171644
-0.3691169536123438 -0.3928762863156523 0.14269589973578206 0.2751249839187598 0.1235425814006761 -0.21814128305160024 0.13081231485500244 0.019350575938429516
-0.3162096283982537 0.12393733412772376 -0.14870942526774925 0.21811332695883603 0.008277580390500154 0.4188494221085387 -0.04828094787926626 -0.09239269717235564
0.08521293193498156 -0.08461661845892411 0.06608252601262239 -0.029841686637000334 0.25213973512832716 0.0702759461085818 0.09260490253988261 -0.14857478237738952
-0.014451222414189467 -0.28704652293144073 0.12710734382108207 -0.0814532045095552 0.0380304983878997 -0.181960660761906 0.040370033698181394 0.14242661388211394
-0.06352392698388762 0.24480713705070126 0.005564866178365229 -0.08737213967587043 0.21512358318789573 -0.11246031460184785 0.10505822556606881 -0.07850993903196955
-0.38478384488851886 -0.3092496855099769 -0.061711543324154954 0.3298929510974707 0.2700663536728352 -0.3613010594673042 -0.2404931317848201 -0.3072140505586291
0.050201771026764805 -0.11881109620004894 -0.11827036265748966 0.08980006766830705 -0.23593830209739447 -0.008596788684178652 -0.07545574659638266 0.15280971956301345
-0.1093991116642471 -0.214684637051013 0.309775408365752 0.1554516755280079 0.18879711521698073 0.1291539885740641 -0.1416209020484081 -0.11094351500498474
0.2149879475102748 -0.28358316647339354 -0.10346394681734816 -0.270531944611011 0.00988939986373133 -0.4056591854533351 -0.26967335487111393 -0.04129010964751617
-0.060244397592437667 -0.25619128795406676 -0.3038966266332765 0.08269083044753098 -0.21139332906019176 0.21841347899824595 0.3186070897207532 -0.07305344246253759
0.21195299693661232 -0.18732169069147292 0.12846473558160346 -0.21098631973759957 0.1036456556072951 0.19253349335173797 0.3242030563991124 0.2169065255678868
0.43330205957057844 0.06070616658345854 0.05162456809661282 -0.3460680335462579 -0.10192295210601543 -0.13737669063700844 0.10176478981423445 0.20769947650989087
-0.2630684225984079 0.20161895275733036 -0.10697802877822014 0.1373087422607644 0.11823504928632657 -0.013739973417765249 0.1664796162046149 -0.08270170320246233
-0.488735543880794 0.29720781801076285 -0.14011086170786768 0.38585828833379104 0.03714052749992302 -0.32103055405644226 -0.12914467447319974 -0.0246100024048756
0.35523133194121104 -0.2775569096619298 0.07606460549644403 -0.2353833695874176 0.2513439891151176 -0.14353989115601284 0.10249939130075986 -0.14007348702471886
-0.0032915440139905344 -0.04548865375395845 0.041367926760952106 0.13800060610796228 0.4178653612854657 0.04872722010187176 -0.016708674924628453 -0.3351822492380577
-0.1789272303616253 0.400909757029145 0.10471775979247279 0.24840261716690457 0.2666789474786488 -0.016107252896924263 -0.09425404374961516 -0.3419884859646099
-0.05146681852545241 0.18565737354443296 0.24460517419245792 -0.08398012632595117 -0.1170011515138574 0.025169346549299382 0.1148560718135923 0.21610662224150917
0.20801799298700974 0.35278852332757116 0.10888548971102266 -0.10585910125688257 -0.19803353787832778 -0.14491196338949464 0.1473309363701716 0.17558265584120689
-0.33812225816116626 0.2459160930803183 -0.12482357320879894 0.2299134850914521 -0.24058176254165922 -0.27221628065960934 0.08198805412953888 0.35259353387802866
0.019829269405723004 -0.35845402748365557 -0.1938633528034717 -0.09266772835298911 -0.25226775207543306 0.04799232860613339 0.10264373147728885 0.2248077790036364
00000000: e800 19b6 08ae 1c3f ac3a 61ee dac1 d53f
00000010: 157b f377 08e0 b13f 5234 6b55 5892 d6bf
00000020: 4ae7 9c7d f98b c73f 9280 8e13 cfa8 db3f
00000030: 5ee3 b79d 2c7a b63f c148 abdb 38b4 cf3f
00000040: f599 adb0 2088 c3bf f5d9 a7b1 127e d4bf
00000050: b9a7 4bb8 66cb d4bf fa63 a03f 303c cabf
00000060: efc0 ae07 b6aa c63f 5b01 f94f 48d5 ca3f
00000070: 42df 608d ebc2 b33f d21f a64f c820 d4bf
00000080: 05d7 e57b f265 c0bf b5e0 8044 1918 ad3f
00000090: e9bd 5be3 d5ca bebf c22a 9ec2 22bd c03f
000000a0: 1f46 9553 0f13 cabf 1833 c70b 9f9f 90bf
000000b0: 3d55 4bf9 467e b63f 85b1 c591 1150 d63f
000000c0: 2e1b 3511 6910 da3f f7d7 7ab1 0c42 b43f
000000d0: e091 880f 3226 bb3f 4efb 1cda 9b71 d5bf
000000e0: f4c3 d44e bb98 c7bf 0946 870b 8ab9 c9bf
000000f0: f45b 1214 9ff2 c8bf 98c9 e6d6 ad71 c33f
00000100: 5d9d 877f a8f1 713f 5ce8 8ef8 6a5b bbbf
00000110: e9b3 5744 d633 bdbf f7bc b4ec 2242 c63f
00000120: dc09 4483 6a92 c5bf 7845 3d59 2d22 ad3f
00000130: 225c b4c1 6df2 a1bf 68ee c406 f521 673f
00000140: a014 db88 79b0 b2bf f8d5 1b37 9ef4 acbf
00000150: a4dd 1a01 26bd c63f 8167 1b26 856e d03f
00000160: b80d 2e3d b220 b33f c163 06e1 fcc4 bfbf
00000170: b68f ff30 2e00 bf3f ebc0 4e55 eea3 b6bf
00000180: 5195 e3f5 f626 bc3f 6d62 fb40 080c 9e3f
00000190: abf5 46a7 deff b43f e9df d4b7 cd01 9cbf
000001a0: 0f82 9da7 9bd3 babf a444 a927 fa60 ca3f
000001b0: 2b77 b05f 045a d8bf b7f0 aa51 2833 debf
000001c0: 64d9 886b 3766 bb3f 74b1 0d90 c691 c9bf
000001d0: a708 add0 a39e c3bf 291b c0c8 88c4 983f
000001e0: 7538 da9d 46fb d33f 3696 4545 11e9 b6bf
000001f0: 49c9 a29b aac4 b23f 5b3c 536f 4206 cbbf
00000200: c299 a67d d5ed d5bf fc34 1868 9290 acbf
00000210: 687e 7981 1566 c33f 1445 fb48 6eb5 cc3f
00000220: cab1 b63b 001e c43f cc2e cad8 0a91 d7bf
00000230: 0484 ce62 e6ac aa3f bd56 3a88 9851 babf
00000240: a33a dfa5 b347 c7bf 7cca 6605 b540 c0bf
00000250: fac9 3e06 dbb8 b4bf 1426 dc54 3f70 c53f
00000260: 3e68 1d1b de69 d93f d429 97b1 be75 a2bf
00000270: b3bf 9c9b 5112 b93f 0a52 0e80 b4ce d3bf
00000280: 84b0 ee96 907c db3f 5943 f97e 118f c83f
00000290: a929 4a3b 3d2b cdbf daa1 5b50 9191 973f
000002a0: 7844 4a92 1476 d43f 8279 8465 41f6 b33f
000002b0: 6d79 e07f ad33 c63f 9412 69bf 176d c33f
000002c0: b181 0ab7 9c9f d7bf d060 4694 e224 d9bf
000002d0: aeb9 51f7 db43 c23f 2197 0fd2 a59b d13f
000002e0: a181 c792 7ca0 bf3f e69a 4eb6 0dec cbbf
000002f0: 68af 1b3b 75be c03f eadc 412b a3d0 933f
00000300: e9a6 294f c73c d4bf d6fd d46c 5bba bf3f
00000310: 61e3 1013 e908 c3bf 0913 0e33 23eb cb3f
00000320: e9a4 8908 d6f3 803f 2ae6 79ce 6dce da3f
00000330: bc99 52c8 47b8 a8bf 7f97 be3c 0ca7 b7bf
00000340: a665 dbc3 83d0 b53f 21ac fa48 6fa9 b5bf
00000350: 35b0 0fd0 c8ea b03f 7451 a7b0 d18e 9ebf
00000360: 377d 19b3 0e23 d03f 6158 3bba 9afd b13f
00000370: 07aa db73 f4b4 b73f 401d a99b 7f04 c3bf
00000380: ecd3 3f3d 9a98 8dbf 84f2 1a61 f85e d2bf
00000390: 3680 65ae 0d45 c03f 5adf 8501 1eda b4bf
000003a0: 6b39 a7c5 bb78 a33f 89c2 90a7 7c4a c7bf
000003b0: 03b8 f18c 61ab a43f cf12 5a08 093b c23f
000003c0: 2ec7 e8a4 1a43 b0bf 41e6 ba1b d755 cf3f
000003d0: 5214 e263 2fcb 763f d049 7d42 055e b6bf
000003e0: e9f6 3169 2b89 cb3f 2c14 50fd 32ca bcbf
000003f0: 1068 fb8a 18e5 ba3f a7a2 8d34 3a19 b4bf
00000400: 21d2 746b 4ca0 d8bf 9c12 6431 bfca d3bf
00000410: 4fd2 b9c8 a798 afbf 8940 0953 f71c d53f
00000420: 4596 3163 c448 d13f b205 9b7a 8e1f d7bf
00000430: 7bd6 f69b 7ac8 cebf 1b58 011f 65a9 d3bf
00000440: 9ec0 85e9 0bb4 a93f 49c4 946c 676a bebf
00000450: be31 b36b f746 bebf 0f60 d021 23fd b63f
00000460: eae7 b0ed 3933 cebf f04c fe71 319b 81bf
00000470: f83d ed5b 1151 b3bf 8b5c 04d6 448f c33f
00000480: 6834 cf86 9401 bcbf c33a 8b43 c97a cbbf
00000490: 004d 023c 5cd3 d33f 3d27 402b d7e5 c33f
000004a0: 58d1 b7fd 802a c83f 836a 892e 1e88 c03f
000004b0: e22c 5d3b a220 c2bf 6552 a650 cb66 bcbf
000004c0: 2b9f cb9d b984 cb3f 22c2 6c02 3a26 d2bf
000004d0: a045 e5fb 9c7c babf 332a a837 6550 d1bf
000004e0: 2031 efc7 e440 843f 4c05 b6f1 51f6 d9bf
000004f0: d189 f107 5442 d1bf 182e 2b2d fa23 a5bf
00000500: c97d da8a 5ad8 aebf fa19 d224 7065 d0bf
00000510: 1b4c 30d6 0a73 d3bf 9683 73ec 392b b53f
00000520: c2fa 73c5 ef0e cbbf 51ca a60e f9f4 cb3f
00000530: b9f5 a7fd 0e64 d43f 04a0 3c62 a1b3 b2bf
00000540: 59e3 109b 4621 cb3f 86f7 ac3b 28fa c7bf
00000550: 3592 014f 8871 c03f ee93 9687 9901 cbbf
00000560: 10b0 348d 8588 ba3f d848 aa00 f0a4 c83f
00000570: ead5 1f2d bebf d43f 2031 cdd0 97c3 cb3f
00000580: f648 c98f 38bb db3f 6470 48f0 e014 af3f
00000590: 8947 4a0f 896e aa3f de6b 9189 fa25 d6bf
000005a0: 00d2 0162 9f17 babf 7963 c234 8f95 c1bf
000005b0: 72ee 22dc 410d ba3f 7dce 807d e595 ca3f
000005c0: f8e8 eaef 1cd6 d0bf 355a 2c5c a6ce c93f
000005d0: 6735 fe7e e962 bbbf 1081 bb36 5593 c13f
000005e0: 09fc ecf5 a644 be3f 0c54 d103 b423 8cbf
000005f0: 7754 863d 344f c53f abfc 9356 f02b b5bf
00000600: 1217 5772 7147 dfbf 1731 9ef0 7305 d33f
00000610: 00c2 6c18 27ef c1bf db2f 52f6 e6b1 d83f
00000620: 9fcc ef4d 1504 a33f 851b acbc c38b d4bf
00000630: 9350 a80c d087 c0bf 3106 ef4d 5d33 99bf
00000640: eced 4c32 1cbc d63f 56b7 710e 7ec3 d1bf
00000650: d288 fd50 f878 b33f 0d3b 33d1 0a21 cebf
00000660: 47eb 5219 0516 d03f 68de 17e1 835f c2bf
00000670: cc25 7f6d 663d ba3f 8f67 e792 eded c1bf
00000680: b702 973c def6 6abf 19b5 6cf0 494a a7bf
00000690: 3c4e 1549 2d2e a53f 8ceb 07fd 00aa c13f
000006a0: 148c 365b 4ebe da3f ba6a 8631 c6f2 a83f
000006b0: dd6e 7131 141c 91bf e556 ab3f a073 d5bf
000006c0: 552e 6265 16e7 c6bf 5699 c565 81a8 d93f
000006d0: 597a 9e79 c8ce ba3f 3b80 7c2e a8cb cf3f
000006e0: bbf5 7c93 4411 d13f 9dc9 ae71 6b7e 90bf
000006f0: 149c 6b73 0821 b8bf 45e6 b4ac 23e3 d5bf
00000700: 8dbe cadc db59 aabf 6a3a d1ed 9ec3 c73f
00000710: 0664 cbeb 384f cf3f 0e7b 15b8 b87f b5bf
00000720: f2aa 5897 c9f3 bdbf e5e9 2941 fec5 993f
00000730: 53b8 2f20 3567 bd3f aaf7 7cbd 61a9 cb3f
00000740: fceb 6d66 55a0 ca3f b425 8650 1694 d63f
00000750: 7a5a 5161 ebdf bb3f ffdb e101 9519 bbbf
00000760: 906b 59b8 2959 c9bf b84c c7a7 798c c2bf
00000770: 9910 b378 bddb c23f 6b99 4a12 7e79 c63f
00000780: 2c85 368a cba3 d5bf 0e87 abb4 2d7a cf3f
00000790: 8c9f b30c 70f4 bfbf 1e47 b019 ce6d cd3f
000007a0: 0db3 1019 62cb cebf 3ccb b7d5 fd6b d1bf
000007b0: f627 264b 2bfd b43f 8161 3278 e490 d63f
000007c0: d394 67be 1f4e 943f b35a 4a29 e9f0 d6bf
000007d0: 7187 17ac 83d0 c8bf 02b3 ab7e 12b9 b7bf
000007e0: 84f6 3fa4 2725 d0bf 17fb a453 7392 a83f
000007f0: b598 d50d dc46 ba3f 6e7f 5a55 80c6 cc3f

bias f8 [64]
-0.27888708145528074 0.46343710332520294 -0.08550718753040647 -0.7999324158232989 -0.7321374940795745 0.44935157024775163 0.6168962808803229 -0.7375999361141965
-0.7459294734528127 -0.47386103719000233 0.406835972537704 0.34903240751697673 0.5277975851470903 -0.07960772115817566 -0.5011896775733058 0.5511183301917284
-0.6403768017001449 -0.6946692728533611 -0.5555760400162499 0.49078469344242465 0.21799541615327114 0.12439461264421955 -0.7008449212487967 0.4343336660139822
-0.41903876998603545 0.6853774341118605 0.5672007498927908 0.4782206909565558 0.675062319822 0.36084484489104396 0.6405838789087505 0.5382420194753846
-0.7205695290732831 -0.41185507315759423 0.6272228504682783 -0.6131384804248833 -0.21686133450222475 -0.6182150624152967 -0.5955480052918707 -0.5861719351817687
-0.38493741665159653 -0.10949788454843952 0.7069648672752736 0.18225954066521038 0.43409581878530207 0.5303553556698576 -0.6100906598900074 0.6337325531872106
-0.5948881852455655 -0.672430831145672 0.7348128261024565 0.6523511765296431 0.6579692527039187 0.7536686757268878 0.7040688159294795 -0.6992685033860504
-0.3230346879088211 0.4060453067954768 0.594030516459091 -0.7120547191458376 -0.6137244389063169 0.7117448745691641 -0.3800205866050215 0.6201023823611777
00000000: fe25 8833 49d9 d1bf d838 a218 f4a8 dd3f
00000010: db1a 048e cce3 b5bf 3b15 9fdd 0b99 e9bf
00000020: c9e8 279c ab6d e7bf a6b3 a716 2dc2 dc3f
00000030: e6f5 ec44 9dbd e33f 9a8c 642e 6b9a e7bf
00000040: 4b46 b37c a7de e7bf cd19 653e bd53 debf
00000050: d4b0 38bf 9909 da3f 4ee4 e105 8c56 d63f
00000060: 37aa e3c2 b7e3 e03f e429 e2ee 2b61 b4bf
00000070: eea4 48ef be09 e0bf 8cc9 8ce8 c2a2 e13f
00000080: 156a 8d7d f77d e4bf 051f 0e0e bb3a e6bf
00000090: 8ef3 4967 47c7 e1bf 3b9b ed33 0469 df3f
000000a0: e131 8717 46e7 cb3f c602 1b49 53d8 bf3f
000000b0: d399 0a54 526d e6bf df3c c56e 1fcc db3f
000000c0: 5126 36fd 87d1 dabf a3a8 1da8 9cee e53f
000000d0: 7dcc e12f 8226 e23f 9773 fbf4 2a9b de3f
000000e0: 5cb7 4c4b 1c9a e53f b82e eff9 1418 d73f
000000f0: c740 48c3 a97f e43f 4b5a df53 4739 e13f
00000100: d7a4 3bd4 e70e e7bf d7d3 7961 d55b dabf
00000110: bd15 c2a7 3512 e43f 2102 2b97 d49e e3bf
00000120: bf1b bab9 1cc2 cbbf 4cfc 5ef4 6ac8 e3bf
00000130: dea6 bdb0 ba0e e3bf 100a 6ea5 ebc1 e2bf
00000140: 0e9f e18b d0a2 d8bf 1de2 1da9 0d08 bcbf
00000150: f5c8 0bc9 749f e63f 7a41 45d7 4754 c73f
00000160: 83d8 40d4 39c8 db3f 1b89 7bcb abf8 e03f
00000170: 1353 fad8 dc85 e3bf 5530 cb7d 8947 e43f
00000180: ff01 8df2 5209 e3bf e3f7 92a9 8d84 e5bf
00000190: 0853 1930 9683 e73f 4b76 1693 0fe0 e43f
000001a0: 6861 c488 150e e53f 1688 48c5 0d1e e83f
000001b0: 2c9e 5153 bb87 e63f 7a4f 2557 6860 e6bf
000001c0: 5daf 02af 99ac d4bf 0060 5874 a5fc d93f
000001d0: b391 2049 4c02 e33f eb33 76fa 26c9 e6bf
000001e0: 7f79 3b6f a1a3 e3bf 88d8 eb2f 9dc6 e63f
000001f0: 919e d1dd 4152 d8bf d936 8df3 e0d7 e33f

weight f8 [64, 64]
-0.05053293987518876 0.21944994881764893 -0.058816949589816016 -0.16140542139268552 -0.18796693685851099 0.3417092047117998 0.18512275673913936 -0.26752633684305527
-0.044134151054047395 -0.30249135319548714 0.0977273417565383 0.06307337862548071 0.26692271446070936 0.022023909983852945 -0.061193814009573355 0.29094917532126174
-0.06983732903048316 -0.24779948100967866 -0.2783979296968261 0.06015605874537759 0.03901130160396648 0.03604540973841155 -0.23521449430654437 0.13392718317512292
-0.061251467223523225 0.227455095371397 0.17071144641203773 0.25294172766949463 0.22775839158401637 0.19320489026919663 0.17974597795608951 0.2279089907855349
-0.18642069183557172 -0.1287068739821167 0.050939335872126006 -0.1044542587035903 -0.020522422751161316 -0.0463223143928615 -0.01755840433053784 -0.03189191934089513
-0.2228397799603095 -0.09248371031782007 0.2584677646892919 0.10252734988680251 0.2972288277368599 0.13527404124374548 -0.23199409775909655 0.09866181463790058
-0.05493427896086715 -0.1304610537431821 0.2014281673085252 0.07935005615355008 0.06432555025099246 0.26275929477791754 0.10138649222392673 -0.11712513497236067
0.009313580141881325 0.35298341988342596 0.049250836116154405 -0.13221697942700814 -0.04691935218018314 0.18986676386530618 -0.09104871486667845 0.05736005806854568
-0.12592852526545134 0.1126536318466642 0.07049967896967614 -0.21254358203252263 -0.09303044378434637 0.3570133399932114 0.241222539508493 -0.04082011619286094
-0.08059442194896924 -0.0975423523446852 0.17678068533912908 0.2403720528197198 0.29048981661233947 0.016828449906465506 -0.16068024854649313 0.1484172303839573
-0.08591137159199048 -0.09916953281837305 -0.12054702586028791 0.14043539028979282 0.16504349507308488 -0.023928467755141514 -0.1842569572582779 0.02640903243172375
-0.10798089647288439 0.11477888789908233 0.06917385356771812 0.19687717951474934 0.2504163444832203 0.1540043496089519 0.11069109744041007 0.10618546374491244
-0.0806648808684888 -0.14768353147965807 0.11311008290885348 -0.1309270388173898 -0.052980453292216255 -0.04053878365092062 -0.21690443457388667 -0.16703480961539566
-0.19212870654830685 -0.085235834701373 0.023960701931458467 0.03349833970485582 0.08914479168256181 0.27373728515837437 -0.23341692852857576 0.2261996619552761
-0.05399725654156476 -0.008398683607839267 0.0967788531174911 0.1314690203152321 0.18196235136700406 0.15678622907080586 0.21734768680624242 -0.1614692637398879
-0.02970100303344032 0.1337089983329918 0.14432392676193198 -0.046235953210705165 -0.13984707469287508 0.10370128197548938 -0.17121666797665147 0.2506496570764467
0.14190811124127525 -0.14764088334754316 -0.05617091261372703 0.0869107985466238 0.17035216423936453 -0.41500884631128265 -0.1178718350385832 0.049885960558751594
0.04164309226024701 0.12526931374591452 -0.2398248335734813 -0.0757856316706592 -0.2720043069760197 -0.03008691188687781 0.17244086856188043 -0.061120662208657944
0.17973206893920754 0.1447955252116647 0.20499087928032714 -0.2319864239321413 -0.07789990716967712 -0.19016393002228035 0.15800019974882337 -0.03323336398353847
0.11545636672781302 -0.14455691653093888 -0.0672822165478359 -0.04341523543111339 -0.16684285609807642 -0.1859258847209158 -0.18230680940609015 -0.18829238241081644
0.12233221394895955 0.06152874727502932 -0.1491610339685049 0.22790666911795424 0.057607065183295364 0.11563417549202683 0.05007689917338759 0.11058118535756586
0.19248398125012775 -0.04364101838516753 -0.1366672689488084 -0.015805075857846823 -0.060081716164646144 -0.06654820463785864 0.09395020331311613 -0.25349092342251117
0.19704628841344243 0.18067082227099082 -0.040839581288143745 -0.11504609448279857 -0.18107405420601586 -0.07869661903759166 -0.17020254928307424 0.17566130102377314
0.11544981697770695 -0.1417310238512522 -0.026448380463967244 0.12819047662305974 0.06599922186767629 -0.19034713556595775 0.0667391896541047 -0.23585454137568335
0.07599021643521418 -0.23209688737829484 0.13653183119318563 0.13699815084762032 0.2562808007870636 -0.3935320757069173 -0.24841455971488155 0.02426693010604016
0.2559205686370412 0.24497061602126016 -0.07690076666853264 0.01509351848826849 -0.06336971354288791 0.008539163839768346 0.27953403816831673 -0.09200288651592749
0.24504015793699552 0.18088053820559516 0.16853926979957395 -0.28976159479274854 -0.0556892837031677 -0.1069655256460307 0.14744264214809724 -0.1092131989203007
0.13197143793660743 -0.022846223167496762 -0.20577188008637276 -0.10316319865381114 -0.2163474675405598 -0.07400546718898121 -0.12078534397161753 -0.25242987328071637
0.0345836529045904 0.012834173382787884 -0.2096309215004487 0.21462419194804663 0.07692400997657593 0.17590767131275833 0.1502923065185244 0.05986325123482045
0.060225515335016196 0.03352652558462334 -0.10806913504183253 -0.08583660263509821 -0.20309169545846997 -0.08093213669322949 0.17288104031449567 -0.25241914304608476
0.1599856556659467 0.038310439731400026 -0.06693476127531041 -0.13827011236264775 -0.1391243904286026 -0.049128770348681246 -0.02563968755155785 0.2510065054949887
0.008014636307439637 -0.3042896725698059 -0.14550355134115056 0.2539833586549485 0.034058794277600384 -0.05642011105664192 0.08237599721101807 -0.08699048176171745
00000000: 79f3 4418 74df a9bf 31ed a398 ef16 cc3f
00000010: 95a2 e055 411d aebf e3ab 23cf eea8 c4bf
00000020: 5daf 44f3 4c0f c8bf a8ad be48 90de d53f
00000030: d850 f83c 1ab2 c73f 86d0 e3c8 261f d1bf
00000040: 21e5 d35e c098 a6bf a408 53b1 045c d3bf
00000050: f0f3 c4b8 a804 b93f 92d5 71b2 9325 b03f
00000060: 50c5 4a02 4315 d13f 5e5a 7194 6f8d 963f
00000070: c0f9 c6ab cb54 afbf 2e64 334a e99e d23f
00000080: abd5 39f4 dbe0 b1bf f97f 73b5 e4b7 cfbf
00000090: 3e9b d48c 45d1 d1bf 0670 ef61 c6cc ae3f
000000a0: af79 2011 4af9 a33f e3aa fe3f 8b74 a23f
000000b0: a7bf 4b30 821b cebf be2a e4a3 8624 c13f
000000c0: 6b35 1d31 5a5c afbf 01e0 f6a1 3f1d cd3f
000000d0: 5c3f b267 dfd9 c53f 0697 0880 3230 d03f
000000e0: bd17 9fdd 2f27 cd3f 7c15 9116 f0ba c83f
000000f0: 3158 748c ea01 c73f c6b1 f12e 1f2c cd3f
00000100: f7a0 5d1b a2dc c7bf d104 4383 7779 c0bf
00000110: e72d 4d7b b814 aa3f eb51 0fa9 83bd babf
00000120: 7925 347a d403 95bf c0e4 c8f2 8eb7 a7bf
00000130: ae79 7a91 d4fa 91bf 27d1 263d 2354 a0bf
00000140: e9b3 968f 0386 ccbf 764f 3a2f 03ad b7bf
00000150: 7049 1a61 bc8a d03f 0499 b57e 3b3f ba3f
00000160: 0eba a30f cc05 d33f cadf 91e7 a850 c13f
00000170: adc3 5e8b fbb1 cdbf 20da 3b93 e641 b93f
00000180: 86ed 2187 5820 acbf e944 9da3 f2b2 c0bf
00000190: a0aa 8aef 65c8 c93f c181 1d08 4950 b43f
000001a0: 3c0e a0a6 a377 b03f afa2 725c 0cd1 d03f
000001b0: e2a0 5b14 77f4 b93f a9f1 3eb0 e9fb bdbf
000001c0: fec6 f190 ff12 833f c27d 1bc5 4797 d63f
000001d0: cbcd d6d4 6737 a93f 33b5 4e69 7cec c0bf
000001e0: 3ba8 5336 d005 a8bf 570d b3da 8d4d c83f
000001f0: 7af9 b1f4 f74e b7bf 8b8b 002b 4c5e ad3f
00000200: 1606 d308 6d1e c0bf 9f9a 8e50 ded6 bc3f
00000210: 51a2 8d57 440c b23f dbf5 e6ca a034 cbbf
00000220: e30c 96d9 d7d0 b7bf ac6b e07a 4ed9 d63f
00000230: 2f9f 1f53 61e0 ce3f 9c6f 22d0 5fe6 a4bf
00000240: e6c6 8206 d6a1 b4bf de9a 4b1d 89f8 b8bf
00000250: 954a 0cdf bfa0 c63f 9ad5 ddec 82c4 ce3f
00000260: 3ff2 8a99 6297 d23f 476b f627 7a3b 913f
00000270: 4967 4f9e 2b91 c4bf 39bc 54f7 55ff c23f
00000280: 0994 57a3 49fe b5bf 31ea 36ac 2c63 b9bf
00000290: 6333 b37d 2bdc bebf a971 3f70 c9f9 c13f
000002a0: ebd2 e02e 2520 c53f 9090 ce49 b480 98bf
000002b0: 0e0d be62 bb95 c7bf 9bf9 732a f80a 9b3f
000002c0: e49c f1d2 a2a4 bbbf 323d cc31 2662 bd3f
000002d0: c9c7 cfae 60b5 b13f db1a ac7b 4533 c93f
000002e0: 831d 7c46 d206 d03f bb8f 811e 6ab6 c33f
000002f0: 6104 7773 4056 bc3f 7051 1876 f82e bb3f
00000300: ba11 4421 74a6 b4bf 1874 ee40 4be7 c2bf
00000310: e7fd f04a c8f4 bc3f f9ff f09a 37c2 c0bf
00000320: 2345 6f04 4120 abbf 682a 00dc 7fc1 a4bf
00000330: 6115 6d46 86c3 cbbf 2dbd 4b8a 6561 c5bf
00000340: 91b6 9f67 ac97 c8bf 4a5a 7d02 04d2 b5bf
00000350: f840 bd7c 2789 983f df5b 01c3 b126 a13f
00000360: 5ea5 e26c 31d2 b63f e8dd dc63 e984 d13f
00000370: dc76 2e1d 9be0 cdbf cd69 3b4b 1cf4 cc3f
00000380: 84e8 d645 87a5 abbf cfa5 663b 5433 81bf
00000390: ce81 15b9 7fc6 b83f 5c75 5813 fad3 c03f
000003a0: d6bd 1cd6 8a4a c73f 5440 2937 9211 c43f
000003b0: 05d7 588b 0cd2 cb3f dc37 895b 06ab c4bf
000003c0: f382 bf92 f069 9ebf 01b4 825f 601d c13f
000003d0: 9d84 bcd8 3479 c23f 6ff4 e025 3dac a7bf
000003e0: 31a3 1f4a 82e6 c1bf 0b54 a3ce 2a8c ba3f
000003f0: 0cb2 be82 6dea c5bf b067 f9db a40a d03f
00000400: 91c1 6884 0b2a c23f 32df c37e e5e5 c2bf
00000410: 382a 5311 6fc2 acbf 734f 6d3d c93f b63f
00000420: 7dfe 1a87 19ce c53f 204a 9d43 818f dabf
00000430: 7e37 9c3c d92c bebf 9e3e 4212 a78a a93f
00000440: 7461 b94e 3e52 a53f 9393 dd2a d308 c03f
00000450: 4dbe 7b84 94b2 cebf 273d 88e9 af66 b3bf
00000460: 5152 b5c0 8468 d1bf f7f9 5d7a 1acf 9ebf
00000470: 4bca 7bd9 8a12 c63f bc93 971a 354b afbf
00000480: bb72 11df 7501 c73f 4314 b2e6 a888 c23f
00000490: 7d5f 3e21 243d ca3f ecc7 f32b bbb1 cdbf
000004a0: 22bb a791 3ff1 b3bf 178a 29aa 4a57 c8bf
000004b0: 8761 57bd 5939 c43f 7d06 e4a6 f603 a1bf
000004c0: 2100 3667 8c8e bd3f 229b 744e d780 c2bf
000004d0: 6ce3 ac47 6839 b1bf 9448 a690 853a a6bf
000004e0: b298 4151 1b5b c5bf f297 2d5d 6bcc c7bf
000004f0: 9d5e 1e5c d455 c7bf 3f2b 45fc f619 c8bf
00000500: 6076 28fa 2951 bf3f 6fc5 9e2a b280 af3f
00000510: 25bb 5d71 b517 c3bf ad71 33b5 0b2c cd3f
00000520: 9c2a f659 ac7e ad3f 29c6 098a 339a bd3f
00000530: 4836 78e8 ada3 a93f 96e5 a96e 0c4f bc3f
00000540: 0791 3caa 50a3 c83f aff4 7495 1d58 a6bf
00000550: 67cd 4825 507e c1bf 5856 aeaf 342f 90bf
00000560: 0988 07dc 07c3 aebf 3bf1 869a 4d09 b1bf
00000570: c2b0 aeda 1e0d b83f 81ae 7bfe 3139 d0bf
00000580: 7557 4412 d038 c93f 1b67 7fb4 3820 c73f
00000590: 68a2 07f4 ece8 a4bf a80d 562d a973 bdbf
000005a0: 3007 7c42 6f2d c7bf 7b7d 122d 7625 b4bf
000005b0: cded 6e77 32c9 c5bf 0af3 88cb 117c c63f
000005c0: 9099 3f84 1e8e bd3f 5286 2200 3e24 c2bf
000005d0: ffe6 7fc4 4815 9bbf d199 60a8 8b68 c03f
000005e0: 9aad 7b33 53e5 b03f 0550 1281 4b5d c8bf
000005f0: 2d09 edcc d115 b13f 762b e94a 7b30 cebf
00000600: 9fbb 6746 1874 b33f a586 65ce 59b5 cdbf
00000610: 923a eb02 e079 c13f 6f62 c0c8 2789 c13f
00000620: c047 7e96 e766 d03f 2aa5 c528 a12f d9bf
00000630: 13af e95c 0ccc cfbf 1513 b81c 6ed9 983f
00000640: 41de 2aaa 0061 d03f a169 2578 325b cf3f
00000650: d1f0 e0c5 c4af b3bf d539 4fc2 59e9 8e3f
00000660: 513d 395f ff38 b0bf 2b7a 6a2b fb7c 813f
00000670: a54f 03bc e2e3 d13f d137 b94c 808d b7bf
00000680: a4e5 45d4 795d cf3f 69b7 09ee 1727 c73f
00000690: 06c1 f0dd b192 c53f dc62 5137 748b d2bf
000006a0: 7c4c 7c48 4e83 acbf 92fb 72ba 1762 bbbf
000006b0: a1ec 0787 66df c23f e17b a76d 65f5 bbbf
000006c0: 2ecf f8a8 70e4 c03f 67b6 5d15 0065 97bf
000006d0: d625 b4a3 bb56 cabf 456e 5e44 e768 babf
000006e0: 3d5e d418 46b1 cbbf b447 4db5 05f2 b2bf
000006f0: 9eb7 31ce c9eb bebf df8a 91a0 cf27 d0bf
00000700: fd21 67d4 f2b4 a13f ed25 9a97 cd48 8a3f
00000710: 1492 09a0 2fd5 cabf e573 ac36 ce78 cb3f
00000720: fb66 20bb 4ab1 b33f 31b0 b37f 2484 c63f
00000730: 3732 ab3e c73c c33f 7852 9264 65a6 ae3f
00000740: e14d 7ff5 e0d5 ae3f 2272 de85 632a a13f
00000750: 8d30 b638 6baa bbbf 1a14 1e39 63f9 b5bf
00000760: 3daa 0a9f e8fe c9bf 66f6 4af0 f7b7 b4bf
00000770: 53e6 1f47 f720 c63f 1d1b 119f a227 d0bf
00000780: b009 75f3 687a c43f a0c5 7b0b 6d9d a33f
00000790: 519d a4f2 a222 b1bf 0850 4ec5 d5b2 c1bf
000007a0: 91bf 7bf9 d3ce c1bf 716c e1fb 6727 a9bf
000007b0: f8ec 0d4e 4a41 9abf 46ca 0b97 7d10 d03f
000007c0: 9967 a346 fa69 803f d0a9 0c64 7b79 d3bf
000007d0: 0c26 3b41 dc9f c2bf f4ad c96a 4341 d03f
000007e0: 2f81 207f 2770 a13f d261 a6c7 18e3 acbf
000007f0: 6028 ffe5 9716 b53f 2ad8 3a1a 0245 b6bf

bias f8 [64]
0.025591675618302175 0.15564515941791845 -0.08119498069832048 -0.09924896309078347 -0.08405684823013486 -0.2120730174892057 -0.028193618177952028 0.22978268897904142
-0.05612275006039892 -0.03364043667142214 0.029911626875144707 -0.08582819044130277 0.09764545144622376 -0.13803709515521967 -0.014079952858019279 0.2243404559251201
-0.0965489018064281 0.25889053902081893 0.13290216702370408 -0.0677916292233409 -0.20967837184366214 0.08186298258241556 0.1638708935376773 0.21407427241312085
-0.14998612735967287 -0.05300464656023431 -0.05534806659288063 0.10866931536581739 0.23143574027244423 0.11798366690486342 -0.0940162437932182 0.10380241946045601
0.015888320500031097 0.1631284597637943 0.1831908779454837 -0.15537815970112467 0.07560296930326545 0.23333255697876162 0.1718434477127104 0.13104881323254164
0.08794402503124114 0.16887157160266283 0.10401658330827579 0.09054909516591225 -0.08132834596957243 -0.11481629091928595 0.0712292162489661 -0.15027649132035223
-0.04968467906272552 -0.248523865990226 0.15053822011315815 -0.16336271382624215 0.13918362211476312 -0.1417147396596963 0.03148177283579933 0.18756583919818576
-0.19505364947230588 0.14422074098264795 -0.04357003569838597 0.1149429526035385 -0.0999291022724911 0.10687861092854847 0.1875250500802916 -0.1615326634816166
00000000: 1261 5247 b434 9a3f 7886 bd3a 2eec c33f
00000010: ecd9 b2ba 31c9 b4bf 0907 a34a 6168 b9bf
00000020: 5b3c 27e6 bf84 b5bf 5c76 3d69 3525 cbbf
00000030: b3f0 1eb0 c9de 9cbf cc0b 2de7 8469 cd3f
00000040: 8259 2400 1fbc acbf b161 a7be 5139 a1bf
00000050: c1ac cb4c 27a1 9e3f 722f 0517 d6f8 b5bf
00000060: 538f 90d4 4aff b83f 08cb a914 33ab c1bf
00000070: e370 6f48 f3d5 8cbf 911e af24 30b7 cc3f
00000080: c32b b9c7 6db7 b8bf 8ca5 959f a991 d03f
00000090: 6998 772e f002 c13f 4ef1 74ce ca5a b1bf
000000a0: 899f dfaa bdd6 cabf 42ca f1f0 f8f4 b43f
000000b0: 0e5c 41b0 b8f9 c43f e9f4 7627 c966 cb3f
000000c0: b486 eed3 be32 c3bf 0345 06cf 6c23 abbf
000000d0: d395 d3ef 9456 acbf 622c 9393 c0d1 bb3f
000000e0: d63f ccb3 af9f cd3f 3a8c d176 2d34 be3f
000000f0: 7377 62d4 7211 b8bf 9a0d d49c cb92 ba3f
00000100: c476 be23 0745 903f 98bd ddb3 64e1 c43f
00000110: d3c6 d976 cc72 c73f 54e9 3679 6ee3 c3bf
00000120: 1555 a358 b75a b33f 5f6d a85a d7dd cd3f
00000130: ff9e fa51 f7fe c53f 62b6 811f 35c6 c03f
00000140: f345 63e7 7f83 b63f b3f7 a06a 959d c53f
00000150: f0fa 8caf d4a0 ba3f 2084 6bba 392e b73f
00000160: 9355 2d3a efd1 b4bf ebdd 8bb6 9964 bdbf
00000170: 031c 4ff2 133c b23f 9f0d ca93 423c c3bf
00000180: 2b92 5f2f 4570 a9bf 870c 5a4a a1cf cfbf
00000190: 668f 171e d644 c33f 897f a2c4 11e9 c4bf
000001a0: d994 8fd8 c4d0 c13f d98a 1966 b523 c2bf
000001b0: 8fed 7f01 611e a03f fefb 994c 2802 c83f
000001c0: e178 b99a 84f7 c8bf 3172 f642 d375 c23f
000001d0: 48fb d1cc cf4e a6bf 097f 56be e66c bd3f
000001e0: 32d2 2d22 f494 b9bf 727c 948a 655c bb3f
000001f0: 5747 a322 d200 c83f 22d5 7131 1aad c4bf

weight f8 [1, 64]
0.16187516013910108 0.15333510403450681 -0.1758006040704012 -0.15587261635790484 -0.16260019201119402 -0.14922346199792605 -0.15704767326672991 0.168271328821012
-0.16814597177008617 -0.1358546583475883 0.15467318103480676 -0.1255076904919782 0.1689377952726402 -0.162893654057404 -0.15847588892014336 0.1391538858849932
-0.14055091183935925 0.1438419203417113 0.15294917391993415 -0.14890019829233309 -0.17361154179310567 0.15289318886323602 0.1448395979607426 0.14923182359927592
-0.16277103186651415 -0.1499405930753873 -0.14650818580349212 0.16250583437653107 0.14834710123028194 0.15689363856634267 -0.15861940707224723 0.1459489589170395
0.15734301167622697 0.13886130200758992 0.1598640691519349 -0.1709111715251915 0.15957787266916656 0.149663545742546 0.15537991341737933 0.14191519922008589
0.1640156727955237 0.16861745537718575 0.15237496663308012 0.16203604113277018 -0.15860038138442412 -0.14483255267825845 0.1661273043963287 -0.16554453243958267
-0.15234110080413105 -0.17058473214021036 0.1628271561194884 -0.15942580006935814 0.1374014312625897 -0.15626727068622373 0.1509857128340903 0.16756085115232783
-0.1400825657772716 0.14273670253555132 -0.15943634683651003 0.17437503828157802 -0.14344750963281605 0.15768743118198006 0.1703268902430223 -0.1577106285965751
00000000: 9885 6a43 53b8 c43f 6917 9414 7ca0 c33f
00000010: b8b9 8c5a a280 c6bf 24b1 cc46 a2f3 c3bf
00000020: 8475 8145 15d0 c4bf d9da 8920 c119 c3bf
00000030: c2f7 4b5e 231a c4bf bf02 1237 ea89 c53f
00000040: d073 daa4 ce85 c5bf c65a 4e79 af63 c1bf
00000050: a86f 0eaf 54cc c33f e59e 07d1 a210 c0bf
00000060: fc8d e0f0 c09f c53f b984 7302 b3d9 c4bf
00000070: eeea 0e1c f048 c4bf df61 7e66 cbcf c13f
00000080: 8ef2 e280 92fd c1bf 9dab d47b 6969 c23f
00000090: c5d9 f7a9 d693 c33f 4249 0465 290f c3bf
000000a0: c0d1 1a2b e738 c6bf a570 f906 0192 c33f
000000b0: 671e 349c 1a8a c23f 75cf f044 071a c33f
000000c0: 422a 4d61 aed5 c4bf 4b02 cddb 4031 c3bf
000000d0: 34a7 4fbd c7c0 c2bf e737 07be fdcc c43f
000000e0: 78c7 1eae 09fd c23f b1e3 4b3b 1715 c43f
000000f0: 6d6f f106 a44d c4bf 178b b79a 74ae c23f
00000100: 3ba7 b3d8 d023 c43f dfba 6607 35c6 c13f
00000110: ca11 6802 6d76 c43f 1b62 1cd2 6ae0 c5bf
00000120: d8c0 2338 0c6d c43f ab0e 2fd1 2c28 c33f
00000130: 4c9e 4a2f 7de3 c33f e450 baf9 462a c23f
00000140: 4e17 582f 77fe c43f b89b 30bc 4195 c53f
00000150: 9b86 35dd 0581 c33f b122 b8d4 98bd c43f
00000160: f8f0 966d 044d c4bf d41c 9382 df89 c2bf
00000170: 576c add5 a843 c53f fc07 6e30 9030 c5bf
00000180: 3e2b e5c6 e97f c3bf 9a9b de72 b8d5 c5bf
00000190: ac89 372f 85d7 c43f 24e0 b78a 1068 c4bf
000001a0: 1e24 d9be 5e96 c13f 4d29 84e0 9000 c4bf
000001b0: ae90 64f5 7f53 c33f 9603 e54b a272 c53f
000001c0: 3b67 60bb 39ee c1bf 121f aa3e 3245 c23f
000001d0: 5e6f ba03 6968 c4bf 763d 54d7 eb51 c63f
000001e0: 4065 48ed 7c5c c2bf 815b f50b 1a2f c43f
000001f0: 9590 9c83 45cd c53f f2e5 06a4 dc2f c4bf

bias f8 [1]
0.17050181225631275
00000000: 2359 c6dd 00d3 c53f

weight f8 [1, 64]
-1.070647676604982 -1.1090327010190546 1.1652850163414092 1.120734522596335 1.1584395097212874 1.151801921526665 1.1557110068447893 -1.0537604705507537
1.1360385551026955 1.1605365233104667 -1.0431106531759538 1.1008134457779088 -1.150410246785387 1.088259852454724 1.1461411306255511 -1.0623892010482006
1.1649421614685507 -1.0428702542958366 -1.083607148028221 1.0984076890080188 1.0393013931214454 -1.092607926627039 -1.0474985106622654 -1.0385378663701974
1.055761013866721 1.0645166229489378 1.06353439051363 -1.1457662540422402 -1.1116414324418886 -1.1219077615076924 1.1522285026752446 -1.0824413826594648
-1.1611087325561464 -1.0925288630831969 -1.1244505609571256 1.09022090030907 -1.0269320147999226 -1.1583758997333018 -1.086967598648884 -1.1689098116686243
-1.090213422938568 -0.9995780746246495 -1.0923628967338601 -1.0125052819296927 1.1405749805780718 1.0732959500406718 -1.1688780565294163 1.0374684278596131
1.0618840331618236 1.0774069272713347 -1.1168373026614709 1.1573461767248105 -1.0515308672474089 1.1239690036276906 -1.1061136504857705 -1.0216935852693716
1.180058609593634 -1.0859674451781445 1.0528428983715727 -1.0190370939265105 1.0573345656403113 -1.1400231223817379 -1.0172540351597021 1.077728749180056
00000000: 94e8 4875 5f21 f1bf 6524 d112 99be f1bf
00000010: 6948 bbe6 01a5 f23f 79ca a052 87ee f13f
00000020: f25a 0ade f788 f23f eed4 06da c76d f23f
00000030: de68 20d3 ca7d f23f 3554 6df0 33dc f0bf
00000040: 2894 92c3 362d f23f 75e9 d6be 8e91 f23f
00000050: acff d7cb 94b0 f0bf 9ecf 498f ee9c f13f
00000060: 0dd3 2e93 1468 f2bf 367c bd29 8369 f13f
00000070: ff31 0a15 9856 f23f 6b02 a2d1 8bff f0bf
00000080: d9d2 5364 9aa3 f23f c8bf 42b8 98af f0bf
00000090: 7ee3 e772 7456 f1bf 196e dff0 1393 f13f
000000a0: 334d 627f faa0 f03f 7f6a 0373 527b f1bf
000000b0: 4073 5ecc 8dc2 f0bf 5b7b bbe1 d99d f0bf
000000c0: 9e30 2fa9 65e4 f03f 27d3 1995 4208 f13f
000000d0: 5cd6 16a3 3c04 f13f b28c dffe 0e55 f2bf
000000e0: ce76 d386 48c9 f1bf 9fdd 8c8d 55f3 f1bf
000000f0: c825 8827 876f f23f 32c0 250e ae51 f1bf
00000100: cadb 16c0 e693 f2bf e50d 8e8b ff7a f1bf
00000110: b079 14df bffd f1bf dee3 8378 8b71 f13f
00000120: 347f ac43 506e f0bf 0544 dd2a b588 f2bf
00000130: 4523 0023 3864 f1bf b571 51c6 dab3 f2bf
00000140: e0e6 52a1 8371 f1bf f3f7 8928 8bfc efbf
00000150: 405f 4d84 517a f1bf 07a5 0ebd 3833 f0bf
00000160: 9b7f 038d cb3f f23f b8a9 c55f 382c f13f
00000170: e5e4 1c7a b9b3 f2bf 18a2 847e 7899 f03f
00000180: 9c31 a91c 7afd f03f e6d3 d10b 0f3d f13f
00000190: 5624 9eca 90de f1bf 6df0 b26c 7d84 f23f
000001a0: 85fe d807 12d3 f0bf 37c7 04ec c6fb f13f
000001b0: cfed 273a a4b2 f1bf 303d 745f db58 f0bf
000001c0: 1416 f922 85e1 f23f 0df9 5866 1f60 f1bf
000001d0: e04e 85cb 71d8 f03f 3234 fdd6 f94d f0bf
000001e0: 23b0 45a6 d7ea f03f 9003 b5e2 883d f2bf
000001f0: 60c2 cb2a ac46 f0bf 4bff 3a80 603e f13f

bias f8 [1]
-0.6544958205086833
00000000: ea82 0e38 a1f1 e4bf

weight f8 [64, 4]
8.877611409846564e-05 0.3399427295692418 0.06997564873410632 -0.35270274642442345 0.18397939306619476 0.4321961740401246 0.08768357138134894 0.24770756447582631
-0.1526146264180451 -0.3202039678121395 -0.32491428541388917 -0.20498454164867252 0.17707330506133562 0.20961997153776207 0.07729272158213892 -0.31451224565633457
-0.12812688653199172 0.05681407403234572 -0.12025780365237682 0.1307563721625528 -0.2036350343379638 -0.016209947088549802 0.08772965363398212 0.34870842160061777
0.4072885461587599 0.07914760271007217 0.10595829709181843 -0.3350225187364045 -0.1843850125028569 -0.2009895953490488 -0.1949027913927065 0.15187041271414067
0.004371804091399236 -0.10687954567158867 -0.11398635906669707 0.17388435593483428 -0.1685989356295897 0.05687842035301355 -0.034889332134552545 0.0027560873738902347
-0.0728926434702933 -0.05652803210960812 0.1775785470335784 0.2568578670796302 0.0747609286933148 -0.12408412676492352 0.12094455343191855 -0.08839591343907774
0.11000225929873983 0.029356400000663436 0.08197402893482916 -0.027318121654738545 -0.10482563893482369 0.20607299896240094 -0.38052163327097605 -0.47190652556777485
0.10701347467219716 -0.19977677432955984 -0.15317038994606885 0.024172325170844878 0.31225054810191544 -0.08947863855720728 0.07322033508105 -0.21108996807573885
-0.3426574969907986 -0.055807675328620576 0.15162752780072852 0.2242708596972001 0.1571572006199348 -0.3682451367443165 0.052179507613532114 -0.10281585085813112
-0.18189433509260705 -0.12698988312359946 -0.0808567430592852 0.1674694854988498 0.39712240239512375 -0.03604313454731939 0.0978343047496667 -0.30945582321597914
0.4295130149691108 0.19188589491814767 -0.2279785359339252 0.0230512064908819 0.31983867823057743 0.07800326521096385 0.17332639011208303 0.1518978442250308
-0.36913493387783297 -0.39289508131243167 0.14276445357431847 0.27510723194467973 0.12361033166301864 -0.21812439069997314 0.13072070638467648 0.01941795898519991
-0.31626481694558317 0.12392104313777631 -0.14861492651636465 0.21805854335310254 0.008288029500892736 0.41887033333167123 -0.0483994067306357 -0.0923823491661101
0.08524006604820873 -0.08460174813284736 0.06598331225821452 -0.02981472587063256 0.252167640207372 0.07028997010895409 0.09248644437940322 -0.14854705501212212
-0.01444319011860722 -0.2870386601470886 0.1270425811821326 -0.08144524294800713 0.03807506858435134 -0.1819439604518492 0.04020212552390384 0.14247096861161462
-0.06351584817339435 0.24482518230060213 0.005453349686384853 -0.08736414260450119 0.21516615352502172 -0.11244344190443398 0.10494870459004761 -0.07846762994415969
-0.3848131874452808 -0.30926682731945476 -0.061633948117743115 0.32986386100189585 0.2700293195361248 -0.36131697520153183 -0.2404795191587189 -0.30725092772387497
0.05021547178520844 -0.11879732840170815 -0.11837618228974381 0.08981363004876124 -0.23597445017582985 -0.008609804922243173 -0.07538947027041108 0.15277384633300026
-0.10942807223294793 -0.2146985177419212 0.30979609444775064 0.15542290358502353 0.1887780523399721 0.12913685579163667 -0.1415326492349643 -0.11096250609112296
0.21495971339586098 -0.2836003244067124 -0.10340060364774092 -0.2705600772677956 0.009845064360231044 -0.40567684405618687 -0.26967567300598805 -0.04133426671696112
-0.06027756386612035 -0.25620605267269303 -0.3038978097522698 0.08265781915100304 -0.21141125103338218 0.21840377829722055 0.3186527558657295 -0.07307123003505024
0.21197305409819747 -0.18730860889245937 0.1284248257651018 -0.21096643718136196 0.10370840266730877 0.19255094718657328 0.32421647716107593 0.2169690210138687
0.43333509344661886 0.06072274136095838 0.051518399483953585 -0.3460352940392165 -0.10187637567936939 -0.1373633203560092 0.10171485739795663 0.2077459068671868
-0.26309012227441514 0.20160755230524968 -0.10688996641090928 0.13728719522451197 0.11826558082117708 -0.013727724143162411 0.16647069467588885 -0.08267134735397234
-0.4887803615977521 0.2971959134322662 -0.1400949030852544 0.3858139322634734 0.037120083714261884 -0.321047812614144 -0.1290967033843055 -0.024630346395648896
0.3552475737911117 -0.2775480955580751 0.07596679278980584 -0.2353672766466516 0.2513729528650893 -0.1435252352592597 0.10240557436212042 -0.14004472521693676
-0.0032709617086051704 -0.04547363408686207 0.0412668555358841 0.13802109577080818 0.41789095598710835 0.04874201868777418 -0.016777778219796702 -0.33515698003608146
-0.17889949957064483 0.4009265294851558 0.10463256359784891 0.24843025156720294 0.2666447505633621 -0.016117621411030597 -0.09416206040727194 -0.3420226411978337
-0.05149396727009556 0.1856413636528811 0.24476268665396286 -0.08400698988855357 -0.11695011487866375 0.025189842456792837 0.11473186569865126 0.21615745406135126
0.2080429378635265 0.35280679152754496 0.10882277109385846 -0.10583429024563462 -0.19803876113507488 -0.14492718840847268 0.14739356683226576 0.17557754716028295
-0.33816257022170043 0.2459032995053029 -0.12474471693061999 0.22987351737750858 -0.24054819934289162 -0.27220743209652304 0.08195330005175136 0.35262707988496167
0.019791414140333606 -0.3584712737493439 -0.19383627560101058 -0.09270540893639058 -0.2522553280804014 0.048003872684253296 0.10255693971628542 0.22482017210605795
00000000: 0850 e106 aa45 173f cbd2 8026 9fc1 d53f
00000010: 9f51 d492 ece9 b13f c08b 468a ae92 d6bf
00000020: e6b9 2d02 a38c c73f ad5a 3d24 1aa9 db3f
00000030: 56b8 7a37 6e72 b63f 449f 32a8 e1b4 cf3f
00000040: 5baa ad46 e088 c3bf 675d 73c8 387e d4bf
00000050: 79c6 7649 65cb d4bf 4c86 48f7 ee3c cabf
00000060: 2ad5 1d8b 56aa c63f faeb 2bc5 d3d4 ca3f
00000070: c503 6aaf 74c9 b33f 3945 52f8 f720 d4bf
00000080: 9e54 b239 7666 c0bf ffc7 d7fb bb16 ad3f
00000090: 6897 c625 37c9 bebf 3544 17f3 9fbc c03f
000000a0: ff93 667a b610 cabf 16fa 7522 5799 90bf
000000b0: 0953 3f59 7375 b63f e052 a720 3d51 d63f
000000c0: 7962 72fa 0311 da3f d151 326d 0443 b43f
000000d0: 5dcc bf3c 1520 bb3f b15e 594a 0271 d5bf
000000e0: d541 4997 ed99 c7bf d822 6eed 06ba c9bf
000000f0: f423 771d 93f2 c8bf 3b2b eb5b 7d70 c33f
00000100: 69a2 8d39 2be8 713f ea53 4539 755c bbbf
00000110: 08af 61c4 352e bdbf 7358 03b3 d741 c63f
00000120: 13b2 5561 a694 c5bf c856 8716 2b1f ad3f
00000130: 0a8f feb8 03dd a1bf 2e49 5824 ef93 663f
00000140: f5ea d29f 17a9 b2bf 529e 6f02 3ef1 acbf
00000150: 4e7e fdd1 e4ba c63f ecf2 b4fa 5b70 d03f
00000160: cca1 c13f 8823 b33f ef76 6832 fac3 bfbf
00000170: f791 9ee5 38f6 be3f 9225 5255 1da1 b6bf
00000180: 5698 2caa 1b29 bc3f c57d b9a7 9a0f 9e3f
00000190: ae7d 65fd 3ffc b43f 9989 611c 48f9 9bbf
000001a0: 22e3 0163 dad5 babf 6cea 909b 9960 ca3f
000001b0: 3170 9468 775a d8bf 0149 856d b733 debf
000001c0: 12cb f22d 3c65 bb3f 6b77 1f0c 4992 c9bf
000001d0: ea57 c45b 169b c3bf dde7 4e48 a1c0 983f
000001e0: 0e5f 10b9 e9fb d33f 2037 4b72 12e8 b6bf
000001f0: fa44 9360 91be b23f db11 b3fe fe04 cbbf
00000200: 2e80 d3b5 19ee d5bf a8ee cdd8 d292 acbf
00000210: 34ea 89e4 8768 c33f 1932 ec53 e8b4 cc3f
00000220: 052c 7f26 ba1d c43f b595 ce0c 5491 d7bf
00000230: e668 71bd 45b7 aa3f bd32 f2bc 2352 babf
00000240: ea73 4646 5048 c7bf 0b28 7859 3441 c0bf
00000250: ccc7 190b 07b3 b4bf 25d3 a5dd a36f c53f
00000260: cef1 b214 746a d93f 888b 40e8 3e74 a2bf
00000270: a8a3 5343 ab0b b93f a73d 11cc 1fce d3bf
00000280: 87ea 1f28 247d db3f 805a 9e8d b78f c83f
00000290: 8659 0392 662e cdbf 05f6 0b48 bc9a 973f
000002a0: b2c1 bfa5 3c78 d43f 2cf3 0fa1 05f8 b33f
000002b0: 5356 8824 8f2f c63f b3c3 a378 6371 c33f
000002c0: 2540 3421 e89f d7bf 00c1 3f69 3125 d9bf
000002d0: 6906 9109 1b46 c23f 711c 065d 5b9b d13f
000002e0: a3bc f03b eda4 bf3f 7c16 4202 80eb cbbf
000002f0: a885 6ac3 74bb c03f 799e 2f2b 4de2 933f
00000300: 7a07 6ac9 ae3d d4bf c91d 901b 4ab9 bf3f
00000310: cce8 8a5c d005 c3bf 0e51 28a4 57e9 cb3f
00000320: 1aa8 3c7d 50f9 803f 3825 bb83 c5ce da3f
00000330: 8096 1b9a cec7 a8bf 8866 65a0 5ea6 b7bf
00000340: 5566 fcff 4ad2 b53f ff3d 6acd 75a8 b5bf
00000350: e014 3b48 48e4 b03f 92db 3662 c087 9ebf
00000360: c735 f3bd 8323 d03f 8fd2 da02 86fe b13f
00000370: e7cf ee0d 31ad b73f ceda 9803 9703 c3bf
00000380: 5ab4 ac29 6494 8dbf eb3d 8166 d75e d2bf
00000390: 3337 b069 ee42 c03f 0760 e06e 98d9 b4bf
000003a0: d9b9 b94c 937e a33f 6336 ec8f f049 c7bf
000003b0: 68af b57c 5f95 a43f 6a7d 681b 7d3c c23f
000003c0: bdb3 ae1a 9342 b0bf 0cf2 9b7b 6e56 cf3f
000003d0: d623 e868 4056 763f 6754 5417 7f5d b6bf
000003e0: 764c 4c84 908a cb3f 8e14 a1e9 17c9 bcbf
000003f0: 2bc9 f815 ebdd ba3f b9a0 6760 7416 b4bf
00000400: 6e68 c97d c7a0 d8bf 80c8 4417 07cb d3bf
00000410: 0c67 fa1e 7c8e afbf edaa c84f 7d1c d53f
00000420: 419a 170e 2948 d13f f6bb fe3b d11f d7bf
00000430: 147f 126b 08c8 cebf 4a57 8fcb ffa9 d3bf
00000440: 4c30 24a2 d7b5 a93f f466 5670 8069 bebf
00000450: 024e 8fc7 e64d bebf 8b62 cbab 06fe b63f
00000460: c82f 1929 6934 cebf 821d 8774 04a2 81bf
00000470: a730 466d b94c b3bf 4b99 d7e8 178e c33f
00000480: 003d 8167 7a03 bcbf d1c1 19b4 3d7b cbbf
00000490: 3339 85ff b2d3 d33f 8438 f9cf e5e4 c33f
000004a0: 535a 8014 e129 c83f 23ab 2a76 8e87 c03f
000004b0: 83e4 e3e9 bd1d c2bf dc5a beee 0968 bcbf
000004c0: a112 7fc5 cc83 cb3f 778e 9df9 8126 d2bf
000004d0: a6bf 0d43 7678 babf 83fa dd36 db50 d1bf
000004e0: 8a37 a22b a629 843f e8cf 7d02 9cf6 d9bf
000004f0: be99 05c1 5d42 d1bf 59c9 81d7 c329 a5bf
00000500: 9c9e f96a b3dc aebf d80d 5112 ae65 d0bf
00000510: e191 8dcc 0f73 d3bf 3222 0316 1029 b53f
00000520: f3ef 981c 860f cbbf b700 8eae a7f4 cb3f
00000530: 244f 4e87 ce64 d43f c16e 47cf cbb4 b2bf
00000540: 6114 7edb ee21 cb3f 30e7 b97e baf9 c7bf
00000550: 0beb 5385 3970 c03f f7b0 1fbe f200 cbbf
00000560: 12c8 c645 a28c ba3f bc75 7d6a 82a5 c83f
00000570: 32cb 8e77 f6bf d43f 43f6 bf10 a4c5 cb3f
00000580: 3ffd a31d c3bb db3f e59d 8918 0d17 af3f
00000590: 3708 daa1 9e60 aa3f 5e40 ca37 7125 d6bf
000005a0: 8a24 c7f5 9114 babf 09ad 4c0c 1f95 c1bf
000005b0: 8aa1 0a22 fc09 ba3f c2ab eff9 6a97 ca3f
000005c0: a96e c4f3 77d6 d0bf 428a e3b9 46ce c93f
000005d0: 7e61 010e 245d bbbf 650d d376 a092 c13f
000005e0: 0691 de31 a746 be3f 9977 f2f1 471d 8cbf
000005f0: 450b b066 e94e c53f eb99 330d f329 b5bf
00000600: 5352 ff6c 2d48 dfbf 5192 2c02 4205 d33f
00000610: cc31 8b39 a1ee c1bf f26a 5aeb 2cb1 d83f
00000620: eeb2 2753 6701 a33f 4f53 e81f 0c8c d4bf
00000630: ee4b 87a3 3d86 c0bf a7aa 0891 b238 99bf
00000640: 8ea2 da51 60bc d63f 074c 5f16 59c3 d1bf
00000650: d43d 9d4a 8f72 b33f 657b dfd1 8320 cebf
00000660: 76e3 e994 7e16 d03f c66b cbef 085f c2bf
00000670: 323b d070 4037 ba3f bf5b 644d fcec c1bf
00000680: d0e2 1332 b4cb 6abf ca78 77f6 5148 a7bf
00000690: f7e9 dee5 ed20 a53f ba31 3fde acaa c13f
000006a0: 4690 50b5 b9be da3f 32f7 68c0 b6f4 a83f
000006b0: 50a7 03a3 312e 91bf 75fd 1143 3673 d5bf
000006c0: a29d f6c5 2de6 c6bf 9733 0fbf c7a8 d93f
000006d0: c1d8 bf1e 33c9 ba3f 6eba e8fe 8fcc cf3f
000006e0: 4276 d424 b510 d13f 0814 6643 2381 90bf
000006f0: 4124 f939 011b b8bf 53eb 9bee b2e3 d5bf
00000700: dc92 bbd2 6a5d aabf 9044 d6a0 18c3 c73f
00000710: e5dc 3a3b 6254 cf3f eeec 346a 7b81 b5bf
00000720: 6cd4 aa56 71f0 bdbf 6e5b 2cb6 5dcb 993f
00000730: fa19 fc4a 115f bd3f c574 fd25 0cab cb3f
00000740: 4ad0 24a7 26a1 ca3f 3fb8 daef 6294 d63f
00000750: dc80 e822 cfdb bb3f d07e 66bf f417 bbbf
00000760: 2f2f 3589 5559 c9bf daff 415f f98c c2bf
00000770: 43ba 97da cadd c23f 608f 7b37 5379 c63f
00000780: 2d58 f59e 74a4 d5bf 4d48 ad62 c279 cf3f
00000790: a3d7 900f 45ef bfbf 672b add3 7e6c cd3f
000007a0: 540b a58c 48ca cebf 134b a5b8 d86b d1bf
000007b0: 1e84 8537 e4fa b43f 8e8d f22b 7191 d63f
000007c0: 66b5 e551 3344 943f f1c4 537f 31f1 d6bf
000007d0: 600d 3e88 a0cf c8bf 614a 8bab 8abb b7bf
000007e0: 7836 1688 f324 d0bf fc3a 85ae f693 a83f
000007f0: 972d 0fee 2b41 ba3f 2b9b 564b e8c6 cc3f

bias f8 [64]
-0.2788724670529865 0.4634212936434164 -0.08549937905259775 -0.7999078610791766 -0.7321219854758008 0.4493121104352809 0.6168785761401812 -0.7375844590401097
-0.7459091860624673 -0.4738205736640607 0.40678881928464694 0.34900788734924004 0.5277783986643138 -0.07959734434847991 -0.5011720348598739 0.551094831995521
-0.640354571930316 -0.6946523787713319 -0.5555582091303519 0.49076809887419254 0.21797493203363447 0.12436714930405757 -0.7008264715844779 0.43430671423338607
-0.41901253109728354 0.6853562245837082 0.5671762705215703 0.4782023301441781 0.6750496170262908 0.36082096052467416 0.6405637425586154 0.5382136443528415
-0.7205524930056869 -0.41184059910355975 0.62719968220353 -0.6131199343036303 -0.21684681900516475 -0.6181898046103862 -0.595531012105045 -0.5861557438320169
-0.38492168407446736 -0.10948960002773338 0.7069426436545313 0.18224265267957 0.434075006452846 0.5303345058185415 -0.6100722076575991 0.633715048679973
-0.5948693635710902 -0.6724136359821808 0.7347976152207057 0.6523291885387335 0.6579469724888465 0.7536491083982748 0.7040530361292573 -0.6992543205852829
-0.32300959334285373 0.406017568179138 0.5940129862461923 -0.7120368145867352 -0.6137024283222791 0.7117301123438456 -0.38000526674404145 0.6200869611420516
00000000: a4d5 6fe7 0bd9 d1bf adfb 1dc9 b1a8 dd3f
00000010: 80f5 db8c 49e3 b5bf 7cbf e45e d898 e9bf
00000020: 08a3 0916 8b6d e7bf 990a 0195 87c1 dc3f
00000030: 0401 c423 78bd e33f 16af 33b9 4a9a e7bf
00000040: ab93 fdf0 7cde e7bf 4ac8 0387 1353 debf
00000050: 502f cdf8 d308 da3f a681 8d2d 2556 d63f
00000060: 218d 3986 8fe3 e03f 733e d3d6 7d60 b4bf
00000070: e392 6cef 9909 e0bf c54a 0da1 91a2 e13f
00000080: f91c 09df c87d e4bf ce2a 1da0 973a e6bf
00000090: 72a7 6702 22c7 e1bf 916c a599 be68 df3f
000000a0: 0b55 3742 9ae6 cb3f 482a f586 86d6 bf3f
000000b0: 840b f4a2 2b6d e6bf f832 8463 aecb db3f
000000c0: 3a54 6bef 19d1 dabf 4c4e 562d 70ee e53f
000000d0: f7a2 9ed9 4e26 e23f 7ec6 35f2 dd9a de3f
000000e0: 8fc4 89a7 019a e53f cc8b 4acc b017 d73f
000000f0: 1d5d a988 7f7f e43f ab34 18d2 0b39 e13f
00000100: 9b57 101a c40e e7bf 4626 14ac 985b dabf
00000110: 2e06 6411 0512 e43f 2983 4bb2 ad9e e3bf
00000120: 4b35 eff5 a2c1 cbbf 2eb6 30fc 35c8 e3bf
00000130: 9ed6 970d 970e e3bf c6df c3b0 c9c1 e2bf
00000140: ccbf 278f 8ea2 d8bf 4b09 5fab 8207 bcbf
00000150: 999b d42d 469f e63f 11f7 982c ba53 c73f
00000160: 2c76 2e89 e2c7 db3f 67ca cd11 80f8 e03f
00000170: 26d0 8226 b685 e3bf 7408 22c8 6447 e43f
00000180: ecc3 bd79 2b09 e3bf 7cb1 fd99 6984 e5bf
00000190: b7a7 d149 7683 e73f a400 6076 e1df e43f
000001a0: 16f0 2acf e60d e53f 625d 27bc e41d e83f
000001b0: ab63 9a3b 9a87 e63f 0304 d098 4a60 e6bf
000001c0: 8eea ec6d 30ac d4bf 0393 3b1c 31fc d93f
000001d0: 4674 aa85 2702 e33f 5f56 066e 01c9 e6bf
000001e0: d1d6 6346 73a3 e3bf 110c 833a 7ec6 e63f
000001f0: 6c4c 3e9c 0152 d8bf 0eff 589c c0d7 e33f
