models/model6.pkl (torch_old, 81502 bytes, 18 tensors)

action_log_std f8 [1, 1]
-0.36820090678750056
00000000: 89a1 4089 9a90 d7bf

weight f8 [64, 4]
0.24812046578329075 0.5693394767715725 0.19840727391472016 -0.10456053880621542 0.14626222925238108 0.5608811558411816 -0.14748739518136184 0.21020206173998598
-0.22811877242108106 -0.18360987698899509 -0.34478900290555786 -0.28082633341872226 0.23461216179870856 0.43477732227232085 0.41338761251345674 -0.25693025013605836
-0.11095796017928768 0.1271998436926697 -0.18347247732172148 0.14769648406658734 -0.0999611447928252 0.4774842896096966 -0.1927227231247674 0.45198741258166186
0.41655727977638757 -0.017607351107294385 0.05458006741325461 -0.3228700645501615 -0.21474348084309422 -0.0511358142396733 -0.23566767176672646 0.12067367925540244
0.16188939557048576 0.015018385909387312 -0.09486106992152414 0.330952012846637 0.02801392295881872 0.1264941898763605 0.29479434206905764 0.20046604930788375
-0.16408934530988453 -0.38902439947478246 -0.006482976591709432 0.16517208862778904 -0.32257880875337874 -0.20119187162706081 -0.06954107612952558 -0.4856091927383412
0.10939110728710918 -0.07676628562284972 0.09435677243026015 -0.027476217839767825 0.4037672088908168 0.61782831715243 -0.16116514002901122 0.03710517005925716
0.17099031163025996 -0.1381013800276952 -0.007263254412520576 0.08781401472296792 0.26363176940265537 -0.230364130007483 -0.09144608899891675 -0.2597836872264227
-0.3568694671868805 0.10299329914687018 0.21727270862970058 0.20938432795750272 0.10347407080201557 -0.1649352869792158 0.11913165130611433 -0.15708389810434567
-0.23568649959556576 0.0043363171740472975 -0.02872021018804178 0.11292988320748716 0.3762589733533928 -0.14915904807670377 -0.0019294479156577247 -0.3300881905343486
0.592154309373122 0.31672860425736876 -0.3818252620043468 0.18604634081229365 0.28592369152047875 -0.19337353667366755 0.10898918486751186 0.11826803423602449
-0.41455244582214795 -0.17657376685369813 0.13098614918285162 0.22896997255819018 -0.11401313689018737 -0.5566390692491 -0.013649114761812877 -0.21852436041220608
-0.34108099652370133 0.3522580488713596 -0.04208004485840013 0.19348868022962734 0.11990766171791367 0.5510459650081487 -0.06994697277618989 0.019387315032220177
0.012821766776700931 -0.24809777601107058 -0.0484357299497968 -0.10230238167737833 0.2720850500133262 -0.0506441267233972 -0.009179885243732788 -0.12780258469746866
-0.05379229176941886 -0.3879473866489113 0.12153126281605761 -0.12085520725687297 0.03288664490484853 -0.4067304235289941 -0.18454970894877065 0.13711991205169086
-0.08621619038776224 0.27040936610686045 -0.10326951014315607 -0.1095181271600877 0.1624740856397191 -0.2818523347164872 -0.11656166660011208 -0.13112551981589296
-0.44080828148366386 -0.09626622718605259 -0.10026836608183023 0.2725339341280567 0.25210184285188436 -0.28312269807273543 -0.16350360617229934 -0.32553202871096854
0.030816264561135464 -0.2609719904438316 -0.3483109809703087 0.07045385765008333 -0.2276554996473127 0.09058719216039612 -0.035892102677250716 0.16079228510751145
-0.01109665914361505 -0.3284524678223569 0.22824110778790974 0.2560198793847997 0.38241912543613155 0.26312081253180913 -0.03208552414666746 0.08266894719131054
0.15544855578565883 -0.12621533501210058 -0.11831771187306776 -0.33090017886437145 -0.020107932908043274 -0.3060462643329318 -0.1955636298292519 -0.07174623952939788
0.07800870181988086 -0.2976285537986394 -0.18235339878123652 0.22069488625796993 0.04177659511672858 0.555042080566548 0.08264301149617005 0.18048262603024393
0.10067342261312189 -0.44824499344982377 0.2379756503488952 -0.3224020837702061 0.5294490752221853 0.12937741529164964 0.23077205580745336 0.6419270852345301
0.453420252433528 -0.07582996719387747 -0.03468435866605759 -0.3253753039939406 -0.17407882353291615 -0.2385068012401151 0.14787318827330767 0.13541078809162777
-0.22700601339331938 0.31049676112996655 0.13389119581783235 0.17330925287959628 0.10221876084548806 -0.10626964631252629 0.24924352541187703 -0.09851867725972145
-0.3163010547405355 0.5208582424321992 -0.13614229729850552 0.5586387819572489 0.04875966050382252 -0.19606163964626697 -0.08403092077646547 -0.013634874218122484
0.2833094589227945 -0.412667555834046 -0.132954489573045 -0.307335874000544 0.22537088462903176 -0.3158047512523224 -0.13985751969063132 -0.16606946667317962
-0.029390492844587206 -0.15559943452342864 -0.15563676595546427 0.11216504784715678 0.421516584187599 -0.04946023690472738 -0.048064117306357894 -0.3308857054193893
-0.11104359402774622 0.18503271618269795 0.14570028452801 0.3172855528088673 0.27343952606852645 0.062108774177569534 -0.013501711631794108 -0.33524707408725923
0.17895016589342558 0.480466173055965 0.01990768006039573 0.14689011203416935 -0.29912163942810416 0.0681043816294799 -0.19735962950529606 0.033711758350273076
0.2372303658801003 0.2475155957703764 0.06382048966545494 -0.07607282323014555 -0.25784909937710054 0.0012224095720860533 0.09710205350582783 0.11491758225197075
-0.154787057072023 0.45033171147721235 0.027342682493985002 0.4134830449513758 -0.34008363481454973 -0.3662121349185896 -0.008268477803049146 0.2530520594302393
-0.013047170067613415 -0.4470760290184968 0.015430604920084433 -0.12581776344064086 -0.1906340273756942 -0.03317267866382143 0.047859698958460865 0.28665428100203355
00000000: 71f6 0053 69c2 cf3f eec7 216c 0738 e23f
00000010: 4d49 60d8 6865 c93f 21f5 9fbe 7ac4 babf
00000020: 4cb7 a381 b8b8 c23f 4dfa a809 bdf2 e13f
00000030: 9226 70f1 dde0 c2bf 37cd 5cb2 e6e7 ca3f
00000040: 9d7b 93f5 fe32 cdbf e7f5 7148 8780 c7bf
00000050: 0dfd dfe4 0511 d6bf 71e5 7803 0ff9 d1bf
00000060: 13ac 1575 c507 ce3f b9ee 0c43 64d3 db3f
00000070: bb46 1451 f174 da3f 83ff 6b93 8b71 d0bf
00000080: e56e 33aa bd67 bcbf a5b0 5ba0 1548 c03f
00000090: f50c e8b0 067c c7bf 396c 66e8 b7e7 c23f
000000a0: fc82 c1b7 0d97 b9bf 5e8e 0e44 1a8f de3f
000000b0: 0e2b 8260 23ab c8bf 3c7b cf9c 5ced dc3f
000000c0: 3a38 63dd dfa8 da3f 1f38 b354 a907 92bf
000000d0: c057 1b29 ebf1 ab3f 2d6c 0634 e7a9 d4bf
000000e0: 9309 a0e1 b67c cbbf f2a0 a033 792e aabf
000000f0: ed34 7bb7 5b2a cebf 93d3 e361 78e4 be3f
00000100: 54b0 c5ad cab8 c43f 8163 8ea2 f5c1 8e3f
00000110: ebfc f9a8 d048 b8bf f82f ee59 512e d53f
00000120: 715e c38b aeaf 9c3f ef94 532c f630 c03f
00000130: 4ae0 8e16 e9dd d23f e62a de1a dfa8 c93f
00000140: 452f dd31 e100 c5bf 55c6 4598 c6e5 d8bf
00000150: 3ff2 12c7 e48d 7abf aa26 6fe7 5b24 c53f
00000160: 1c9e 7e96 21a5 d4bf 1efc 6dbe a7c0 c9bf
00000170: 2b78 b4a7 71cd b1bf 43ae 5c94 3814 dfbf
00000180: ee77 453c 0e01 bc3f 317f 2f8e f4a6 b3bf
00000190: 257c bef3 c327 b83f 3d86 28c4 b922 9cbf
000001a0: 4f87 586b 52d7 d93f 01cc 16e4 3fc5 e33f
000001b0: c605 d72e 0fa1 c4bf ae84 d5e7 72ff a23f
000001c0: 9e41 31b2 02e3 c53f 7b2e 6057 4ead c1bf
000001d0: c7fc a002 13c0 7dbf 9998 5db1 fa7a b63f
000001e0: 5d58 f1c8 57df d03f 67dd 4662 927c cdbf
000001f0: abf2 98c9 0269 b7bf 6bfe 2ac2 4ba0 d0bf
00000200: da8c a008 f3d6 d6bf e9fe 8ad3 c45d ba3f
00000210: 0f5f f094 97cf cb3f 38ab 6f0c 1bcd ca3f
00000220: 1a22 14d6 467d ba3f 111c c477 991c c5bf
00000230: 863a 4772 697f be3f e10d 8b3e 531b c4bf
00000240: f492 efa7 f92a cebf b16f 2947 f5c2 713f
00000250: d2b0 f7ad d468 9dbf 8d04 1e0b f9e8 bc3f
00000260: 6547 5884 a014 d83f e82a b2c8 a417 c3bf
00000270: a30b 9dec b09c 5fbf 9703 c937 2a20 d5bf
00000280: 432d 1e98 edf2 e23f 5d8f 3f0d 4845 d43f
00000290: 6919 4639 d36f d8bf 9025 aad2 5dd0 c73f
000002a0: e3d9 0ee2 924c d23f e16e f6cb 76c0 c8bf
000002b0: 48a8 9f18 b7e6 bb3f 0fb8 345b d046 be3f
000002c0: a51b 52fb 0688 dabf beec fb1c f899 c6bf
000002d0: d612 7c75 27c4 c03f 10a4 f357 e34e cd3f
000002e0: 53fa 4106 f72f bdbf 7539 c3bc fccf e1bf
000002f0: ceb2 2b2c 11f4 8bbf 5ac4 ac32 9bf8 cbbf
00000300: 0bcf 5663 45d4 d5bf c4ef e957 658b d63f
00000310: 134b f600 848b a5bf f6c0 ddb0 3cc4 c83f
00000320: f846 9ebd 44b2 be3f 34b0 c925 2ba2 e13f
00000330: f026 8778 0be8 b1bf 4d21 15b0 44da 933f
00000340: dcea dc67 4c42 8a3f d2c4 16fd aac1 cfbf
00000350: 5b3d 2f68 91cc a8bf b574 9b27 7d30 babf
00000360: ab6a e269 d769 d13f 7adf 05e8 06ee a9bf
00000370: 7311 3957 e7cc 82bf d158 cfc8 d55b c0bf
00000380: f963 dacb a98a abbf 8b72 8e46 21d4 d8bf
00000390: 6e8e 3c3f ac1c bf3f d335 b8ea 5df0 bebf
000003a0: b5d7 aeb0 84d6 a03f b718 d60a df07 dabf
000003b0: c8ec 352a 539f c7bf 713a f230 258d c13f
000003c0: dce4 19a6 4312 b6bf f381 fd15 634e d13f
000003d0: b521 bde0 de6f babf 59c4 7846 6109 bcbf
000003e0: 8892 226a f3cb c43f d025 fa5f de09 d2bf
000003f0: ccc5 0342 fcd6 bdbf 91df a395 b8c8 c0bf
00000400: a5cf 31f0 3336 dcbf df30 7949 e7a4 b8bf
00000410: b212 2509 30ab b9bf 8e55 882b 3271 d13f
00000420: e7d9 93c4 6f22 d03f 5392 3eaa ae1e d2bf
00000430: 1de0 a4a8 afed c4bf 1e4e 474a 84d5 d4bf
00000440: 135c e681 4c8e 9f3f c335 08dd c3b3 d0bf
00000450: d9ba 0624 ba4a d6bf 14f1 7b96 4309 b23f
00000460: 0cb0 debe d023 cdbf 38ef c3e3 b830 b73f
00000470: 3def 5d1e 7360 a2bf f930 fe72 d794 c43f
00000480: 13f9 ee60 d8b9 86bf d999 e57f 5d05 d5bf
00000490: 1ca4 c62e 0137 cd3f 5d59 4534 a162 d03f
000004a0: 243d 4711 8e79 d83f f725 2ead f8d6 d03f
000004b0: d418 c589 836d a0bf 96d8 94c8 ca29 b53f
000004c0: b7a8 a7ff bce5 c33f 54b9 10f8 d227 c0bf
000004d0: db49 08cf 114a bebf 37a2 9df1 772d d5bf
000004e0: a8bb eb88 2c97 94bf d0dd 1712 4396 d3bf
000004f0: 04ac 33a1 3a08 c9bf 6ac6 6328 f65d b2bf
00000500: 79ab 1ed7 60f8 b33f 90f0 3aa2 580c d3bf
00000510: c238 0a2e 5b57 c7bf 7bab 6fe3 ba3f cc3f
00000520: 5d77 87eb bd63 a53f e5fc fd9b e7c2 e13f
00000530: f176 9ea7 1728 b53f 79e6 2500 0e1a c73f
00000540: 8322 b3c1 bbc5 b93f 539d ddc4 0bb0 dcbf
00000550: 3f15 bf71 fc75 ce3f 6f23 7d59 3ca2 d4bf
00000560: 5f41 df2f 3ff1 e03f fa62 c26b 708f c03f
00000570: 9208 4350 f089 cd3f 15f7 afab aa8a e43f
00000580: c4f2 e260 d604 dd3f 788a 27bd 9769 b3bf
00000590: 3391 4ef4 25c2 a1bf 431f 65f0 f2d2 d4bf
000005a0: fc00 0003 3748 c6bf 3b95 990f 6487 cebf
000005b0: dd67 cb35 82ed c23f 4087 3005 2455 c13f
000005c0: b883 c275 880e cdbf dd4b a4ce 2ddf d33f
000005d0: 1f45 a1c1 5823 c13f c724 9b62 ff2e c63f
000005e0: de77 de3a 022b ba3f fd43 78cf 7c34 bbbf
000005f0: f11e 313b 36e7 cf3f bb2c e020 8538 b9bf
00000600: 0a42 73c7 463e d4bf 9025 a3e7 deaa e03f
00000610: 06ec 3f5d 1c6d c1bf bc13 5970 5ee0 e13f
00000620: e0b9 74b6 06f7 a83f 03f3 233d 8c18 c9bf
00000630: 9972 96e8 0c83 b5bf 00b6 d0d6 99ec 8bbf
00000640: 8922 2eff bd21 d23f dc5b 1b2e 2569 dabf
00000650: 004b 4918 a704 c1bf 0f13 ee15 64ab d3bf
00000660: 54e4 7901 f4d8 cc3f 7d35 a321 2536 d4bf
00000670: 48e1 95e8 d9e6 c1bf 26dc 1ca8 c341 c5bf
00000680: 8bc3 5296 8a18 9ebf a9f0 46a9 aeea c3bf
00000690: 10be ead1 e7eb c3bf 1200 423c d9b6 bc3f
000006a0: edab f3b1 20fa da3f 569b ea27 da52 a9bf
000006b0: a742 e227 dc9b a8bf e55e df3c 3b2d d5bf
000006c0: 688b c75c 5a6d bcbf 2aed 58ec 26af c73f
000006d0: c968 8892 4ea6 c23f e2ab 3310 684e d43f
000006e0: d379 797f 0880 d13f 8e4d c6a3 b8cc af3f
000006f0: eb49 300f c9a6 8bbf b734 d224 b074 d5bf
00000700: ff21 10cb d6e7 c63f 7104 0731 f5bf de3f
00000710: 51cc 31cb ad62 943f bc71 a591 4bcd c23f
00000720: b7a7 b716 cf24 d3bf 7c1b d0eb 496f b13f
00000730: 7451 2391 1443 c9bf c1cc 35e7 aa42 a13f
00000740: d15c 898b 905d ce3f 6cb7 8a4e 97ae cf3f
00000750: 9786 ed23 8a56 b03f 124b e32f 8279 b3bf
00000760: 402c 4882 9980 d0bf 8273 9a48 2807 543f
00000770: c395 2e20 aedb b83f 5df2 8119 3d6b bd3f
00000780: 54f5 fbf1 0fd0 c3bf 8d5d 4919 3cd2 dc3f
00000790: 29e5 625c b8ff 9b3f e810 e196 8176 da3f
000007a0: 28bb 5b26 eec3 d5bf 68ea b705 0570 d7bf
000007b0: adae 034e 10ef 80bf 890d dc43 0132 d03f
000007c0: a24b f785 79b8 8abf 7d70 ddc6 e49c dcbf
000007d0: cc00 eabb 149a 8f3f 9be0 9de5 cb1a c0bf
000007e0: 0bac 8a20 b266 c8bf 6db2 f663 02fc a0bf
000007f0: 8f5f a503 1181 a83f 4f60 8a32 8b58 d23f

bias f8 [64]
0.1518309568373505 0.5481913131041458 -0.11714244824912756 -0.4343449825372325 -0.6197826179549624 0.3205510433900444 0.5621575695026354 -0.6486420760130263
-0.5487052951789841 0.1601234397204469 -0.31170195986504423 -0.040702636325338055 0.33950060661702935 0.38526807530615587 -0.43693666650960145 0.30532979296362417
-0.49213687070957296 -0.7085959936173409 -0.5063050116022569 0.2952299627066785 0.3407095770910982 -0.26143563260489655 -0.7084747097021609 -0.1763091845885157
0.09644754570395449 0.8174302608134654 0.2952952225911331 0.33894441903615957 0.5182151260193336 -0.06448204812352182 0.6856656214372925 0.16572603652721704
-0.7722904409682799 -0.46287245514165515 0.3891122717836266 -0.4459260665996098 -0.34271397497227135 -0.3710717382041868 -0.6108839399293506 -0.6603758730369667
-0.46098548318744004 0.3404673440119662 0.3446694615549545 0.24367644957581458 0.3041131420811494 0.31572432453061755 -0.3082482007728744 0.4728062113194208
-0.16554039323748823 -0.7634285522982744 0.4362819879008933 0.3175216839548447 0.4716249502940098 0.7008057907194192 0.7654158529438633 -0.6036643578372257
0.21706313544035047 0.38048227001537344 0.6454620476746957 -0.711756190404887 -0.17154736302551113 0.5126027533072837 -0.5259972175218138 0.5629336628992406
00000000: ed82 1161 326f c33f ac79 3782 c88a e13f
00000010: 6810 3428 0cfd bdbf 7476 cbe5 4ecc dbbf
00000020: cedd 575b 42d5 e3bf 4fc5 0386 e883 d43f
00000030: 29ce 06df 31fd e13f c422 e906 adc1 e4bf
00000040: c6f1 3d68 fe8e e1bf 760f 76c4 ec7e c43f
00000050: ca0b eec6 ecf2 d3bf a9b1 c1d7 f9d6 a4bf
00000060: 7b1b 99c0 60ba d53f df7f e86d 3ba8 d83f
00000070: 6f3f 4535 c5f6 dbbf 627c d1f8 858a d33f
00000080: 0b9e 36a5 2b7f dfbf 2638 5581 d1ac e6bf
00000090: 363e 5491 a633 e0bf 8bf7 a736 0ce5 d23f
000000a0: 9593 c28a 2fce d53f b803 0385 5cbb d0bf
000000b0: 10d8 8627 d3ab e6bf 9a63 e5a2 4c91 c6bf
000000c0: 85f4 934e c9b0 b83f f48b 9e81 6328 ea3f
000000d0: cb69 ecee 1de6 d23f 7602 bbee 43b1 d53f
000000e0: 3375 51e3 3795 e03f b49f de3f e581 b0bf
000000f0: ec11 8207 f9f0 e53f df73 7dc1 8236 c53f
00000100: 1b1c 5f71 9ab6 e8bf 635e 43ca b39f ddbf
00000110: b01b 7228 37e7 d83f e7ab 1e7c 0d8a dcbf
00000120: 1bd6 9898 06ef d5bf 88a3 03ad a3bf d7bf
00000130: f8bd f479 5c8c e3bf ea5b 3895 cc21 e5bf
00000140: cc21 8e41 c980 ddbf c6ca f88a 37ca d53f
00000150: cabd 5380 100f d63f e0e3 dd36 ca30 cf3f
00000160: fd6d e1f7 9676 d33f cb48 1acc d334 d43f
00000170: 9cb3 57a9 56ba d3bf de9a bdfb 7442 de3f
00000180: 6b9d 8f77 6d30 c5bf d484 1eb7 016e e8bf
00000190: a990 7749 0bec db3f 8cd7 1678 4652 d43f
000001a0: ad62 5f6a 1a2f de3f 2c98 ff43 006d e63f
000001b0: 9a7b 0763 497e e83f c77e 55ea 3751 e3bf
000001c0: 4f17 f18d b9c8 cb3f b120 9b4e d259 d83f
000001d0: ea4d 3206 a0a7 e43f 1a77 10eb b4c6 e6bf
000001e0: 196e f494 43f5 c5bf 3a6b a9e3 3d67 e03f
000001f0: cd61 e11d f8d4 e0bf 0108 ff74 8d03 e23f

weight f8 [64, 64]
-0.018862557057163575 0.16652456316900202 -0.07037642080116509 -0.14694752563161662 -0.20973774851107685 0.101220291901882 0.23415403764094875 -0.30205738999434745
0.004257769351219659 -0.06692881459538787 -0.09269617442882909 -0.029341514840039485 0.2748850634907977 0.042411030074712246 0.0034975014260943313 0.2686089211654192
-0.09257794266331311 -0.2358222477304318 -0.2981805380164395 0.0706502622520443 -0.02372799536580027 0.04525481255473464 -0.23795827967880853 0.06694998360103631
0.05995515874741204 0.16906088745539785 0.12540798220146107 0.24942096351883486 0.20277230845832708 0.1266462357589612 0.11492428435269164 0.16511890489652647
-0.22227915682432295 -0.12325527945197877 0.05315765114731292 -0.14216684650967068 0.04945103710464407 0.001654419255529062 -0.04470009126022498 -0.04129563579483383
-0.1669954407315383 -0.07185952508921525 0.20746434673618738 0.050154279491084516 0.31097286388423345 0.11616086085515592 -0.19730642940500717 0.11497023349374122
0.0029579092906975237 -0.1386030452449243 0.1702235130568779 0.05744961049784445 0.04859214734322303 0.3133280530551497 0.12137178042058279 -0.16785863016043048
0.09201908404872844 0.1605343747741307 0.05761415374587449 -0.1598287364996214 0.011993608110008065 0.17814446106341889 -0.07363664823253313 0.07978013005027386
-0.0959377688429947 0.03716987771603373 0.06820173564763395 -0.19630422295792252 -0.10128690290572358 0.1521566141643429 0.2749552526283789 -0.05561424045991842
-0.015330431850022896 0.12607267059963895 0.0207906456216052 0.14458439940579992 0.28208165522503004 0.042399533537961 -0.08191428782367721 0.13853728933286674
-0.10734249219824452 -0.07688838975786477 -0.13214253265588125 0.15246244644495724 0.10162044193534601 -0.05708158684833492 -0.17315841418720704 -0.03422577335207481
0.012641252673555946 0.0378545344573436 0.03174755199837047 0.18474757308865608 0.21623390183639102 0.08863942490240555 0.03395769080652257 0.025482495511524407
-0.09985477239170593 -0.11634201362720416 0.1277708224385415 -0.15749792258017611 -0.013432548525656661 0.015971326213749977 -0.22185353759530213 -0.15080498110543641
-0.0923328394596632 -0.09891119042320785 -0.03617910499843836 -0.04631012722809437 0.10088655258904049 0.246920325208715 -0.1786067618829941 0.22312404272276973
0.03023733698845529 0.00241414676719555 0.04443048105507184 0.1001525294294506 0.16224893741098217 0.19853077600818672 0.21567853794950642 -0.20176334100132565
0.04435528220013891 -0.038079959443465004 0.1284361304812257 -0.06892820323736829 -0.07651192065380767 0.07881984319866375 -0.12568395846913122 0.2616395736454215
0.09985218876461559 -0.08959428055530715 -0.060005889536357666 0.06784044900858063 0.17690283042364818 -0.09690731309884905 -0.15537496495060113 0.06738147601220522
-0.02691901789915693 -0.15828004578788163 -0.07815627843517825 0.015073586221811947 -0.27476074757611807 -0.05591038283209995 0.09279037671957634 -0.0330598679012824
0.2006613282952882 0.11910777942073006 0.21354445332696342 -0.245402628024136 0.0008201230976785647 -0.06774009015388073 0.15107124916485007 0.03426468850375987
-0.031093117489675495 -0.063754509436409 -0.0007908935516374446 -0.04510383401211027 -0.11934673971514163 -0.11019297102842138 -0.10082257810463675 -0.11454574157954814
0.1446951093210799 0.040459952272338465 -0.16405436410959845 0.25688156863121586 0.0131745657305244 0.04056277820257007 0.06389738652572974 0.10317992719676575
0.10302417819894852 -0.048304926926981524 -0.058517405096856746 0.09255038468678495 -0.06387466474015194 -0.029555663481664465 0.042471870096041905 -0.24880817863936494
0.10518195774759662 0.1718650313459173 0.013524489646104008 -0.08326018934100318 -0.17198376253449701 -0.12024570407851574 -0.17555939061042383 0.21822597189180182
0.022667805088216544 0.08743942446855169 -0.023404596784292915 0.14739841777750848 -0.013917358562773431 -0.161620737158714 0.03420616408355416 -0.2447080251759464
0.3569292433775327 0.08898757376834582 0.09929138491908523 0.024335393116125648 0.026729981674977202 0.2251144347103357 -0.052829936903482116 -0.17623044823498352
-0.06710205679153759 0.04633513700288164 -0.30842908481258424 0.12930675966794702 0.10488334452187056 0.3486480446761458 -0.08189221467683354 0.06632341818251426
0.03245480861626607 -0.12836396801922031 -0.06670473701026852 -0.15962939100528323 0.13430335229133014 -0.3638735613305014 -0.1222607036688768 -0.3553059411471219
0.2310475422839221 0.37955102485854036 0.018897630723089805 0.08528441622099928 -0.015217503767524496 -0.2980235771116392 0.27873567307992553 -0.23898851528997428
-0.1898305822220848 -0.2500441344883058 -0.06898466670076686 0.03566425415879637 -0.3767629774946203 -0.09692152523849451 -0.07366781182363433 -0.20026694744681797
-0.3221447916577416 0.4267957224322107 0.020443240238433965 0.02931119361360973 -0.005619740856633741 0.04894196221945578 0.06781153117457007 -0.04608900171393418
0.17123264072078487 -0.238848345344347 0.06594046438528689 -0.029719584524922554 0.06934845056153667 0.16058553948117402 0.21995222622092356 0.061244721527053424
0.12525779320441507 0.2791723944850758 0.10569116416509118 0.0051316249126662425 0.010180244341024044 0.10310075971882657 -0.24516297712012416 0.15274751256638264
00000000: 26c2 b7c6 b450 93bf 8151 6548 ad50 c53f
00000010: 4523 c069 3004 b2bf e86f 6830 2dcf c2bf
00000020: 64be 4bc1 afd8 cabf 0a00 69b3 92e9 b93f
00000030: 0f76 f26e c2f8 cd3f 1f9d e284 e854 d3bf
00000040: 60de e041 9870 713f 9de4 d82d 3f22 b1bf
00000050: 93d9 a2bd efba b7bf edbd 9cba b30b 9ebf
00000060: df84 7685 b797 d13f 1f35 5206 e6b6 a53f
00000070: 6bec c4c7 caa6 6c3f b36f f478 e330 d13f
00000080: 81e4 1124 30b3 b7bf ecf0 d564 6c2f cebf
00000090: 0c65 c5d2 6315 d3bf e88b d3b5 2216 b23f
000000a0: bd0c 62d0 264c 98bf 1282 d187 a32b a73f
000000b0: 3336 84ba 6a75 cebf 7fc0 0856 a223 b13f
000000c0: fade 174c 71b2 ae3f 79ab 5383 c9a3 c53f
000000d0: 4f37 1b67 5e0d c03f b606 a0b0 06ed cf3f
000000e0: c974 ae68 71f4 c93f ed84 5fa0 f135 c03f
000000f0: b09e cf8a ad6b bd3f 68af 3dc4 9d22 c53f
00000100: 474b 92b6 a473 ccbf 1f3b 4e72 a88d bfbf
00000110: 2976 6bca 7a37 ab3f 7bd0 2af2 8532 c2bf
00000120: f346 3c76 a551 a93f 07ed 2a26 231b 5b3f
00000130: 0c88 2e2c eee2 a6bf 2ba5 699a b324 a5bf
00000140: bdf3 424a 1b60 c5bf aa0d 2ac6 6265 b2bf
00000150: e7b1 2814 318e ca3f 7e59 565c d2ad a93f
00000160: 27e1 14ba fae6 d33f c4b6 72da b7bc bd3f
00000170: 8be2 ca4a 5641 c9bf 7e7d de70 b06e bd3f
00000180: 31ea 6075 2f3b 683f 89fa 399d bebd c1bf
00000190: 6175 cb52 e2c9 c53f 0d2a 830c 096a ad3f
000001a0: eff4 5ce7 11e1 a83f 5da3 321b 910d d43f
000001b0: 654e 9093 3812 bf3f e5f8 713f 647c c5bf
000001c0: bcdf 980c 908e b73f 15f4 c4f0 638c c43f
000001d0: 5a20 4034 9a7f ad3f 410a 1d9e 4475 c4bf
000001e0: 0a8a bfd4 1a90 883f 198f 1d0d 70cd c63f
000001f0: 081f f2f3 d9d9 b2bf f1c1 6f79 786c b43f
00000200: 3bc2 a1ab 608f b8bf 0d95 5f22 ee07 a33f
00000210: 1514 2340 ab75 b13f 55e2 d52c 7f20 c9bf
00000220: 0543 7e3f f0ed b9bf 585c da30 de79 c33f
00000230: 5fbf 79ea dd98 d13f b838 ef3f 7879 acbf
00000240: f36b 6fbb 8f65 8fbf ca89 9236 2623 c03f
00000250: 4eb3 079c 244a 953f dcd7 7ad9 bd81 c23f
00000260: 288e ff36 a00d d23f 8088 d243 64b5 a53f
00000270: 841f 47b3 55f8 b4bf 0a07 7b03 97bb c13f
00000280: a66c 762d cc7a bbbf d4be 731f f5ae b3bf
00000290: a374 15e8 0bea c0bf fdb3 acb2 e383 c33f
000002a0: 17a6 b71a cc03 ba3f b84c 6f39 cc39 adbf
000002b0: 1d0b fb0e 0e2a c6bf e576 7462 0a86 a1bf
000002c0: 6cd5 8136 a8e3 893f 08cb ff66 ab61 a33f
000002d0: 5643 1f13 3741 a03f d82f 37f8 cea5 c73f
000002e0: 383e 5670 8dad cb3f 8b92 17c7 12b1 b63f
000002f0: 3263 ec06 e762 a13f eaae 5e53 1518 9a3f
00000300: 489b c515 1590 b9bf 1dfc ad17 97c8 bdbf
00000310: ead6 e057 cb5a c03f e3bb 5555 e428 c4bf
00000320: b9ff f424 8682 8bbf 4216 0c8f c95a 903f
00000330: 28a3 3c5c b265 ccbf d1fb f5de 934d c3bf
00000340: 7079 d3fd 1fa3 b7bf b17b 1368 3e52 b9bf
00000350: a29f 8851 1186 a2bf c226 d603 f6b5 a7bf
00000360: 8be2 f97b b3d3 b93f 559b bed0 159b cf3f
00000370: b9e2 901c 96dc c6bf 8309 3921 548f cc3f
00000380: d726 ef55 89f6 9e3f 220f 362d d5c6 633f
00000390: 2d77 278e 97bf a63f e6db 829e 98a3 b93f
000003a0: 72d6 febb 92c4 c43f 6932 1adb 7469 c93f
000003b0: d49a 78b5 5a9b cb3f 24f2 9093 61d3 c9bf
000003c0: 59ad e84c bcb5 a63f 13a8 e268 377f a3bf
000003d0: e454 055a 9870 c03f 9a31 ad5a 47a5 b1bf
000003e0: 1356 f604 4996 b3bf 7069 d088 892d b43f
000003f0: e2dc a075 6916 c0bf bf5f 09e9 b3be d03f
00000400: 3394 2dbd e98f b93f 0fc9 e498 a6ef b6bf
00000410: f188 408a 17b9 aebf ae7a d6dd fd5d b13f
00000420: c0a4 9e7f c0a4 c63f c9b6 80ec eace b8bf
00000430: b93c 8aac 53e3 c3bf 1721 d493 e93f b13f
00000440: b7bb 11b6 a890 9bbf c658 2242 8542 c4bf
00000450: 582d dbc3 0c02 b4bf aa54 d97e e6de 8e3f
00000460: 9117 441a ae95 d1bf 649a 8a23 49a0 acbf
00000470: bfe3 6431 1cc1 b73f a865 e416 39ed a0bf
00000480: c6d2 4c39 45af c93f f2ab 4ff1 d87d be3f
00000490: 6608 a4b5 6c55 cb3f bba9 db72 5a69 cfbf
000004a0: f878 0df1 b0df 4a3f 51c9 d61f 6a57 b1bf
000004b0: f1b2 437d 4d56 c33f 6203 1029 248b a13f
000004c0: 67d0 feca dfd6 9fbf 857c 002d 3752 b0bf
000004d0: fde0 2df8 7eea 49bf 1030 0388 d917 a7bf
000004e0: 37f4 f507 828d bebf e6ee d046 9b35 bcbf
000004f0: ed66 a82b 82cf b9bf 22f0 faa5 de52 bdbf
00000500: 656c 368d 5e85 c23f 7265 9db7 2ab7 a43f
00000510: 5af3 4ec0 bbff c4bf 11d7 0d64 bf70 d03f
00000520: e6e2 9c47 44fb 8a3f d53f a1fb a4c4 a43f
00000530: 9089 6d41 945b b03f d2ec e9ec ff69 ba3f
00000540: 82cf 0fe4 ca5f ba3f 212c c662 6cbb a8bf
00000550: 8d8b 464a fef5 adbf 0c43 76cb 61b1 b73f
00000560: 3a17 1a0c 175a b0bf f7e5 4200 d743 9ebf
00000570: cefa 1f7a dfbe a53f fedf 1d47 f2d8 cfbf
00000580: f6b9 a76c 34ed ba3f 1e76 7a60 acff c53f
00000590: 1205 cd45 bab2 8b3f ae43 472e 8a50 b5bf
000005a0: 45ac c35d 9003 c6bf a770 8026 6cc8 bebf
000005b0: 01b7 96e8 ba78 c6bf 98e0 3422 d4ee cb3f
000005c0: c49d 1aa6 3a36 973f c036 791c 6e62 b63f
000005d0: 92f4 0ee7 5ff7 97bf df13 eb8b f3dd c23f
000005e0: 0194 fd3e b480 8cbf 0ade 3902 fdaf c4bf
000005f0: 92f6 1e68 7883 a13f 1187 99b2 9752 cfbf
00000600: c5b8 d2c0 edd7 d63f ecde 15bf e3c7 b63f
00000610: 4c84 0003 296b b93f 80b8 4696 60eb 983f
00000620: e181 77b4 1a5f 9b3f 1e1e 78bf 8cd0 cc3f
00000630: 1c1a 8086 860c abbf 3a45 dd25 b88e c6bf
00000640: 29fb 69b3 992d b1bf 5486 2a34 3db9 a73f
00000650: c6ef 1958 4dbd d3bf e478 f6b7 1f8d c03f
00000660: 3ad5 9d86 a2d9 ba3f 79b2 6ce3 3f50 d63f
00000670: c381 d55f e3f6 b4bf 4d86 0d50 92fa b03f
00000680: 94a8 35ab ea9d a03f b74c 5002 3b6e c0bf
00000690: c487 f2c7 8f13 b1bf 268e ec62 bc6e c4bf
000006a0: 97ce ea2c da30 c13f 96c9 7255 b449 d7bf
000006b0: 8301 d83b 7a4c bfbf f649 5321 55bd d6bf
000006c0: a41e f742 f792 cd3f d190 bb61 904a d83f
000006d0: 1fd1 b587 e659 933f aa13 8712 33d5 b53f
000006e0: 38f2 10c8 5a2a 8fbf 4269 487b d112 d3bf
000006f0: 44d6 0626 ced6 d13f e21f a5f8 2c97 cebf
00000700: cb55 3657 5e4c c8bf 01c5 0b1d b900 d0bf
00000710: b8be 67a7 faa8 b1bf 401c 7fca 9542 a23f
00000720: eab5 ab76 e21c d8bf 8082 2d5d d9cf b8bf
00000730: 76e6 8cca e4db b2bf a17d e0ea 58a2 c9bf
00000740: 7dca 2f30 059e d4bf 87d1 7a01 9f50 db3f
00000750: 2f4e fea0 12ef 943f 4fa1 e8e7 c003 9e3f
00000760: 784e 0fb3 b904 77bf 3eee 44be eb0e a93f
00000770: 09bc afb4 185c b13f 041e 2246 fa98 a7bf
00000780: 86a5 f37f f3ea c53f 6695 fa23 9592 cebf
00000790: 7892 046a 79e1 b03f cb4b 578e cf6e 9ebf
000007a0: 9da8 30ef d1c0 b13f cb1d 2424 118e c43f
000007b0: b38f 2601 6527 cc3f f3cb 05d8 775b af3f
000007c0: 73e8 b086 7208 c03f 329a 10e4 f5dd d13f
000007d0: 29b3 907d 930e bb3f d8c8 cd12 e604 753f
000007e0: 3e74 1444 61d9 843f a663 2fb7 cf64 ba3f
000007f0: 05e1 751c 8061 cfbf 984c 8201 3b8d c33f

bias f8 [64]
0.08379868758995905 0.20504110143695695 -0.13218737037900583 0.09470723770666772 0.11169475949766144 -0.06664193071624397 -0.0712792282529003 0.28072008875056265
0.12797733847319437 -0.08335930924844 0.08913142418353437 0.12173283916661774 0.14769729371556833 -0.186970557402179 0.12525684050365957 0.27428339684122593
0.05791495624631794 0.31795120623595163 0.18223718214254678 0.1724526757951151 -0.2663229393645703 -0.14591268079630432 0.22470038971741424 0.26843918501678155
-0.20960616305398508 0.14007074058431485 -0.11779639643458509 0.1510611163502184 0.2858140506910245 0.13994316730933334 -0.14735239546752518 -0.08733596774904771
0.06624027026667957 -0.02519559464508114 0.22639692858194455 -0.20491982327407413 0.14107027510512377 0.05165853016704991 0.09489903434004984 0.1696093492757559
0.13520360283119864 0.2191177020831375 -0.13471811152189844 0.14476188959960393 -0.12760643144782452 -0.16756661056536362 -0.09482244104462052 -0.20088876978328704
-0.0212469890809572 -0.294310407509624 0.19230153077940054 -0.21475038090905005 0.18793807294564632 -0.19333673444852675 -0.18492697855544174 0.22564944840893528
-0.004859843851942325 -0.08688837261222362 -0.10016044353139313 0.1841614360725806 -0.16696507793119553 0.1370026292780469 0.25042250977399727 -0.20328441999088884
00000000: 4387 a5ae d473 b53f 5bf7 806c c93e ca3f
00000010: c36c 5c08 84eb c0bf dc06 a5c8 bb3e b83f
00000020: 9452 2d1b 0798 bc3f ecf3 f710 720f b1bf
00000030: a5f6 3a02 5b3f b2bf 7ae3 2064 51f7 d13f
00000040: 108d afb9 8f61 c03f 0509 0a23 0957 b5bf
00000050: f007 ea27 51d1 b63f c3e1 1123 e229 bf3f
00000060: 42a8 1bb3 bee7 c23f 5aba adb6 a6ee c7bf
00000070: f720 c888 6a08 c03f ec34 d1f2 db8d d13f
00000080: 02ee 0d76 07a7 ad3f 5e75 2004 5059 d43f
00000090: 776e b548 8c53 c73f 2be8 52e5 ed12 c63f
000000a0: f8b4 af5e 6f0b d1bf 92c0 0b48 44ad c2bf
000000b0: 400c 9e7c fbc2 cc3f 842a 278c 1b2e d13f
000000c0: 35af adef 5fd4 cabf 2ed3 f788 d6ed c13f
000000d0: 0af0 4596 e727 bebf b6f1 357d f855 c33f
000000e0: 9822 1d04 c74a d23f 0535 725f a8e9 c13f
000000f0: 8398 c27b 71dc c2bf cf25 3f65 a65b b6bf
00000100: 313d 7952 1ff5 b03f 5ffd 03bc dfcc 99bf
00000110: 724f 1616 93fa cc3f e1d2 a111 d03a cabf
00000120: 46d2 013d 970e c23f 30fa 40a3 fc72 aa3f
00000130: 4699 e998 4d4b b83f 751b 1e58 c2b5 c53f
00000140: 360e 3b06 5a4e c13f cbfb 3582 0c0c cc3f
00000150: f62c 956d 713e c1bf 89cb c4be 8e87 c23f
00000160: 2af1 e954 6855 c0bf a5d0 239c d272 c5bf
00000170: 1daa 3693 4846 b8bf 872b 2d24 b9b6 c9bf
00000180: f6f7 f64c c5c1 95bf c614 c851 fbd5 d2bf
00000190: a289 d528 569d c83f af69 67c3 f07c cbbf
000001a0: afc6 7cd2 5a0e c83f ad32 c913 42bf c8bf
000001b0: 7998 85ee afab c7bf b76e a3c4 14e2 cc3f
000001c0: 402e 8666 eae7 73bf 72ac c5fe 503e b6bf
000001d0: dbf7 5165 1da4 b9bf 4bdd 8e18 9a92 c73f
000001e0: 10f0 a496 1c5f c5bf 728c 1b5a 4d89 c13f
000001f0: fa56 6a22 ec06 d03f 53d7 d24f 3905 cabf

weight f8 [1, 64]
0.030607908637038345 0.041912778702134355 -0.07421384872477622 -0.06344805372908721 -0.09079669236285785 -0.022209106365837335 -0.0560048916941142 0.0501101368651025
-0.13883796240966906 -0.05526463110055693 0.025428964295698984 -0.06692426301635825 0.047526606718398125 -0.08511521262049224 -0.1270474533412051 0.0006552671824232616
-0.050203391568505444 0.02043083174854067 0.037257216422094654 -0.14040513927443732 -0.06157242494910284 0.06878332043679251 0.016958811031702953 0.03004424618137892
-0.04989385769144839 0.022693860351200017 -0.03350661716418378 0.039941361402326715 0.051048602021143516 0.12254457804485852 -0.04910064419981971 0.06585110135995793
0.052883032058173664 -0.010910453454207429 0.0727498220039983 -0.052871263352175825 0.07557281283205135 0.05572697652839962 0.06179893878605937 0.0286926222724475
0.049837485984074656 0.05371014340797869 0.05937884208965934 0.042499887655599526 -0.031072354016487117 -0.013546595212519056 0.02947021304238854 -0.05261413801847481
0.056168232917077045 -0.0456101366866399 0.09776010771776542 -0.031227265627861066 0.012196946749001174 -0.03973750734460416 0.0886879063479063 0.1076413268151329
-0.09836527752074475 0.06673788024461824 -0.05252350158035781 0.054443672452481745 -0.044799419106611435 0.15296655381215687 0.041778389103571484 -0.0905874554595526
00000000: 0551 61fa ad57 9f3f 4bcc 9e7b 9775 a53f
00000010: 89e6 2ec5 adff b2bf 46e3 c2b3 213e b0bf
00000020: 0390 48b8 733e b7bf 2f02 0fe6 fbbd 96bf
00000030: 3607 7c54 acac acbf 0641 112e 09a8 a93f
00000040: 4414 ff3d 71c5 c1bf 84a0 674e a54b acbf
00000050: e6af 15e8 0c0a 9a3f 41d3 f6d0 f221 b1bf
00000060: 3d3b 174b 6855 a83f 96db 984e 1cca b5bf
00000070: eefd 9148 1743 c0bf 20ec 2f8f c778 453f
00000080: 07ba de49 42b4 a9bf 449f c2e8 d1eb 943f
00000090: ed51 25bc 6013 a33f 54e0 afac cbf8 c1bf
000000a0: acce fbbe 6b86 afbf c34b c99f c89b b13f
000000b0: 0574 0a8b a65d 913f 63c3 203b ebc3 9e3f
000000c0: 71b2 1c0e b08b a9bf 9e13 1d30 0f3d 973f
000000d0: feea d681 c727 a1bf 9d1f f6b1 3173 a43f
000000e0: d6e9 5fd8 0a23 aa3f b839 01db 145f bf3f
000000f0: ebfc 193a b823 a9bf 3521 bf26 9edb b03f
00000100: 9d06 681a 7c13 ab3f dcad 2946 3858 86bf
00000110: ca07 4c7a bb9f b23f 4dd9 fd35 f111 abbf
00000120: 6b94 9467 bd58 b33f 1d8d 630b 3f88 ac3f
00000130: a2fa 064a 1ca4 af3f 3dc3 2f49 9961 9d3f
00000140: 1e3a d588 4c84 a93f 972d cd5a e57f ab3f
00000150: 2ae9 b251 e766 ae3f bf02 2197 8bc2 a53f
00000160: e1ff 3d61 6ed1 9fbf e283 473b 51be 8bbf
00000170: 8a91 e484 702d 9e3f e072 3184 3df0 aabf
00000180: ede9 e726 15c2 ac3f 9bd3 de3a 365a a7bf
00000190: 3e51 8071 ce06 b93f a6ee 7552 0afa 9fbf
000001a0: bc21 2f7b b6fa 883f f573 f07c 7958 a4bf
000001b0: c4a1 5029 40b4 b63f a579 5eca 618e bb3f
000001c0: d878 0382 772e b9bf 7814 0ed5 bb15 b13f
000001d0: a33a 1e43 5ce4 aabf c4a9 5081 0ae0 ab3f
000001e0: bea8 e20f f3ef a6bf 15a5 0075 6894 c33f
000001f0: 0441 c21d fa63 a53f 286b a04e bd30 b7bf

bias f8 [1]
0.04659825347141525
00000000: b5bf 6bed b9db a73f

weight f8 [1, 64]
-0.3069833998360351 -0.3593072876883083 0.40877474189807267 0.6934453577009609 0.8422070674645897 0.532152521394525 0.4009613372238175 -0.35967222290203316
0.7555300595549863 0.3744650532904545 -0.3021537205839076 0.7903799854778776 -0.37051343974796347 0.3505897896296421 0.46618347684204303 -0.2709680324825902
0.5781946861204904 -0.29882236449458033 -0.34824134578096355 1.051713888806653 0.3095905466195043 -0.9043817364448717 -0.2926462235657382 -0.3126176875720734
0.3134214774879167 0.6113099579744843 0.30278848079825255 -0.3830903616226 -0.35545002822988314 -0.3088524091108171 0.3957673247464811 -0.657848931930702
-0.3835531081563243 -0.6803171526233173 -0.3915072890900768 0.3686252751407177 -0.28957516736398936 -0.7435604913157912 -0.3007569426505327 -0.36728988170620164
-0.3608585905647588 -0.3282116458765458 -0.8121274577558238 -0.3068349038082993 0.3782250109196024 0.30101182568678203 -0.6914557852600419 0.311909197127362
-0.8606804250322657 0.33476433748732537 -0.3305487722448536 0.38600972973596914 -0.29235289253900415 0.3698132715235448 -0.7399564497385722 -0.28216729448872524
0.7829060482752676 -0.6854916121978198 0.3159466756625012 -0.29057571255918047 0.30283672602490835 -0.3770014317573946 -0.28869747715798544 0.32678452420925186
00000000: 7f7b adb3 9da5 d3bf e37c 75fe e3fe d6bf
00000010: 1b84 f888 5d29 da3f d06f 9c51 b430 e63f
00000020: 290e 673c 5cf3 ea3f 19f3 7bb9 6407 e13f
00000030: e18c 95bd 59a9 d93f ea34 a9a4 de04 d7bf
00000040: 0ae0 1d60 4d2d e83f 4f27 5845 3cf7 d73f
00000050: 5d72 118f 7c56 d3bf 474b a1f7 ca4a e93f
00000060: c48a 9c00 7eb6 d7bf 5355 3128 1070 d63f
00000070: ad37 be38 f3d5 dd3f 578c 714d 8a57 d1bf
00000080: c378 7324 9280 e23f ca53 b4d6 e71f d3bf
00000090: 0ea2 cf11 9649 d6bf e2c6 52f1 d1d3 f03f
000000a0: 0f6b 38de 54d0 d33f 5d2c a4f7 b1f0 ecbf
000000b0: e6d0 e039 b7ba d2bf 207c 119e ed01 d4bf
000000c0: b02c ebf4 180f d43f 8206 a7e6 d98f e33f
000000d0: c393 a8ef e260 d33f 883d a56f 8d84 d8bf
000000e0: 1804 a779 b1bf d6bf 50fe 1ae5 3cc4 d3bf
000000f0: 9923 2779 4054 d93f 893a 0b34 190d e5bf
00000100: 47e0 f355 228c d8bf 8199 2d7a 28c5 e5bf
00000110: 5c66 b296 740e d9bf 2b56 4d77 8e97 d73f
00000120: cef8 6348 6688 d2bf 8891 195f 3fcb e7bf
00000130: b3a7 2e0c 9a3f d3bf 2d1c 856b ad81 d7bf
00000140: e833 3da1 4e18 d7bf b330 4d6b 6b01 d5bf
00000150: 19d6 e7b8 f2fc e9bf 5b30 48dd 2ea3 d3bf
00000160: ad73 1bad d634 d83f c12c c21a c743 d33f
00000170: d54c 0ae2 6720 e6bf e8f3 3efe 51f6 d33f
00000180: 5045 baac b18a ebbf c602 5866 c76c d53f
00000190: 0693 a109 b627 d5bf a2d7 4927 62b4 d83f
000001a0: 4725 16e8 e8b5 d2bf 5281 b448 05ab d73f
000001b0: 0aed 0226 b9ad e7bf b01c 7569 070f d2bf
000001c0: 15da 25fc 900d e93f 6c4d 021b 8cef e5bf
000001d0: ed05 d067 7838 d43f 6607 9ddf ca98 d2bf
000001e0: 1980 934a ad61 d33f 275d fc9c ca20 d8bf
000001f0: 4633 b5fb 047a d2bf 7e54 14a3 09ea d43f

bias f8 [1]
-0.10212533804402726
00000000: 72f6 fdda e224 babf

weight f8 [64, 4]
0.24834716269436943 0.5692372616568361 0.1983755369472815 -0.10433384195533545 0.14648400065513772 0.5607437748731483 -0.14741458888497858 0.21042381748508865
-0.22815308356061076 -0.18361831312580948 -0.34480802964783996 -0.28086045617296135 0.23463210099605658 0.4347716391848308 0.4133922283414524 -0.2569103092249203
-0.11102368913367738 0.12721301493356663 -0.1834515102315902 0.14763085983586563 -0.09973848825467856 0.4772651521821334 -0.1926197376946904 0.4522100667293787
0.41658132561407124 -0.017605865037046232 0.05456954832172065 -0.32284634921942906 -0.2147305498391405 -0.05114246135771174 -0.235655222445516 0.1206869671644265
0.16175931745702737 0.015045222291203916 -0.09485067273411844 0.33082206083982707 0.02800924604650176 0.12650005741086015 0.2948251729100247 0.20046102326921236
-0.16435402538909247 -0.3889141180910827 -0.006415215479990517 0.16490740816393798 -0.32261648168050067 -0.20119216562252842 -0.06955084023344205 -0.4856468739818448
0.10934577199106722 -0.07675708202957385 0.09437183725449043 -0.027521738104347687 0.4039965353392168 0.6176760474538662 -0.16110114343487691 0.03733449667014888
0.17058151280194306 -0.13803399738436323 -0.00719822144880167 0.0874053070007432 0.26361612950615015 -0.23035784669731796 -0.09144192183319047 -0.25979938249736245
-0.356851541500966 0.1029802007125075 0.21725106319546628 0.20940248268293196 0.10326111361411398 -0.16483985556437614 0.11909314268279847 -0.15729660684931276
-0.23571868595095238 0.004336418785663226 -0.028728672824929344 0.11289799853807451 0.3762000330987897 -0.1491439047212874 -0.0019159421326260357 -0.33014728146178374
0.5923380602465937 0.31667578294215504 -0.38180525966630763 0.18623011303130263 0.2857948190872878 -0.19333082962220258 0.10907385330463078 0.11813897087841042
-0.4146939508774315 -0.17652922473495233 0.13091408885229203 0.22882880707621184 -0.11424177591350765 -0.5565050483695316 -0.013676505493025827 -0.21875300009634624
-0.3409680284906417 0.352229409072735 -0.042135938685263316 0.19360165083496506 0.12019581487731841 0.5508221755330838 -0.0700185394954802 0.019675464487341546
0.012905693564043051 -0.24810523411302504 -0.048468758230020156 -0.1022184927150375 0.27205357284034043 -0.05063104371654515 -0.009151948589285608 -0.12783436578159674
-0.05363687809031285 -0.38797188236003977 0.12146829927769597 -0.12069980054286361 0.032807797185721375 -0.40671037600384763 -0.18453792222239737 0.13704106027882573
-0.08581013499774981 0.2702818279787043 -0.10338821235171303 -0.1091121503632225 0.16237427735210466 -0.28182946076500703 -0.1165321109733512 -0.13122536352963843
-0.4408806066639318 -0.09626385292767657 -0.10024362887246345 0.2724621513675125 0.25177293512248183 -0.2829649402567771 -0.16354509674784937 -0.32586078738413865
0.03076906348638092 -0.2609567912954144 -0.348295030102215 0.0704066214809461 -0.22763427972248038 0.09057982301288664 -0.03589833251681923 0.16081366656302984
-0.011308155052519583 -0.3283991697467915 0.2283457196482872 0.2558083967645038 0.38231946114624454 0.26315080548499126 -0.03205389699545575 0.08256928599232782
0.15536648078987525 -0.12620712290615935 -0.11829829134307654 -0.3309818722363728 -0.02041429052188811 -0.3058929087743284 -0.19556919813527956 -0.07205240739581838
0.07785129824808076 -0.2975771050126567 -0.18233023679551766 0.2205375073555715 0.04203674631404931 0.5548636275332338 0.08263641953111986 0.18074277799488098
0.1007519269181524 -0.4482563124665009 0.2379173599795328 -0.32232358007801953 0.5295345809076218 0.12936097462353688 0.2307181601631164 0.6420128364520045
0.45340058368056474 -0.07581836710339768 -0.03467810803607011 -0.3253952747587087 -0.17407467294955697 -0.23850495545432487 0.14786146731788857 0.1354149185952232
-0.22695541597849864 0.3104898443440306 0.13387183965383925 0.17335987572169964 0.10222425860292146 -0.1062700470893367 0.24923704856482087 -0.0985132963249076
-0.3161995590429856 0.5208281515778447 -0.13616781702914368 0.5587402752371085 0.04843176979724268 -0.19588545786639827 -0.08402579122003438 -0.013962549355836108
0.2833146322833176 -0.4126687740722319 -0.13294869144098925 -0.30733070679693736 0.22534886758935854 -0.3158005774873567 -0.13983854458328518 -0.16609150094482406
-0.02939048673411161 -0.15559449057949531 -0.1556269625641005 0.11216497020403436 0.42154099337422396 -0.049459264446561374 -0.048054932848754874 -0.3308615741155343
-0.11095991442011871 0.18502506116688197 0.1456789099532298 0.3173688122792694 0.2734593172547706 0.06210111540588599 -0.013512373616021239 -0.3352272273787543
0.1792600273116696 0.48027621505162965 0.020075156271133165 0.14719995854954987 -0.29868774588332686 0.06800097180108676 -0.19756484741189032 0.034145724255457845
0.23746076196175062 0.24742852104638616 0.06387402606482775 -0.07584265921824015 -0.25787800712800735 0.0012184323210222656 0.09709585347888976 0.11488897139438095
-0.1546729301265593 0.4502907015856373 0.02733914986938979 0.41359717375039795 -0.34002076607972814 -0.3662233737991042 -0.008300638101518315 0.2531149253002808
-0.013328565217871863 -0.44684820454398266 0.01543660168999137 -0.12609914209561351 -0.19061944143829346 -0.0331704968128923 0.04787266190294444 0.2866687367399986
00000000: 91d1 e9fe d6c9 cf3f f161 cf0f 3137 e23f
00000010: f8eb c19d 5e64 c93f 4f6f 1067 9fb5 babf
00000020: 4ebc 19dc fcbf c23f 1881 d0ed 9cf1 e13f
00000030: 236d 1b33 7bde c2bf 54ef 32eb 2aef ca3f
00000040: a2eb 2fc8 1e34 cdbf 9538 e90c ce80 c7bf
00000050: 3c15 afb2 5511 d6bf 2129 8022 9ef9 d1bf
00000060: a856 2fb8 6c08 ce3f ffbc e16c 4cd3 db3f
00000070: 206a 49ad 0475 da3f f814 08f0 3771 d0bf
00000080: f410 e969 0c6c bcbf 00f3 611d 8448 c03f
00000090: c359 6cce 567b c7bf 330d 7069 91e5 c23f
000000a0: afd1 3429 7688 b9bf 6c22 0923 838b de3f
000000b0: d33c fb78 c3a7 c8bf 0494 e17d 02f1 dc3f
000000c0: bac0 68b8 44a9 da3f 2a26 359a 4507 92bf
000000d0: ad6e cc32 8af0 ab3f c7f2 e1bb 83a9 d4bf
000000e0: 376f 8168 4a7c cbbf 13c7 ef3d 582f aabf
000000f0: 0a7e c448 f329 cebf a84e 0651 57e5 be3f
00000100: 328e 2681 87b4 c43f 1e3a 9d8d 07d0 8e3f
00000110: 0b8a 6539 2248 b8bf 638d 064b 302c d53f
00000120: 7778 05af 74ae 9c3f 41c9 c264 2731 c03f
00000130: 15e9 eb66 6ade d23f e92f 88f1 b4a8 c93f
00000140: af8c 017e 8d09 c5bf 34d9 890a f8e3 d8bf
00000150: bb02 ef4a d746 7abf 8b53 779a af1b c53f
00000160: 2df9 7d99 bfa5 d4bf d1b3 c735 aac0 c9bf
00000170: a842 3678 15ce b1bf aa06 4aa0 d614 dfbf
00000180: 5952 a8a2 15fe bb3f 36ac 0d25 5aa6 b3bf
00000190: 83e5 abb2 c028 b83f 2858 5994 a82e 9cbf
000001a0: f1ab be48 14db d93f e1c7 ea8e 00c4 e33f
000001b0: 0454 3357 f69e c4bf 71fc 6bd4 811d a33f
000001c0: b2ad 6471 9dd5 c53f 3241 4018 19ab c1bf
000001d0: 8339 64db e17b 7dbf eea5 10b7 3160 b63f
000001e0: 3954 bb2f 16df d03f 3892 f8ac 5d7c cdbf
000001f0: eac6 c1df bc68 b7bf fa37 d696 8da0 d0bf
00000200: 8686 11d9 a7d6 d6bf bb1b 3212 e95c ba3f
00000210: 900e b901 e2ce cb3f e985 6957 b3cd ca3f
00000220: 23d1 eb01 526f ba3f 56f9 5cee 7819 c5bf
00000230: 881f 0061 e37c be3f c343 1893 4b22 c4bf
00000240: 6193 9ba7 072c cebf 53e3 db8d 10c3 713f
00000250: 2c54 f698 0c6b 9dbf 3340 811b e2e6 bc3f
00000260: 7675 ba4d a913 d83f 567c 96c0 2517 c3bf
00000270: 31f8 3d33 0b64 5fbf 7e77 2f10 2221 d5bf
00000280: 24ed 9df2 6ef4 e23f f6fd ca80 6a44 d43f
00000290: fa48 ed53 7f6f d8bf 5ffa 7f6a 63d6 c73f
000002a0: 1f27 565a 764a d23f a398 448b 10bf c8bf
000002b0: 75c6 ca98 43ec bb3f 714d 4e08 5b3e be3f
000002c0: bd86 377f 588a dabf 6f2e 8377 8298 c6bf
000002d0: d365 1af9 cac1 c03f f633 6329 434a cd3f
000002e0: 8cae 62f3 f23e bdbf 0dcb d9ac e3ce e1bf
000002f0: d464 877e 6d02 8cbf 9868 a82a 1900 ccbf
00000300: 6a54 d690 6bd2 d5bf 0d09 2a38 ed8a d63f
00000310: 3e68 477d d792 a5bf 2cd6 645b f0c7 c83f
00000320: 859f 0326 27c5 be3f f46f bad3 55a0 e13f
00000330: 702c 3f29 bcec b1bf 34e7 0612 ce25 943f
00000340: 0c6f 51de 4c6e 8a3f caad 3d8d e9c1 cfbf
00000350: ae8a f3a6 e5d0 a8bf 8aeb 41bb fd2a babf
00000360: 65fd 8663 5369 d13f 818d d9e9 4fec a9bf
00000370: 4dd2 15bf 41be 82bf 361e 2b62 e05c c0bf
00000380: 36ce 83fa 4a76 abbf 6440 a004 88d4 d8bf
00000390: 7700 e6e4 8b18 bf3f 5c1f f79f 2ee6 bebf
000003a0: b3d5 eeff 2ecc a03f 4a58 f8f4 8a07 dabf
000003b0: 1393 684a f09e c7bf 0aa9 0dbc 8f8a c13f
000003c0: e00d 7b2b a7f7 b5bf d5c8 f726 4c4c d13f
000003d0: c8ae d75e a677 babf a601 681d c6ee bbbf
000003e0: a12e 7829 aec8 c43f c63d 426f 7e09 d2bf
000003f0: 9c7b 9065 0cd5 bdbf 2cfc 6122 fecb c0bf
00000400: 86fb c34a 6337 dcbf c77f 1c74 bfa4 b8bf
00000410: 4bbc a303 91a9 b9bf 745c 6117 0570 d13f
00000420: 859d 973a 0c1d d03f 2051 14fb 181c d2bf
00000430: 7101 fab4 0bef c4bf 9d46 3734 e7da d4bf
00000440: 1037 9ce5 ec81 9f3f 121b 121d 84b3 d0bf
00000450: 8d7e e93c 774a d6bf 47b9 ae18 2b06 b23f
00000460: 0fa4 6dbd 1e23 cdbf 9c8f 8441 3d30 b73f
00000470: 2806 4828 4461 a2bf 03ac 51cf 8a95 c43f
00000480: 7e83 07e1 ba28 87bf 3a25 86f3 7d04 d5bf
00000490: d015 09bb 6e3a cd3f bd53 892e 2a5f d03f
000004a0: 6fd6 8f0b ec77 d83f 9257 de79 76d7 d03f
000004b0: 5913 9c4e 5e69 a0bf f8b9 fdbe 4223 b53f
000004c0: 5c8d f180 0ce3 c33f 0dbd b314 8e27 c0bf
000004d0: debe 7dfc cb48 bebf 97bd 3497 ce2e d5bf
000004e0: 1674 a6d8 7be7 94bf 3ae6 d0d9 bf93 d3bf
000004f0: be48 0c57 6908 c9bf adf4 5ccd 0672 b2bf
00000500: de38 ed0b 10ee b33f 7f55 84d7 800b d3bf
00000510: 5de9 0de2 9856 c7bf cf17 d1b2 923a cc3f
00000520: 9155 4c25 d785 a53f 63d8 bf5d 71c1 e13f
00000530: f63d 580f a927 b53f 32f4 3c50 9422 c73f
00000540: aa58 1fd7 e0ca b93f 383a 913e 3bb0 dcbf
00000550: e1a1 2178 1374 ce3f f48a ca14 f3a0 d4bf
00000560: 7b2d 6381 f2f1 e03f e781 b181 e68e c03f
00000570: 4b37 3f34 2c88 cd3f c58d 0581 5e8b e43f
00000580: 334d b9e1 8304 dd3f d42c 251f d568 b3bf
00000590: e5dc cd37 54c1 a1bf 4324 d7b3 46d3 d4bf
000005a0: ceab b031 1448 c6bf 121d ce93 5487 cebf
000005b0: 0e05 3ce3 1fed c23f eae4 60ab 4655 c13f
000005c0: 938c a304 e00c cdbf cea7 cccb 10df d33f
000005d0: 8a94 9562 b622 c13f d0e7 540a a830 c63f
000005e0: 65b1 8e77 5e2b ba3f 5d07 cb88 8334 bbbf
000005f0: cccb 44e6 ffe6 cf3f 52c7 efd9 2a38 b9bf
00000600: 045a 4613 9d3c d4bf 7b9d bbcc 9faa e03f
00000610: 8b35 7470 f26d c1bf d43e 2349 33e1 e13f
00000620: 79ad bb86 0ccc a83f 522a a651 c612 c9bf
00000630: 9f81 4fd9 b682 b5bf d41a d1a6 6598 8cbf
00000640: b9a5 08b2 d321 d23f 1c1f 2e4a 2a69 dabf
00000650: 527c e474 7604 c1bf 59f6 af69 4eab d3bf
00000660: b353 3e50 3bd8 cc3f 5c6e 17a0 1336 d4bf
00000670: 1d4c dabb 3ae6 c1bf 20cd 597e 7c42 c5bf
00000680: a39b 582d 8a18 9ebf ea04 3d30 85ea c3bf
00000690: 2958 4b95 95eb c3bf ff7b c8ee d7b6 bc3f
000006a0: 1fcd 1d13 87fa da3f 147c 9086 b952 a9bf
000006b0: d566 fef9 a79a a8bf 4013 1506 d62c d5bf
000006c0: 4cf3 9973 de67 bcbf e779 53b5 e6ae c73f
000006d0: 8ea7 fb44 9ba5 c23f faa0 6047 c54f d43f
000006e0: 9c53 1982 5b80 d13f 0a43 6da7 b7cb af3f
000006f0: 165a 2d16 60ac 8bbf 2a83 94e6 5c74 d5bf
00000700: e14f 6419 fef1 c63f de60 2c73 d8bc de3f
00000710: f31f 96ee 948e 943f 0ab0 f8bf 72d7 c23f
00000720: f13a 1235 b31d d3bf df5c fbfd 8268 b13f
00000730: 1195 3c0f ce49 c9bf f56a f361 8c7b a13f
00000740: 31bf 5a3f 1d65 ce3f cdf5 fede bcab cf3f
00000750: 3a25 0355 0c5a b03f 5ee8 fbac 6c6a b3bf
00000760: 903c bec1 1281 d0bf 2dd0 27be 79f6 533f
00000770: c3df 441b 46db b83f 9a58 cf16 5d69 bd3f
00000780: 1a2b 3c94 52cc c3bf 8d34 4017 90d1 dc3f
00000790: 809e 5b4a cbfe 9b3f 9a76 be47 6078 da3f
000007a0: b97d 9175 e6c2 d5bf 2ede 5f29 3470 d7bf
000007b0: 9da3 74c9 ecff 80bf fed3 92f1 0833 d03f
000007c0: 8af7 b4bd 014c 8bbf febb 3236 2999 dcbf
000007d0: f4ef 5b9b 399d 8f3f 425a ad45 0424 c0bf
000007e0: f4c8 7ac5 3766 c8bf 80c3 012e b9fb a0bf
000007f0: cac0 7dfa c382 a83f 125f 45d4 c758 d23f

bias f8 [64]
0.1518157535690355 0.5481607606022308 -0.11715860049509769 -0.43436439032284413 -0.6198369676853459 0.32052077622985076 0.5622155736066226 -0.6486956823038034
-0.5486860105482342 0.16022132022515048 -0.31168656686889346 -0.04069503978207414 0.33954401759245717 0.38521651362751047 -0.43692643121101554 0.30536916769644296
-0.49219402093015063 -0.7086550966917985 -0.5063591504733074 0.29527671604820616 0.3406316473003029 -0.26136328037218 -0.7085174202218972 -0.17627656743655096
0.09643446576309578 0.8174276095314275 0.29534496253042924 0.33900999752209593 0.5182288287183368 -0.06445162835958318 0.6856728585725126 0.1657671033519319
-0.7723497581718224 -0.4629225348755242 0.3891607802283445 -0.44597103817044603 -0.3426948626690961 -0.371026117274125 -0.6109387421063347 -0.6604401023048216
-0.46095717706629463 0.34045638855274246 0.3446511443311447 0.243601991106551 0.3041745740622248 0.3157616976667057 -0.3082812422734634 0.4728480514411079
-0.1655394355348878 -0.7635042741283755 0.4363086791312111 0.31754489879548653 0.4716895685925144 0.7008624879757662 0.7654658793598735 -0.6037206537533433
0.2170675963388172 0.38045853856686906 0.6455096467165586 -0.7118044295105893 -0.1715729733715209 0.5126338325684389 -0.5260042908041956 0.5629999298124044
00000000: 7b5d 4cd8 b26e c33f 0d96 776f 888a e13f
00000010: ac52 9225 1bfe bdbf 36f3 be4c a0cc dbbf
00000020: 8cee 2156 b4d5 e3bf a820 e692 6983 d43f
00000030: 8627 be83 abfd e13f c5a3 9172 1dc2 e4bf
00000040: df79 e2f6 d58e e1bf 6596 3ed9 2182 c43f
00000050: 877b d336 acf2 d3bf 1365 f2f1 fad5 a4bf
00000060: dd2b c7d4 16bb d53f e731 fa29 63a7 d83f
00000070: a9cb 3347 9af6 dbbf 2ca1 1d1f 2b8b d33f
00000080: 92a1 cb59 1b80 dfbf 75eb 0d74 4dad e6bf
00000090: b805 ea1a 1834 e0bf f4a0 ac4f d0e5 d23f
000000a0: 49cb 48ae e8cc d53f 01b9 640d 2dba d0bf
000000b0: 93fa 8fb9 2cac e6bf c876 1806 3b90 c6bf
000000c0: f0e3 a8dc edaf b83f 381e 39f2 5d28 ea3f
000000d0: 89d1 c68e eee6 d23f e0f6 17fd 56b2 d53f
000000e0: 8c11 e69f 5495 e03f 8875 fae3 e67f b0bf
000000f0: 5d5c ea34 08f1 e53f f818 d33f db37 c53f
00000100: d07c 0dd7 16b7 e8bf 81cb f7d6 85a0 ddbf
00000110: 7fdc fd9d 02e8 d83f 58ef f91b ca8a dcbf
00000120: 52f1 ea6e b6ee d5bf ddde e953 e4be d7bf
00000130: 4198 a667 cf8c e3bf 1eb7 0b48 5322 e5bf
00000140: 41cc 1688 5280 ddbf 4f17 a397 09ca d53f
00000150: 7999 5bac c30e d63f f084 859c 592e cf3f
00000160: 9cce f7a1 9877 d33f 4cb5 338d 7035 d43f
00000170: cd39 623f e1ba d3bf 3bae 3a79 2443 de3f
00000180: d80a e96e 6530 c5bf 5a9a f783 a06e e8bf
00000190: ae16 f53c 7bec db3f cca5 d5d6 a752 d43f
000001a0: 5707 be71 2930 de3f e72b 1b2b 776d e63f
000001b0: c7be c14c b27e e83f 8a4a f9f9 ad51 e3bf
000001c0: 53f5 a5f9 dec8 cb3f ec3b 28c5 6e59 d83f
000001d0: e4cd bcd8 03a8 e43f 5dab 3c15 1ac7 e6bf
000001e0: 6c0b c16a 1af6 c5bf f58b 3611 7f67 e03f
000001f0: 03e9 51f3 06d5 e0bf f039 c66d 1804 e23f
