models/model5.pkl (torch_old, 81484 bytes, 18 tensors)

action_log_std f8 [1, 1]
00000000: 9eff 8169 f8eb 06c0
-2.8652199023053546

weight f8 [64, 4]
00000000: 7eb8 9c5b 0ccc 84bf a7f7 d290 d35e d73f
00000010: b124 4a3a ab98 cd3f 0a8c 0365 3b80 d7bf
00000020: 2dd2 2bdd b249 d43f 3232 2675 77fe dd3f
00000030: 93ee 8059 3cbf a9bf 1816 1d41 c058 d83f
00000040: afc4 697b 2396 c5bf 507b 2e52 c795 d1bf
00000050: ea4e f7bd b3d9 d5bf 311e 1b03 82d1 cabf
00000060: 771f 9317 3ca3 c43f 9e45 d264 8729 d23f
00000070: 4067 b88b 3305 d43f 521c 1743 7ef4 d4bf
00000080: e8cb 4154 4276 96bf 5637 ca69 47e2 bc3f
00000090: 8eb5 0e55 7a15 d0bf 6669 1714 2a74 ce3f
000000a0: dd17 cdad 6d15 d3bf 38ce eaf5 aa7e 94bf
000000b0: fa54 b8a1 4040 cebf 96d6 b709 54b1 d03f
000000c0: 9466 3d86 fe10 d63f c0be 2607 478f ab3f
000000d0: 18cb b7b8 c26a 8dbf 8467 8cfb d8fd d8bf
000000e0: f4b2 1ef0 5226 c4bf d04b 3711 fd8c c9bf
000000f0: 8696 06d1 4714 d5bf 4739 94d4 55a3 c63f
00000100: 30cf 689e 5ebf ce3f f7bc ec3c 60d5 bdbf
00000110: 9b74 c651 d6b4 bebf 8c11 c693 994f da3f
00000120: 11ce d231 6398 a7bf 67f7 7e9f 73d0 b73f
00000130: 0a2e 0ebc 3377 d43f d87b 3ef5 6d26 be3f
00000140: 9a0a 19c1 f5c1 86bf 294f f896 0a5e adbf
00000150: 87e7 f05e fc1e a73f 5bd6 06a7 d6e5 d33f
00000160: be9a b706 ac52 bebf ccc6 2fac 32aa c5bf
00000170: 55a8 3d35 01ca c0bf 3bad 4489 cfa4 d1bf
00000180: 9fe0 175f b061 b83f 9ef1 0f4b db6d 83bf
00000190: a63e 546f 62a5 c03f 2eb7 6737 d706 a2bf
000001a0: cbc0 56c7 e86d c1bf 5738 6df1 abf4 c53f
000001b0: e431 ac23 9b92 dcbf af5d 119a 6cac e0bf
000001c0: 9f78 6e96 68ec d23f d68e 5275 937f cabf
000001d0: ebe8 21f5 2a30 b5bf 7cb7 419c 8c68 cb3f
000001e0: 17f1 5bbf 64f6 cb3f cecd eb04 8b42 c2bf
000001f0: b4ba 06a4 6b8e bcbf d6a1 a083 30a2 d3bf
00000200: c684 34b6 9ab3 d1bf 9af5 be78 b7f3 9ebf
00000210: 2c57 d094 8b34 d83f bb69 b264 bbcc d23f
00000220: 5de3 54af d92c d23f aa30 b61d 0d9d dabf
00000230: cef9 0e30 0358 cc3f 4176 8a2e 5a3e 993f
00000240: c7b7 d351 9841 b7bf 0847 2286 376e bdbf
00000250: fcad b4c1 b361 b03f cda1 b18a 0a93 d03f
00000260: 3f12 88e7 bd59 d43f de2e eeab 9095 b6bf
00000270: 1016 3869 1573 a2bf 0542 5043 193b d8bf
00000280: 26ff 3b53 d301 e13f 61e1 7d3b 18c0 c23f
00000290: 0f5b c92c c7e6 dabf d963 b4e2 32f2 ba3f
000002a0: 7664 7a17 527a 8b3f b829 87ae 86f8 bfbf
000002b0: adbc 2d35 82b2 a5bf fde7 be98 d6b8 c2bf
000002c0: 7e19 f441 9e05 dabf 7bab b0d4 d569 dcbf
000002d0: 5d03 d000 fa4d d53f 5381 74b5 1724 ce3f
000002e0: 3dad bc2a 5035 a23f 11d8 27eb b155 d0bf
000002f0: fa4d 20c6 58d1 6e3f 121d 94ba 9eb3 b0bf
00000300: 833d 7c43 f072 c9bf 5ed4 330e 7d91 c63f
00000310: 87f9 ecfa cff2 a63f 7e06 0319 ea13 d53f
00000320: fccc ec03 909c c6bf af81 8869 30ad df3f
00000330: 2948 c50e a07e d1bf 7850 45e5 7acf d1bf
00000340: 7edb e876 b388 b5bf 8cea ecc9 8fbc c1bf
00000350: 4ba8 1393 2fb6 c1bf 078e 3679 a367 c9bf
00000360: d045 d548 1c47 d33f 0f67 8156 cabb a53f
00000370: 85ba e282 220e 59bf dbfb 79c0 afed b9bf
00000380: 3055 726b 2cc8 c1bf 1b33 68a5 aa68 d6bf
00000390: 04e2 517b 2ad2 ba3f dd1a 470a 062b cabf
000003a0: 05e0 c440 371b 9cbf b408 cbf8 61f6 ccbf
000003b0: 5543 3428 f3a1 c7bf 6c12 a371 9fe6 b33f
000003c0: 43c9 b4c2 6af9 d0bf e458 ba8a a98b d13f
000003d0: 8221 a405 c307 ccbf ac5f 8dd9 c18c d2bf
000003e0: a0cc fc73 8f8e cd3f d2a3 c7f5 ccd5 c4bf
000003f0: 390b f0f3 5f7d abbf 5b7a 3a6b 1c34 b0bf
00000400: 3683 e2d7 0b02 dabf 1791 cac1 e156 d6bf
00000410: 72e5 e192 adbe b13f a591 cb80 d21b d43f
00000420: ca14 0a40 2900 d53f 5638 0e91 85b6 d8bf
00000430: 1112 58dd 2ff1 d4bf 0295 778f 2026 cfbf
00000440: 2bae 7b31 7282 83bf 9cc5 c2d3 8005 c7bf
00000450: 0701 a8ef ee52 d7bf 0b2f 09ce ca09 9f3f
00000460: 7e13 7cc3 77a9 c2bf 6f35 11c2 0e80 a23f
00000470: ad12 8df4 d914 b6bf 0999 8514 15d9 cc3f
00000480: f3de 2e79 f907 bb3f 20f5 9d36 8965 c7bf
00000490: bc13 1e2d 6973 dd3f 9252 06b7 af4e d63f
000004a0: 59d1 d8a3 d5d4 d93f f57b 0e78 2326 c73f
000004b0: f2c3 4247 31c5 6e3f afa8 1db4 13ad bb3f
000004c0: c47a de07 f239 c93f ace4 dd59 1ef2 d3bf
000004d0: eddc 42ba ef43 bfbf 1854 6599 a4a5 d2bf
000004e0: fc6b f19c ee92 843f 7983 ba24 cd3f ddbf
000004f0: 259c 4ef5 e37f d8bf 29d3 0ab9 c907 a6bf
00000500: 3695 6020 35a8 ba3f edd4 b1e6 b586 d0bf
00000510: 1424 d6cb 1d94 dabf 8b0b 6ecc 6d14 cf3f
00000520: 2ed5 9855 3cae c7bf 7c92 fd75 8f55 cc3f
00000530: 1490 c492 e594 d53f 866a 57ed 31b8 a6bf
00000540: 65ab d118 a85f a63f 1e44 3a30 c963 d0bf
00000550: 9816 051a 3e32 cb3f dfbb 7139 f34d d8bf
00000560: 7d82 6563 0dda d03f f1bd f510 38cb c13f
00000570: b654 3e57 ea1e d73f 93fa b5a3 be77 d73f
00000580: 6032 cb4c 8b49 d83f 5382 70a5 050b 9f3f
00000590: fd11 e8ab 8736 c3bf a796 e97e 4c9d d9bf
000005a0: f3c0 210e 133f c7bf 8414 d390 101b c9bf
000005b0: b8e2 1b49 a6d2 c33f 5e1b 0c51 0482 c03f
000005c0: 4955 b8e9 1283 d1bf 2694 dce6 76e8 d03f
000005d0: 2b3a 2158 0672 c3bf d1cc e189 e10a c03f
000005e0: ed8d a5d8 92d7 a33f eae6 a257 946d b0bf
000005f0: 05fe d097 e574 d43f 78ea 15fc a7a7 c4bf
00000600: f74e a8f2 7617 dabf 714b 46d2 3479 d63f
00000610: 3bcc cd01 737c c8bf 4e5b eda7 c863 dd3f
00000620: 3aa3 4a39 5e44 c33f 3778 a9b5 a19e d7bf
00000630: 6ac7 d1c7 9ec0 c7bf fdc9 8b2c 617e b73f
00000640: 644d 1fcd 1454 d63f dc0d 1454 99ff d5bf
00000650: a5c4 a5b7 9b04 bb3f 13f8 4c9c 03ab cebf
00000660: 4433 538e 4173 d03f eba2 ecc1 5dd5 cabf
00000670: fdee 3339 d22c 8fbf c7b3 06d5 55cf c0bf
00000680: 6583 567c fc8f c03f 1247 fd84 7c8d b7bf
00000690: 147d 9ad2 3539 c7bf 13bc 3305 7c50 d13f
000006a0: 91f6 7a79 366a d73f 4700 468d 2a71 933f
000006b0: 47a8 5e8d 001a c9bf 987f 283b 738d d8bf
000006c0: 5303 be9a 6170 c1bf a5cb d99c b414 dd3f
000006d0: bcf0 d11f 7006 a4bf 9459 902a 057a d23f
000006e0: f189 9307 d153 d53f 8637 eccb c872 9c3f
000006f0: d132 99ae 5593 d6bf be4c 0878 79bd d1bf
00000700: ad2f 8237 01a2 b33f fc1b ce8f 8b3d cc3f
00000710: c054 acd0 15fa d73f d6ba 97c3 28d0 a03f
00000720: 4ae9 b723 cfa2 cdbf c070 c8c3 eed2 703f
00000730: 3bfb d338 96c0 bcbf 9f21 9580 b9b4 bc3f
00000740: df07 8a1c 0ff3 d33f 7144 e3f1 57da d93f
00000750: b286 501b 51bd c13f 1d68 e608 9ae4 59bf
00000760: b0c4 f6a0 a192 bbbf cb33 10e1 de01 c1bf
00000770: 8fb8 2460 73f5 d43f b71e cce7 8902 d13f
00000780: 70cc bc4c 9cda cdbf 56c0 30e6 8173 d33f
00000790: 36dd 17fe c1c3 a03f 5f32 abe4 2969 d53f
000007a0: a039 bae6 1dd9 d6bf 4b17 e85a cf75 d5bf
000007b0: d05a 4cdc fcb8 b73f 6332 faab d5b9 ce3f
000007c0: 812d e83f efdc 95bf b3e8 138c 8964 d9bf
000007d0: 22c3 3d42 4145 cebf 43cb 7b63 5540 c0bf
000007e0: 45a9 9dc5 47a0 d7bf d7b1 16d7 e15e 893f
000007f0: effc b549 1bd4 a33f 8948 9f60 9cf7 ba3f
-0.010154816194326562 0.3651627458856361 0.23122158380673377 -0.36720166077265104 0.31699821089503893 0.46865641060211083 -0.05028713791440711 0.3804169307589702
-0.16864436651261402 -0.27476676011604173 -0.341412482751578 -0.2095186724820777 0.16123152876957267 0.28378472181165104 0.3128174652534774 -0.32742268134865526
-0.021935497658386455 0.11282774288903616 -0.251310904563831 0.23792005520847254 -0.29818288777130225 -0.020014449367137227 -0.23633582970129635 0.2608232588675973
0.3447872458396912 0.05382749521538477 -0.014363785993713615 -0.39049362721709024 -0.15741955494504334 -0.19961512890458133 -0.32936282551450125 0.17685959701379714
0.24021513686022322 -0.11653710830136164 -0.11994685646500829 0.41110839301134017 -0.04608449919888014 0.09302446979469679 0.31977551808151417 0.11777388799099187
-0.011112136798265216 -0.05735810368437761 0.04515827807377009 0.31090322791292174 -0.11844897426599751 -0.169256528926374 -0.1311646947827422 -0.27568424611191106
0.09524061509717051 -0.009486878612727175 0.13004713474264412 -0.035208440316507925 -0.13616666539519992 0.1715292862740536 -0.4464481209149922 -0.5210478791367928
0.29567923250750455 -0.20701831081998162 -0.08276623234442908 0.21412809018823598 0.21845683425625204 -0.14265573253906755 -0.1115481639342118 -0.3067742619919306
-0.27658717912170194 -0.030226580376383795 0.37820710690117454 0.2937458499306122 0.28398744699693684 -0.4158356466439367 0.22143592688185126 0.024651917544011196
-0.09084465024690679 -0.11496302628281907 0.06399081687111868 0.2589746813232779 0.31797740564823934 -0.08821968266982647 -0.036034268468977726 -0.37860709737381654
0.5314728379889615 0.14648726372594026 -0.42033557294546225 0.10525815996915301 0.013416901914114581 -0.1248859573453619 -0.042377537719283744 -0.1462658162907359
-0.4065929073407445 -0.4439596726467056 0.3328843124327728 0.23547645912277435 0.03556299707119102 -0.2552304073755077 0.003761933695395345 -0.06524078421727023
-0.1988201455610402 0.1763149566028543 0.044821261768890834 0.3293404812103303 -0.17665291015291718 0.49494562440852524 -0.2733535904163796 -0.27828857793543404
-0.08411714222971331 -0.13856694564477257 -0.1383723705433247 -0.19847529810532213 0.3012152396450718 0.04244835191702922 -0.0015292489074842108 -0.1012830586350754
-0.13892131086746806 -0.3501383414557481 0.10476937781084678 -0.2044379759010643 -0.027447570160092045 -0.22626900337315237 -0.1846298166570032 0.0777377750810701
-0.2652232076099105 0.27414930865906073 -0.2189868714851962 -0.2898411392720799 0.23091309703304308 -0.16277467728585165 -0.053690908935115585 -0.06329515092736797
-0.4063748939752715 -0.3490528480999883 0.06931576572414658 0.3141981370702303 0.32813483480306316 -0.3861402432020261 -0.32722088447215564 -0.2433510494730982
-0.009526149878602194 -0.17985544528850717 -0.36443684963161654 0.030310791802818076 -0.14579674763822575 0.036133252324911484 -0.08625566692814841 0.22537482740444428
0.10559043129512329 -0.18278613249632603 0.46016911893849133 0.3485526358938752 0.4036153888767067 0.18085139619958537 0.0037561380832689057 0.10810969493255372
0.19708085426551325 -0.3116527440648251 -0.12213037774460007 -0.2913600442892075 0.010045875706216727 -0.4570191248586109 -0.38280581432121813 -0.043028167570275784
0.10412914314709529 -0.25822207955145765 -0.41529030710131676 0.2428109405701345 -0.1850047510103336 0.22136109601264653 0.33721293766780147 -0.04437404653773051
0.04369855215994426 -0.25609044751860377 0.2124707819986511 -0.37975769624511985 0.2633088560742534 0.13901425197717246 0.36126192588683226 0.366683635591394
0.37948877810848636 0.030315483305573498 -0.15010162252305284 -0.4002257575396961 -0.18161237897903212 -0.19613844939718572 0.15486601419231305 0.1289677997339948
-0.2736251146719338 0.2641885046489868 -0.15191726020062055 0.1253320620777232 0.03875407118428229 -0.06417204989966377 0.31963481736963245 -0.16136646088473916
-0.40768216797844964 0.35114784750583455 -0.1912978895958036 0.45921532057893877 0.15052392766417616 -0.36905710926464813 -0.1855658031159309 0.0917721494441039
0.34888191253158696 -0.34372552119040534 0.10553906663496322 -0.23959393627041034 0.25703467272687797 -0.20963642090762077 -0.015222208376591601 -0.13132737065953234
0.12939411231220813 -0.09200266119776426 -0.18143341811535463 0.2705373812486311 0.36585771430314035 0.01898638236298236 -0.1961060228616722 -0.38363343026321095
-0.13624210410855628 0.4543887645478953 -0.039111617931639725 0.28869752079608557 0.3332407545077834 0.027781617590384687 -0.3527425961554345 -0.27718960496822465
0.07669074635685887 0.2206282093213473 0.3746389901946934 0.032838128925382 -0.23153104061186475 0.004107411074553535 -0.11231364142802829 0.11213263882848999
0.31171014582662154 0.4039516317544161 0.1385899909374096 -0.0015803817983397535 -0.1077061670282713 -0.13286958684366676 0.3274811209584038 0.2657799495359358
-0.23323396441410038 0.3039250133470025 0.03274351336215846 0.33454367953235037 -0.35700175792671907 -0.33531555059049784 0.09266643885016923 0.24004622361498482
-0.021350610995836575 -0.3967613094279258 -0.23648849234043562 -0.12696330411525922 -0.36915773676323155 0.012388004662022318 0.03872761988440653 0.1053407417196316

bias f8 [64]
00000000: 42ab d041 fe89 c4bf d95f cb09 7118 d03f
00000010: ad83 5e0e 0931 c03f 134d 1516 7a56 e0bf
00000020: 58a8 9820 dec4 dfbf c9cc bdf7 8084 c13f
00000030: 2468 dbe7 38cb d73f e4bf 051f 6077 e0bf
00000040: a5fd 054a 2e4a dfbf 24d1 f490 ee28 c1bf
00000050: 5e4c 5e99 6ab4 b63f 185d 5fec 58b3 c43f
00000060: fa8e 0929 a957 d13f bfff 8f41 f2e3 c7bf
00000070: 1248 6f58 d65f d0bf 7892 b762 a2af d03f
00000080: f047 1194 d187 d8bf 0cda bacb b960 dfbf
00000090: 9dc0 5745 7f56 d4bf d7b7 5bdb ab97 d03f
000000a0: 75db 8d79 2ec2 c5bf b302 b5c6 f26a e8bf
000000b0: 3dbd 44da dcdd debf 5135 55a0 712d cc3f
000000c0: 30f6 9da1 e3a2 c4bf d73f b0e4 bf02 dc3f
000000d0: a259 eabc eafd d13f 9873 364f 2f95 cd3f
000000e0: 7abf 9c4b 7e2e de3f 6440 0001 a62d c23f
000000f0: 06c8 3a74 ed70 d93f 66ec b627 16f4 cc3f
00000100: a681 822c cb14 e0bf c033 12f1 ca37 c8bf
00000110: 61e6 a18d f10a d73f d4b4 b69c cbf7 d6bf
00000120: 1998 9eb1 4491 943f 6e11 bfb0 f253 d7bf
00000130: 9343 3e13 77be d7bf 6337 586b 61e7 d6bf
00000140: df8c b337 d7a9 c3bf 937e 4dc3 48fe b6bf
00000150: e7fa fbf5 c2fe da3f 72da 9dc9 8b32 c3bf
00000160: 827e d967 a3a4 c63f 3303 be11 a054 d13f
00000170: b677 b1a3 0692 d6bf 2295 7cc5 e2ad d83f
00000180: 7d54 0f1a 2505 d7bf a30a 7b2c 5736 dcbf
00000190: 6c9c 27bb 71de df3f d542 4d3c 80b7 d83f
000001a0: fe8c cbf6 7e70 d83f dcfb be94 4359 e03f
000001b0: c3b4 4f0b 3eac df3f f96b b8b0 6fd8 debf
000001c0: 5479 fc27 6630 c7bf 3a0e beed 86ce be3f
000001d0: f8b3 47f0 2e99 d73f 2b61 7bc6 3d05 e0bf
000001e0: 1745 538b bb6d d6bf 9162 ec54 7afb de3f
000001f0: 8807 d57e 7047 c6bf 30a5 b958 d571 d93f
-0.16046121801022123 0.2514917941712134 0.1264964409029096 -0.5105562621414798 -0.496390849907248 0.13685619446514455 0.3717787040928917 -0.5145722013385208
-0.4889026377568036 -0.1340616424364579 0.08869043583244848 0.16172324697138474 0.27097538955261735 -0.18664386941236263 -0.25584944378090413 0.26071986809100833
-0.3832897134753912 -0.4902786721753791 -0.3177793671775449 0.2592572824640888 -0.16998845038662194 -0.7630552178380497 -0.4822914248970454 0.22013683632614314
-0.1612209834237759 0.4376678212438469 0.2811228604199646 0.23111525886352235 0.47158772834790563 0.14201808022380924 0.397517550950511 0.2261989301603961
-0.5025382870990611 -0.18920265933084401 0.36004294234553497 -0.3588742285163111 0.02008540472129292 -0.36449877987276735 -0.371000069420057 -0.35787234766836756
-0.15362062663834927 -0.08981756942875511 0.4217994119825747 -0.1499800428825498 0.17689936228542896 0.27079011662140146 -0.3526627157751777 0.38561314855390283
-0.35968902153883403 -0.44081668227969767 0.497951920288364 0.3862000073323036 0.38186620808683347 0.5108964829631719 0.4948878393614217 -0.4819602227959759
-0.1811645217175718 0.12033885292299198 0.3687245699391606 -0.5006398083305944 -0.35044754606231393 0.48409899037646037 -0.17405515854812514 0.39757283844535873

weight f8 [64, 64]
00000000: 604d a791 9b39 70bf d50e 3afc 8bea b93f
00000010: aa46 4752 5861 a3bf 63e3 27d4 3bdb 9abf
00000020: 80aa 1061 1f07 a2bf a996 bb84 2169 a23f
00000030: 4614 1ebe aea1 a63f f19e fef4 1057 c0bf
00000040: 9b08 45f1 7142 bf3f 2402 2138 bdc0 b9bf
00000050: eb87 6011 890b b5bf 99dc 6d82 d906 a9bf
00000060: 992a 7622 48ec b93f 1efd 733d 9448 af3f
00000070: 3762 d37c eb21 b93f 8cfc 7189 0c50 c13f
00000080: a5a8 449a 20ee b63f 7a9a 0d27 3fc3 babf
00000090: 90ec f9d7 8729 bebf 4519 18a9 4f74 b8bf
000000a0: f4f7 f2f3 242d 79bf 2074 0aff 0ef5 d33f
000000b0: 18c3 9eb4 6af3 b8bf ba8e cb70 b682 a83f
000000c0: e49b 3129 ee7f ae3f e7eb 2dd0 b952 b53f
000000d0: cbfd 26db 1f89 693f 16c2 88a8 4e1c b43f
000000e0: 7e4c b438 bcd2 ba3f 9db7 be33 29ef bb3f
000000f0: d005 8871 f02f 913f f45e 73df 60ae b23f
00000100: 40e6 64fd 9e70 aabf cb7e b3f5 c3e7 85bf
00000110: 65e3 fe1f 26de b9bf 4a1f 41b1 4265 a53f
00000120: 32db f530 ff6d b33f f1bb 4e9f 92b5 b93f
00000130: 929d 5f30 aaef bd3f 8e3b 4a00 7002 b93f
00000140: b9f7 67f9 9719 b5bf 50c6 12ee 3c5f b4bf
00000150: c4d2 ece0 edb7 be3f 1897 3c6e 5997 b03f
00000160: 3852 ce00 f16a ba3f c0ff 491b d1f4 693f
00000170: 47b5 999b ead2 b9bf b927 0147 9e46 aebf
00000180: 23e0 f34c ee62 a83f 7ee3 c3e5 35ac 833f
00000190: ed78 3cb4 b101 b43f 94d6 5b66 aac7 aabf
000001a0: 42e0 8731 8d4e bdbf cd69 6815 fd4e be3f
000001b0: 4cbc 0517 c4cf 9dbf eb7a 42ef d012 923f
000001c0: d19b 0105 c393 b53f 4b84 4c63 21bb b23f
000001d0: c95b 5351 73fc b5bf bf61 169d 2512 943f
000001e0: ea69 d57b ae01 b03f 01e7 6907 1ff2 b23f
000001f0: df88 7265 6e70 923f a7f3 675a 1eb3 b8bf
00000200: 2fc5 e6e7 640c b3bf 9cdf b06d 2db1 58bf
00000210: e7d0 1aff 4f44 bd3f 31d8 331b c52c b7bf
00000220: 24e1 130f 3406 a33f 5201 576a 8150 bd3f
00000230: 3dc3 b117 ce4e bf3f f24f cab3 ad42 b33f
00000240: ff56 a56d 9c5e a53f 6935 cfe2 e2b0 b23f
00000250: 333e ce56 66e8 93bf 77a8 deb9 0f07 c43f
00000260: 9e64 b242 88c5 bf3f 4faf 387f 0768 b53f
00000270: 219f 25e1 5d34 a9bf 9761 8f1c 77b5 8c3f
00000280: 935f 50fd 38d6 a53f e98c 1606 6b9d 703f
00000290: 4899 5dbf c292 2ebf 7fec db3e 9f2c 65bf
000002a0: 7ec1 875a 6cbb b53f 0560 5bd7 5e52 a93f
000002b0: 43b7 061b 349d b3bf fa6c c606 b42b aabf
000002c0: f0cd aa97 e113 3a3f 25a0 ffc7 a8d0 8c3f
000002d0: 7d01 6f27 8cc2 b1bf 975c 3115 74de 9b3f
000002e0: 58aa be8b 16c6 c23f 1e34 95e9 0e45 b23f
000002f0: 8857 6234 d9a4 383f 9329 fdc4 efec a9bf
00000300: ed9d 648d 388b 993f c3c8 ec1f b916 a8bf
00000310: 2d5d a410 86c8 97bf ba13 f70e 136b 44bf
00000320: 721f 929f 32b5 633f 18bc 499e a4a5 b23f
00000330: be74 33ad 8234 babf ee37 1d1f c09e aebf
00000340: d95d bf8a 2e1f b4bf 1835 eaad a646 b2bf
00000350: c7d5 15b3 1f7d b8bf 047b 5488 70f9 afbf
00000360: 04bd 72ad 3279 adbf f6f5 186a fa34 c33f
00000370: 51a2 0e0b cf9d bbbf d9c7 7928 ee1f b63f
00000380: 83aa bec2 1063 a33f ead5 72aa c496 b93f
00000390: e01c 6855 4813 8fbf 2815 3374 8aed 843f
000003a0: 5a69 15b9 d793 793f 9158 1734 1b5e a53f
000003b0: 6aee a331 a133 bc3f 11a7 2b95 c46d a7bf
000003c0: c76d 5c9b 1b8f 953f 6a87 5c82 084f b1bf
000003d0: be28 163e 0476 9b3f ac0c a4a8 c3f7 b03f
000003e0: e287 953d 5db4 a6bf 5954 a1db 0e9c 26bf
000003f0: 4417 4af6 eda6 b3bf fb4d 261b 5f53 c03f
00000400: 5cb4 2df2 494a b93f c8e0 cf28 3c89 aabf
00000410: e0ba 07ce 0f0f b9bf 5f68 e12f 0357 99bf
00000420: 6eb5 1402 6e3b a33f a366 4840 1089 86bf
00000430: dd99 fbd7 d531 80bf 9dd0 9b09 f041 afbf
00000440: b43c 6123 c21d b7bf 9e12 baa8 0536 b7bf
00000450: c38b b243 f729 b4bf 8594 6698 0966 9d3f
00000460: 2d4f 62f1 b4f9 c0bf 9b59 ac1c 12fb b5bf
00000470: 8c9d a9a6 3def a83f a100 95ae 21aa b53f
00000480: e238 8b49 a7e1 af3f 1830 f57d e3bb a43f
00000490: f303 53e1 2f6a b43f 94c0 8887 1547 babf
000004a0: 8531 a857 74a2 99bf bc3a 38cb 377b d9bf
000004b0: c001 0770 de8d ae3f b72d 2150 019c a43f
000004c0: 5657 464e c65c 72bf b5ec d449 6b00 a5bf
000004d0: e53c d7c4 a87a b83f c580 fb66 9bb2 b73f
000004e0: 70e1 1287 812f aebf ef9e 34d8 ec97 bcbf
000004f0: b2fe 00d0 2e45 b0bf 5a0b 2b82 63b7 aabf
00000500: 919f 0b08 21db 973f c904 0f8a cec6 a1bf
00000510: 1365 e2e6 5fda 98bf 6f43 9954 70b3 bb3f
00000520: f154 4768 bf8b 72bf 3f2a aaf8 6ddb 88bf
00000530: 6322 1c9b 51a5 aabf 4f87 8631 9a9f 833f
00000540: bc70 4f14 aba6 b23f a5a7 b692 7499 a9bf
00000550: 89b0 baaf 24da 86bf 9534 be26 da97 ae3f
00000560: a3af c062 c854 b73f cb4b 9a5c 69b5 ac3f
00000570: e519 e655 f3cb 93bf 5fa1 d5c0 9bb0 bcbf
00000580: 888c fb00 1aca bb3f 639d c08f 13bc b23f
00000590: e019 d70c d013 b03f 1bdd b7bd 74a4 80bf
000005a0: 7b84 17f2 7dc9 a2bf 474f 4e4f 9dca a03f
000005b0: 71aa 2ae0 c1c1 b2bf 59e6 35ad a2a2 b13f
000005c0: f9ee aedc c5c0 ae3f f71e e60a bb68 c23f
000005d0: aa1f fa10 8774 b33f b9a0 138d 1125 8e3f
000005e0: 5124 8683 cf19 a0bf cfd3 33c3 7699 b7bf
000005f0: 46b0 a9aa 5f0e 96bf 4d72 5b36 5396 bbbf
00000600: 89f3 735d 9d7c a13f 9075 b3b4 1d7d bfbf
00000610: 6213 e8b7 d545 bc3f 1323 a18d baba 683f
00000620: 135f f9c7 9ef3 ba3f 8f65 fbd7 3e2f 81bf
00000630: 0415 664c b4e7 bdbf a3bc 00fa 3876 babf
00000640: 30a1 bf49 f726 ba3f f543 b604 69be 963f
00000650: 752f 9cae 0ee8 b93f e7b3 f4f3 f82a c03f
00000660: 3e6b f763 f2ab b83f 04b9 9c5a f101 a2bf
00000670: c5f6 db09 27fd c13f e7e7 fbf1 cd10 b23f
00000680: 1ebf adc0 7554 b83f a715 efa3 1d0d ac3f
00000690: 70ee 300a 58e6 963f f362 cbe3 e906 c1bf
000006a0: 4e9e 6bd9 673e 8ebf b29e ae10 28f9 dcbf
000006b0: a777 a6d3 cb95 993f 635f c814 1eec 9cbf
000006c0: efbf 452c e760 823f ee7b ccf1 3962 ba3f
000006d0: f623 02b0 bdea 9dbf 2d50 2202 ca11 af3f
000006e0: 2cf1 575b befa b7bf 4cb8 8969 066a 613f
000006f0: 2b24 3451 e13e 973f c186 97a1 8621 b8bf
00000700: d375 b4fb 0a1b b6bf 8914 53e1 3226 b7bf
00000710: ae86 7d69 55ce acbf f31c b2b6 78c2 b23f
00000720: e3c1 9991 a9cf 64bf d8aa 4005 beb6 9c3f
00000730: b5a0 fa19 ed75 9f3f 156c fc07 0117 acbf
00000740: 6136 7511 8158 aebf 8bd6 56d3 64e9 993f
00000750: 2cee 79bf 7e6a a03f 8290 59f6 59bd a6bf
00000760: c2ff 084b 4cca 95bf 59a3 800f 4d90 ab3f
00000770: 3611 1656 06bd a43f 3003 32ce 8bfb b8bf
00000780: b915 0443 03a4 ae3f 7324 83ae b0c5 b5bf
00000790: 4783 d922 bb54 ac3f 5f46 ffee 4032 7dbf
000007a0: 0c49 8134 e4ab a43f 13cb ea71 5597 b63f
000007b0: 03b3 a102 293a b73f 00cc 3349 7c29 bf3f
000007c0: 6f96 85f3 61b6 aebf e6ca 427b 5964 85bf
000007d0: 4d3a 9ccd df2e 99bf ced0 7933 c654 bd3f
000007e0: 2e7e a549 4d03 b3bf 5e4f 3a9c 63ab ad3f
000007f0: 23a7 d74b e829 90bf 8043 da98 e630 ae3f
-0.003961188975569158 0.10123515041237437 -0.037852058452370343 -0.02622693521877596 -0.03521059093357781 0.035958335354547906 0.04420229025621629 -0.12765705073001457
0.12210762157795545 -0.10059721584639952 -0.08220726656193704 -0.04888038365509679 0.10126162377688742 0.06110060930404358 0.09817382619383684 0.13525540076441123
0.08957103506387172 -0.1045417280525757 -0.11782120726450018 -0.09552476766848368 -0.00614656862961559 0.311832188666644 -0.09746424588844282 0.04787225844282035
0.059569780853784754 0.08329354603294768 0.0031171438397163734 0.07855693449597143 0.10477806457883962 0.10911805642419244 0.016784436158564564 0.0729733033689362
-0.05164048045339742 -0.010695963798240801 -0.10104597359794594 0.04178818143605996 0.07589716859170606 0.10042683019013034 0.11693824463838201 0.09769344336585403
-0.0824217780973119 -0.07957821667039267 0.11999403706870299 0.06480940762829979 0.10319429654766388 0.003168495570491786 -0.10087457941854892 -0.059132524650137915
0.04762978257525698 0.009605809282662522 0.0781508507757029 -0.05230457782265066 -0.11447985133406838 0.11839277050641002 -0.02911287680165868 0.017649902919056364
0.08428591606353499 0.0731678836277904 -0.08588333831299545 0.019600475037437223 0.06252565882952124 0.07400697642324518 0.01800701612649724 -0.09648313243083227
-0.07440786992699054 -0.0015070861470700475 0.11432361581939042 -0.09052688516735043 0.03715670284322162 0.11450966688335498 0.12229621962047772 0.07523618354235831
0.04173745001268791 0.07301157033289986 -0.019441222236819832 0.15646549773856908 0.12410785320607196 0.0836186109160597 -0.04922765134216279 0.014017992552837906
0.042650013849367195 0.004056375562331052 -0.00023325564660154675 -0.002584754015399648 0.08489110193455038 0.04945656184071371 -0.07661748561687624 -0.05111467917159902
0.0003979135287110738 0.014069861033888806 -0.06937480890974786 0.027215780061251662 0.1466701681468574 0.0713662452955792 0.0003760366711359421 -0.05063580779695367
0.024945148115106553 -0.0470483638258812 -0.02322587467741959 -0.0006231158312678322 0.0024057377564225485 0.07284001221135872 -0.10236374596157113 -0.05980492000399794
-0.0786007965792729 -0.07139055009811945 -0.09565923807334463 -0.06244994796928974 -0.05756529204642827 0.15005426579038755 -0.10787672061872768 0.08642471779037865
0.037865184567029274 0.09995679055540277 -0.015173497301488259 0.010218698187950695 0.00624450938024731 0.04173359881285522 0.11016280614779253 -0.045759337624828096
0.02105372558353993 -0.06761220152523398 0.02681738499590191 0.06628058306891899 -0.04434481980094042 -0.00017249757167073462 -0.07676589262891037 0.12754429650941276
0.0987898079162774 -0.05182826994126938 -0.0978860738757521 -0.024745988652604797 0.03756278777505427 -0.011003615342861045 -0.00790755334260223 -0.061049939320498604
-0.0902978264214081 -0.09066806191737917 -0.07876534846086174 0.02870955460243298 -0.13262044702843792 -0.08586228561430291 0.048700262636709984 0.08462725174195153
0.062268474318999414 0.04049597656793952 0.07974528552132636 -0.10264715727749013 -0.025033777094038995 -0.3981456265036447 0.0596761237861787 0.040252724677511
-0.00448300803363629 -0.04101882244364089 0.09562163167651112 0.09256907715053149 -0.05895619176721112 -0.11169319418388189 -0.06355564668865091 -0.05218039478270127
0.023296848407795393 -0.03471990046774349 -0.024270533053457898 0.10820676865956867 -0.004527805027881402 -0.012137278700966479 -0.052042532142938545 0.009581761013410931
0.07285565610749506 -0.049998896512377024 -0.011158262837249093 0.0597522899907769 0.09113743220285513 0.056071560434382293 -0.019332697027062102 -0.11206983049271944
0.1085525753401716 0.07318231830196491 0.06280231774790179 -0.008126174964657331 -0.036693511774282116 0.03279582589234891 -0.07326900217837264 0.06888787010930154
0.06006449049843172 0.14382112533734645 0.07599682011107114 0.01471914016515573 -0.03144691925542332 -0.09218542352375823 -0.021539206305917234 -0.10776252820091621
0.03415385976584335 -0.12300286924024406 0.11044059505372908 0.003018726693913351 0.10527984983616205 -0.008390894857643242 -0.11681677689746911 -0.10336643317781351
0.10215707350255765 0.022210732376667115 0.10119716418210863 0.1263114157858631 0.09637370052898306 -0.03517107230287489 0.14053810101898115 0.07056891591847113
0.09503875688619387 0.05478756548067603 0.02236306726648113 -0.13302348730828548 -0.01476746685280186 -0.45270730618583876 0.02498548964796723 -0.02824446679923599
0.008973890341366057 0.10306131509103952 -0.029215778224656895 0.06068259502458804 -0.09366979341570375 0.0021257519950302114 0.022700806218413454 -0.09426156468500847
-0.08635014195575445 -0.09042661667906961 -0.056261700751531904 0.0732799001726681 -0.0025404273881621683 0.02804085642871254 0.030723290167458745 -0.054863006806236715
-0.05926898325070052 0.02530438938057115 0.032062493203707326 -0.044413386651997136 -0.0212795182035277 0.053835304396051505 0.04050464440209327 -0.09758828910890993
0.0598450679117763 -0.08504776249459826 0.05533394623194581 -0.007128003737265936 0.040373927506737045 0.08824667006664937 0.0907312041687867 0.12172676837126062
-0.05998521897963093 -0.010445307802318959 -0.02459287350125754 0.11457480198606904 -0.0742691330719871 0.05794822008206667 -0.015784864071895954 0.058966833266032914

bias f8 [64]
00000000: b9f5 9ee9 5a8b b7bf 73c3 995b 0ebd ae3f
00000010: d30e ce1c 60f1 803f 60e3 47d9 7629 8a3f
00000020: e2f0 f1e4 18e4 913f 5566 4b9e 922d b7bf
00000030: ed6f 9f60 8fe0 af3f 209c c6bd 2669 c43f
00000040: 9add 0a41 830c a43f 1763 c9a5 9794 b23f
00000050: 15b7 cb1d ed3b b0bf 17f8 d37e 2e52 9b3f
00000060: df6b 4d7a baf7 7bbf 023e ea15 5519 aabf
00000070: c8a0 28e6 b3bb b73f dda9 9a4a a76b b33f
00000080: 4451 61d3 7359 853f 577e a95c 3fe4 c33f
00000090: 36e7 395b ba66 a23f ff3f b7c2 9cec 9f3f
000000a0: 8780 d9bf f26e bcbf ccdb 1fe2 9911 9cbf
000000b0: 3b2f 67f9 4485 a73f 568c 5ed4 bf2e bf3f
000000c0: c442 e4d9 4f54 a7bf c563 4863 ba98 b13f
000000d0: 89d8 3d69 aa26 ad3f 5a65 deb1 ab94 823f
000000e0: 2cd2 9ab8 039e c13f 766a 945e 3bca 563f
000000f0: 66d1 133b a5ce 71bf 1c60 c4c1 ff94 93bf
00000100: f7c0 b5c4 c25a b6bf 9659 ff27 712b a73f
00000110: b165 b229 f9b8 ba3f 0f76 21d1 eaa2 b2bf
00000120: 8529 8be0 376d 96bf 13b6 6976 2d15 bb3f
00000130: cf6a 72f7 077e b13f 0f39 dbf6 ad60 913f
00000140: b23b 51f9 2a81 823f e407 ae11 57da ba3f
00000150: b2e1 ce32 b938 90bf f910 49d4 26c4 8d3f
00000160: 35f5 a165 57e7 953f 73ff 231f 3aa9 943f
00000170: 7291 28a4 f656 a3bf 9e65 bb4e ebb2 acbf
00000180: e54f c0b4 88ab a33f 63f5 c04b 5550 c2bf
00000190: 956d 324f 23dc a53f 55d4 8405 c09e afbf
000001a0: a302 c7a8 4f87 763f e985 b613 c70c a7bf
000001b0: 663e 500c e671 b3bf 29a0 d1d4 5b0f b83f
000001c0: ed17 d1f2 9c76 b6bf 7476 6e6b c63a 8c3f
000001d0: 94d2 978d 4744 a93f 10cb b73a 3503 953f
000001e0: 90eb c9ad 542a 683f 4c36 59e7 20c2 983f
000001f0: b6a4 0eff f988 b43f 51de 0043 fbb1 b0bf
-0.0919701404918304 0.060036133462637496 0.008272887114578442 0.012774399286159699 0.017471684430788843 -0.09053913464176706 0.062260132355475985 0.15945896402738047
0.039157964410544824 0.07257983968282776 -0.0634144017928658 0.026680685511557636 -0.006828049114882411 -0.05097452061192699 0.09270786637410133 0.07586141177549828
0.010424523247060898 0.15540306114688704 0.03594000209427721 0.03117604196978618 -0.11106793578938055 -0.027410892893353453 0.045938640064916623 0.12180708823011463
-0.04556512389001946 0.06873669551750002 0.05693562063872643 0.009072629323599802 0.13763472093491325 0.001390989282589542 -0.004347463066768453 -0.01912307377014609
-0.08732240011682167 0.04525331128359082 0.1043849684523568 -0.07279842000703972 -0.02190100963597665 0.10579189434948714 0.06832933226761927 0.016970365707316633
0.009035430654106811 0.10489410573612151 -0.015841382719118342 0.014534285882412666 0.02139030988518194 0.02017679991786232 -0.03777285341155591 -0.056052544937936974
0.03841807562289982 -0.1430765743151979 0.04269514409790102 -0.061758042024316374 0.005500136536682606 -0.045019360691423156 -0.07595670509930982 0.09398435540936191
-0.08774739196914512 0.01378397956232933 0.049349056276615816 0.02052004977117422 0.00294987238731665 0.024178041572943607 0.0802150962541813 -0.06521578203034407

weight f8 [1, 64]
00000000: accd 1026 af08 4dbf cfd6 f2cb ec70 823f
00000010: 2154 e474 6fc6 83bf 36a9 bbbe 310c 9bbf
00000020: 84fd c8e1 ead7 b0bf 1b6b 4433 8fd5 933f
00000030: 7f4e ac7b f13b b43f 02a8 f455 3018 6cbf
00000040: a04a 3c79 c0d2 9a3f 97a6 d113 b9e0 9e3f
00000050: 4be7 42ca c5df 5ebf af8f a854 0a14 4a3f
00000060: bc62 a4f2 c870 93bf 7ac9 3975 09d8 90bf
00000070: a725 0914 05fe a83f fc32 6abc 1d7b ba3f
00000080: 8da4 868c 8aae a33f 65c2 5365 bae5 91bf
00000090: db72 0499 dbaf 8abf d5dc da28 49b8 ab3f
000000a0: 9554 8090 5c7a 853f 25d0 fc0f 2ce3 71bf
000000b0: 7431 a38f 937c 853f 07e5 de60 efec 783f
000000c0: d1b7 9082 cdf4 b33f 95e1 2204 d448 ad3f
000000d0: 9ad2 a66e c72f a73f 666c 4139 9937 a33f
000000e0: 8579 3b9d 5225 a1bf 92d9 93ff 5468 b03f
000000f0: e16a ee16 49b1 7bbf 749f 6cca 7bde a9bf
00000100: 2bf3 ce84 10e9 afbf 025e 817c 2f95 a1bf
00000110: 93dd 8175 8eb6 733f ce81 bd09 4995 4d3f
00000120: a12b 0f0c 64a7 48bf b7eb aac5 57db bbbf
00000130: 9fac f791 5230 a9bf fee1 92a2 d123 843f
00000140: 59f0 bcf7 9e86 953f d624 c949 905a 99bf
00000150: dfcc a425 0f1e aa3f 40dd 1d54 caf5 78bf
00000160: 9cc9 67b2 a4a6 883f 42ef 76d0 2a5f a73f
00000170: c30e 07cb fe28 a0bf 3b6b bc0d 39b2 86bf
00000180: 48dc 8ac6 3807 a0bf 8ad7 28db 62e2 963f
00000190: 2faf 5a25 42b3 943f 048f face 3e47 703f
000001a0: a99a ad1d 7f2f 9fbf caef 8abf 10ab 313f
000001b0: a291 2df9 04d4 9abf f22e fd86 9efd 93bf
000001c0: 626a 4ce3 41b3 99bf 9e3e 53fd 5534 a1bf
000001d0: c769 a180 c68c aa3f d30b 8d6c e483 60bf
000001e0: a5bc e30a 241e 673f 3198 9bc0 873a 7f3f
000001f0: e749 9ef0 4ef0 73bf ef44 dbc5 978b 95bf
-0.0008860449999076778 0.009004449819581066 -0.009655829195745426 -0.02641370512621074 -0.06579463970500937 0.01936935186777609 0.0790396620689595 -0.003429502874173985
0.02619457950556614 0.03015412505593548 -0.0018844062370093225 0.0007958460276466984 -0.018984927949619687 -0.016449115543261318 0.048813017555015485 0.10344110345813456
0.038441018728300504 -0.017477905687828605 -0.013030734641284727 0.054140363919424374 0.010487292442159105 -0.004367038840246838 0.01049151689621717 0.006085333892707163
0.07795414388303291 0.0571962599801196 0.045286400086671466 0.037533558119968544 -0.033487874692343524 0.06409198035894395 -0.006760869508890295 -0.050525539836882155
-0.06232501622387184 -0.03434131998863778 0.004812771301764401 0.0009028059607594731 -0.0007523764144193764 -0.10881565643187129 -0.04919679672078669 0.009833944105012368
0.021021350737314346 -0.024759535316012236 0.05101058325308271 -0.006093778940218286 0.012036596960545869 0.04564794344648117 -0.03156276920665626 -0.011082120639505191
-0.031305097805152615 0.02234796965259237 0.020215066461488348 0.003974194856400496 -0.030454622446451172 0.0002695957078164805 -0.026199414929026006 -0.01952216814906555
-0.02509787511653839 -0.03360241620395964 0.05185528106877118 -0.00201601614063083 0.002821989436703714 0.007624178202354102 -0.004867847785038105 -0.021040317012027406

bias f8 [1]
00000000: eaaa eabd fa43 8c3f
0.013801535530850246

weight f8 [1, 64]
00000000: 341a 2995 8b83 aabf d007 d8da b7e9 b8bf
00000010: 60f3 c09d 0781 c33f 06b8 0c86 6785 b43f
00000020: 355f 8a4a 4fca b73f 0f80 d1f9 e7ea c03f
00000030: 82f3 6a7e f2d7 c23f ba5c 0dc5 9b73 bcbf
00000040: d167 4190 6455 ba3f f2b6 bc8d ad7c c03f
00000050: 8550 f821 4be2 a0bf cbec 5987 5169 a63f
00000060: 0dd9 f3e9 6256 c0bf e2ae 52c3 dd12 b73f
00000070: 0ebf f56d 7098 b83f 8339 aa76 c3c8 b2bf
00000080: d6a5 4586 632c c13f 97cb e776 da6c 9bbf
00000090: 6c88 b1b2 cbc4 bcbf 154e 2552 e3a9 68bf
000000a0: 21ac 08df 4739 ad3f 34bf 923c 14eb 92bf
000000b0: 37ca f927 01f6 99bf 5aa7 24ac 59e9 aebf
000000c0: 1bca 70be 083b ae3f b860 238b a3b6 9a3f
000000d0: 704d 0d42 226c a43f 09fb 3a19 fe97 bfbf
000000e0: cacd 7c85 b417 bbbf 2cdb 7f64 c2f9 b5bf
000000f0: 4670 27b0 2dbb c23f b9bd 6495 c68b a8bf
00000100: 478b d2c5 c5fe c1bf abd8 2885 7cba b1bf
00000110: 7b82 35fa 24c7 c1bf a38a 2de8 e0f3 be3f
00000120: d749 f0c8 2d72 92bf c094 5366 223a c0bf
00000130: 9b42 8767 4f8d acbf d742 08d7 f3b8 c1bf
00000140: 30ad fe29 64e8 babf 9637 a421 1276 b6bf
00000150: f510 1dd9 1bf5 a0bf 7e05 2464 92d5 aabf
00000160: 4a19 e62d 027a c13f 811d f9c2 997b b13f
00000170: b2fa ea17 e549 c2bf 1e96 1699 1544 ac3f
00000180: 5f40 fb79 1bc2 a0bf 9f77 23a8 2fd2 b73f
00000190: 611a 96b0 02ae b7bf c447 9595 5751 c13f
000001a0: eade 6337 47fc a6bf 40a1 e588 da90 bd3f
000001b0: 9a06 4a93 4d98 b1bf e874 4b46 34bf a0bf
000001c0: 3405 1eb8 8634 c03f f949 b52b c9fe a4bf
000001d0: 087c 628a 1107 b23f 3988 3fe1 7ab3 92bf
000001e0: 046c b406 2eae a23f 8156 bd80 16f2 c0bf
000001f0: 9996 2930 3b91 98bf 03c2 b906 3d3d b23f
-0.05178486057097978 -0.09731625645511532 0.1523751755029492 0.08016058943459833 0.0929307515128784 0.13216876695787547 0.1472151868128116 -0.11113904534191735
0.10286549112188871 0.1288048688961037 -0.03297648229286757 0.04377226617085624 -0.12763630317176258 0.09013162630679575 0.09607603725975997 -0.07337590834706557
0.13416713768246663 -0.02678243017903589 -0.1123778640044592 -0.003010696397874 0.057077642417731285 -0.018474880406471786 -0.025352495255399368 -0.06037407137257729
0.05904414486612471 0.026087336890527196 0.039887495577796694 -0.12341297260261909 -0.10583046206448113 -0.08584227517699777 0.1463372335555297 -0.047941404091371216
-0.1405875411920425 -0.0692518067452023 -0.1388899060939542 0.12090879124074631 -0.01801368273670242 -0.12677412029657908 -0.055765611064662234 -0.13845680236456445
-0.10510850930466087 -0.08773911782574681 -0.03312003159820335 -0.0524106738321377 0.13653590432313428 0.068292245961052 -0.14288009326806655 0.055206942498710485
-0.03273092140227684 0.09305093626923487 -0.09249893962087576 0.13529486469138707 -0.04489347983502319 0.11549154131137573 -0.06873020978857838 -0.03270877225961916
0.12660297384358332 -0.04100636156603694 0.07042035702259863 -0.01826278686338176 0.03648513633580566 -0.13238793645966854 -0.023991513075449864 0.07124692358207345

bias f8 [1]
00000000: 7562 a34b 9428 bb3f
0.10608794066082246

weight f8 [64, 4]
00000000: a619 c1c0 58c5 84bf 0613 9115 005f d73f
00000010: 04b7 3a28 9d98 cd3f e1c6 2ba5 727f d7bf
00000020: 31ad fd67 c549 d43f f29e 2cec 8dfe dd3f
00000030: 33fe b105 97bf a9bf 6d43 a6f3 e858 d83f
00000040: a0f1 f373 8c97 c5bf 09e2 ffbe 6c97 d1bf
00000050: 0eb7 2041 d4d9 d5bf 1222 257b 78db cabf
00000060: 756d 07b1 01a3 c43f 0d61 8c1b 5629 d23f
00000070: 5df7 7556 3005 d43f a60a e8c3 20f5 d4bf
00000080: 096b baf8 0a76 96bf ca14 83f5 7ce1 bc3f
00000090: f13e 2692 8615 d0bf 476e 9f6e 8a73 ce3f
000000a0: 4e9c fd81 c317 d3bf 72a9 8926 8b8a 94bf
000000b0: 4bb9 f448 4840 cebf 31c1 68bd 2baa d03f
000000c0: f463 3081 3911 d63f b38e fe27 288f ab3f
000000d0: e896 d392 b76c 8dbf 5ad4 b7fb 5efe d8bf
000000e0: a3c1 a3f6 6826 c4bf 3c5b ac62 0d8d c9bf
000000f0: a972 ac3e 4614 d5bf 1bf8 8061 3ea3 c63f
00000100: 0699 8f39 84bf ce3f a4b8 7d29 51d6 bdbf
00000110: 7a4b e1a4 86b5 bebf 6a0a a7ad 494f da3f
00000120: 61f8 4721 1f99 a7bf ee3d 611b d7d0 b73f
00000130: 3c54 6fa9 3977 d43f 9a29 b136 db29 be3f
00000140: 7027 1c46 d0d1 86bf 72d8 0644 325f adbf
00000150: bc13 7509 e71f a73f d268 e1e1 f3e4 d33f
00000160: 8640 972d 0e53 bebf c163 a18e b2aa c5bf
00000170: 01cb 3426 87ca c0bf 97b9 b608 03a6 d1bf
00000180: 4166 72a8 7a61 b83f 8da3 ed2e ca6e 83bf
00000190: 771f 9ea4 66a5 c03f 8b66 c94e b60a a2bf
000001a0: abac 37b1 026b c1bf 2501 b5dd 24f8 c53f
000001b0: 72e0 a9ef 9392 dcbf aa6c 0d52 a3a7 e0bf
000001c0: 81d3 fe78 6dec d23f 28b7 8d26 be7f cabf
000001d0: f116 e9ef 7930 b5bf 3f02 572d 3168 cb3f
000001e0: f49d d241 aaf6 cb3f b241 0a46 0942 c2bf
000001f0: 663a fc9e 368e bcbf e1a1 5c4d 45a1 d3bf
00000200: 2558 905b b5b3 d1bf 62ac 2a5f 98f6 9ebf
00000210: 3ce1 1f80 8734 d83f a3cf 7e27 13cb d23f
00000220: efcb 8e98 cb2c d23f 97df f475 279d dabf
00000230: 57b3 e6a7 ff57 cc3f d3ef 2ef8 503b 993f
00000240: 0932 fc1b b541 b7bf 88b3 c7a5 e26e bdbf
00000250: 7505 9b35 9261 b03f ec27 7183 9c92 d03f
00000260: 48ab 9d03 9d59 d43f b0f5 23be c995 b6bf
00000270: 76c9 c187 e773 a2bf e4ed 1b4d 153c d8bf
00000280: 042b 877b 2402 e13f ac62 ff5f ebc3 c23f
00000290: ad83 2245 94e6 dabf ab76 1b51 670b bb3f
000002a0: 61a9 a384 1120 8c3f b0c9 2e9a 7be4 bfbf
000002b0: a6ff f889 49bf a5bf 9e30 ecf9 79a0 c2bf
000002c0: 19cb d6f6 8405 dabf fca3 26f0 e269 dcbf
000002d0: d5a7 fd13 f94d d53f 97b4 a0aa a323 ce3f
000002e0: 1bce 9f80 9a35 a23f 0b3d 40e6 a855 d0bf
000002f0: e71f 00c2 41da 6e3f b8f5 83b1 17b3 b0bf
00000300: b606 16e4 d672 c9bf 522b 54f1 a891 c63f
00000310: 2ac3 aefe 20f5 a63f ccd0 f719 6c14 d53f
00000320: ca8a 4a98 749c c6bf 39e4 3ebb 44ad df3f
00000330: f21d 7ae1 9b7e d1bf 8947 002e 48cf d1bf
00000340: c148 3e49 0c89 b5bf 1a77 8e9c 97bc c1bf
00000350: 66ec 653b 28b6 c1bf d78e a67e dc67 c9bf
00000360: 7ce9 4711 3547 d33f 6dff 6f78 5fbd a53f
00000370: 01ec ea42 da24 59bf 4cb4 f9c0 31ea b9bf
00000380: 7a27 95cb 24c8 c1bf 5578 6e0e b068 d6bf
00000390: 20ee 266d 17d2 ba3f 32ed c733 402b cabf
000003a0: 7fb9 68b8 1b1b 9cbf a8fa a958 3df6 ccbf
000003b0: 6e5f e5dc fea1 c7bf 9cee 24c6 d1e7 b33f
000003c0: 4259 50a4 5bf9 d0bf fb79 877a cd8b d13f
000003d0: 98d6 020b b307 ccbf 8eca 4d4e 818c d2bf
000003e0: 444f 790d c28e cd3f 1a1a f260 92d5 c4bf
000003f0: 02bc 9922 5b7d abbf e898 f455 3e32 b0bf
00000400: 2e44 e4a8 7502 dabf 835f cd29 3657 d6bf
00000410: 1c61 c224 97be b13f 2781 6968 e618 d43f
00000420: 5b5c d68c dcff d43f b0fe 8288 97b6 d8bf
00000430: ff37 12ec 2af1 d4bf b467 9009 f227 cfbf
00000440: f5aa 790d da83 83bf b095 94a3 5205 c7bf
00000450: c93e 4ab7 eb52 d7bf 01d2 bf69 760f 9f3f
00000460: 3cf7 c314 dfa8 c2bf a2a1 508a a281 a23f
00000470: 16c1 43a9 a214 b6bf 335c 925f 5dde cc3f
00000480: ea95 5f85 4e07 bb3f 47e8 6385 8664 c7bf
00000490: 30c4 f14b 8b73 dd3f f214 9581 2a52 d63f
000004a0: bd11 18e5 d2d4 d93f a34a 234f 7d25 c73f
000004b0: afb2 78f8 9ead 6e3f d7ec 1900 9eaa bb3f
000004c0: 4c2f eb13 fb3a c93f efae 9b67 eef1 d3bf
000004d0: 5276 44f8 2b44 bfbf 9ee8 6399 6ca4 d2bf
000004e0: 4359 ca00 fd9d 843f 08ad 977a b73f ddbf
000004f0: 0343 dfb8 e57f d8bf b050 9960 43ff a5bf
00000500: 757e 0969 aea8 ba3f 8402 7141 8c86 d0bf
00000510: 2560 cdc2 1c94 dabf 18ea 55ae 5416 cf3f
00000520: 4c96 c90f 8bae c7bf 3784 86c0 7555 cc3f
00000530: 5879 5c07 e994 d53f 94d9 7e6a 86bd a6bf
00000540: 93f5 39e8 785f a63f f03a c1b2 8563 d0bf
00000550: ed68 5fd1 7e32 cb3f 1abd 4d81 904d d8bf
00000560: ff0d bf5d 39da d03f 42a0 1aee 8ccc c13f
00000570: ea89 1d26 091f d73f 6472 fb7a 937b d73f
00000580: 74f0 90c5 b349 d83f bcdc 5d5f 060d 9f3f
00000590: 32b7 168f 7236 c3bf ea24 1976 9c9c d9bf
000005a0: cb2e fe53 133f c7bf 0cfb 271f 031b c9bf
000005b0: 86aa f090 a1d2 c33f 4591 c243 ff81 c03f
000005c0: a71f c537 1c83 d1bf e25a b865 66e8 d03f
000005d0: fd1c 6b4a 4872 c3bf 7ad2 5376 cd0a c03f
000005e0: c215 a78c 2dd7 a33f 9c46 58d3 436d b0bf
000005f0: fb25 c20f e674 d43f 5265 45aa 53a7 c4bf
00000600: ac81 6032 6d17 dabf e481 4b2e 3279 d63f
00000610: 8c69 46a7 6a7c c8bf 7e85 b6ed fb63 dd3f
00000620: 394a 8ef8 e443 c33f 664c 7459 ec9e d7bf
00000630: dcc0 f945 95c0 c7bf 9db6 b0ad 147b b73f
00000640: 3e71 9d3a 0854 d63f 9a67 8592 91ff d5bf
00000650: 0667 7177 c604 bb3f abad f667 18ab cebf
00000660: 3512 dbd1 5173 d03f 0da0 f20e a5d5 cabf
00000670: 3965 cca4 4330 8fbf 05a1 6eed 24d0 c0bf
00000680: c6e7 00d0 0790 c03f 4bed d05f 1b8d b7bf
00000690: 3d94 7a79 3939 c7bf 3678 a298 ba50 d13f
000006a0: 7b01 c0d6 2b6a d73f e206 4ce5 cd6f 933f
000006b0: 480f aca4 091a c9bf fb3c dd6d f78d d8bf
000006c0: 357b 5e9b 9b6f c1bf 5bb5 a308 cf14 dd3f
000006d0: 305d 8197 8307 a4bf 2a3e ab12 d67a d23f
000006e0: 85e6 7862 d253 d53f eb8b 7b92 6e72 9c3f
000006f0: 4948 edc3 5193 d6bf 6c9a 3fad 59bd d1bf
00000700: 16cf 38a3 d3a4 b33f 495e 1104 363e cc3f
00000710: cd2e a664 16fa d73f 0c13 8df6 65e7 a03f
00000720: 6cf5 d32b 63a5 cdbf fdcc 3aea b8a9 703f
00000730: 049c e4d7 9fc0 bcbf ce6a 8f3f a09f bc3f
00000740: 181c e04d e2f2 d33f 7cee d1f5 47da d93f
00000750: 028c 1bf6 81bd c13f b0db 42c4 c23b 5abf
00000760: e0ee 28de 7392 bbbf f809 396c e401 c1bf
00000770: 7c0b 0e24 74f5 d43f e806 cf66 9002 d13f
00000780: 596c bcb8 bdda cdbf f8ef 6850 6673 d33f
00000790: 1511 03b6 6ec2 a03f 63f7 e517 f168 d53f
000007a0: 3fea 76d1 fed8 d6bf dd12 f3bf bc75 d5bf
000007b0: 909f 7d1f 05b9 b73f eaf6 c698 aeba ce3f
000007c0: 38d4 aa96 1fe6 95bf c9aa bed4 c564 d9bf
000007d0: 9f89 5054 4645 cebf d116 e6fc 7844 c0bf
000007e0: cfe0 5e69 1da0 d7bf f227 3228 7567 893f
000007f0: e336 d57c 4ed4 a33f 7ba0 183c eef9 ba3f
-0.01014203394164499 0.36517335992930133 0.23121990646671275 -0.3671537983892517 0.31700263171542803 0.46866176666161075 -0.05028984016916773 0.38042663377659985
-0.16868739759219142 -0.2748672356824789 -0.34142023430000357 -0.20982271206800412 0.16122456687922307 0.28377297106045846 0.31281670039594706 -0.3274614251278457
-0.021934672766842165 0.11281567567774001 -0.25131382248308315 0.2379010238790775 -0.2983254212799168 -0.020059751727254 -0.23633674204161034 0.2603864049624632
0.3448013078319143 0.05382657516682112 -0.014367517631807172 -0.3905255754646696 -0.1574221805854111 -0.19961707418470975 -0.3293624507948985 0.17685680161406556
0.24021961985199186 -0.11655146849600101 -0.11995736623184242 0.4110893436265203 -0.04609010010970916 0.09303039949849509 0.3197769312512866 0.11782617650275143
-0.01114237512549085 -0.05736691551594299 0.0451652716679187 0.3108491617073358 -0.11845482457215625 -0.16927177395225892 -0.13118066182649815 -0.27575755930856743
0.0952374135253189 -0.009488658482682566 0.1300476363942342 -0.035237977139968533 -0.13607820180127325 0.17163525414981354 -0.44644640354773124 -0.5204636194788652
0.2956803971858833 -0.20702340013979748 -0.08277093989553543 0.21411719049321395 0.2184651204490674 -0.14264026565480276 -0.1115450037143347 -0.30671818308704074
-0.27659353200704323 -0.030237561043275803 0.3782061339584464 0.29364470345466936 0.28398408792708 -0.4158419277114204 0.22143550585078728 0.024640336177739485
-0.09084636624556465 -0.11497322604527771 0.06398881729821489 0.25894844852575605 0.3179695639907334 -0.08822308437443982 -0.03604053051175786 -0.37866718797860544
0.5315115368515255 0.14660398661978513 -0.4203234362740272 0.10564275484235945 0.013733040676431942 -0.12458012117602979 -0.04247503098713361 -0.14552235320332313
-0.4065868769204584 -0.4439627976631184 0.3328840918753689 0.2354626258033121 0.035565212441636095 -0.25522825704042934 0.0037661823589623003 -0.06523273548005804
-0.19881712090505282 0.1763201883662427 0.04483893498343712 0.3293714765161553 -0.17664964138119493 0.4949504688807483 -0.273352594559099 -0.2782764863233003
-0.08412243641058394 -0.13856787819252575 -0.13837149524974562 -0.19848209556686555 0.30122114837254066 0.042460425807802384 -0.0015346652468639645 -0.1012297721988073
-0.13892040195997507 -0.3501396313603256 0.10476824202390178 -0.20444490936629617 -0.027447159891545333 -0.2262646372727961 -0.18463121210038075 0.07775603377825252
-0.2652196030261572 0.2741578766416805 -0.2189849666371415 -0.28982575079786776 0.23091912897018052 -0.1627676938407639 -0.053690765355774786 -0.06326665495416572
-0.4064001225788755 -0.34907297212839 0.06931442878192623 0.31401977726456426 0.3281165480961527 -0.38614452677937106 -0.32721970609497925 -0.2434065386485692
-0.00952883103965039 -0.17984993922543202 -0.3644360818807227 0.030332422451424538 -0.1457785464662552 0.036145285972739374 -0.08625237114370451 0.22553603331172808
0.10558024173914018 -0.1827552939719814 0.4601772538799791 0.3487650170757909 0.4036147343870445 0.1808315884032555 0.0037448983091706504 0.1080721616980783
0.19711245033829028 -0.31164131277067403 -0.12213396846024097 -0.2912856576873625 0.010066963755246966 -0.4570139596168734 -0.38280623487393955 -0.042963128606659295
0.10413637222654322 -0.2582121504856689 -0.41529006026894627 0.2428689814804137 -0.18501413603660166 0.22135803127915363 0.33721376150960714 -0.04441471147531498
0.043697145793866764 -0.25607435661815625 0.21247849677349198 -0.3797341597300644 0.2633193412295611 0.1390548861138559 0.361269271108681 0.3669174862859903
0.37949842732974237 0.030323123522489878 -0.15009910570864232 -0.4001837876608777 -0.1816124115106191 -0.19613684674546794 0.15486545159486215 0.12896719750018285
-0.2736273331288381 0.264184569679328 -0.15192512162887076 0.12532966878611146 0.03875105230285271 -0.06416725072656465 0.3196349290743396 -0.16135640920655675
-0.4076798431360895 0.3511472179507378 -0.19129689376570658 0.45922754491956386 0.1505094731952157 -0.36907490478296834 -0.1855646697690706 0.0917218135880042
0.3488789150631141 -0.34372367199613907 0.10554161468590104 -0.2395964152941422 0.2570385503170514 -0.20964492063399157 -0.015228775469540256 -0.13135205834738187
0.12939546257422146 -0.09199687089215051 -0.18143385345061516 0.2705523005078051 0.3658551785629453 0.018981186981369975 -0.19610710659628183 -0.3836649487393086
-0.13621850096111535 0.4543950638170224 -0.039119827503493076 0.28874732802521186 0.333241077579807 0.0277802731424223 -0.3527416623447875 -0.2771820251349826
0.07673380598935994 0.22064852903962365 0.37463912800806726 0.03301542887360229 -0.23160972251927647 0.0040681098213781715 -0.11231421490502674 0.1118106990028693
0.3116994629385217 0.40394782071937363 0.13859581486676126 -0.0016011621492404253 -0.1077034394629055 -0.13287024769131484 0.3274813034151334 0.265781498335953
-0.23323794861139183 0.3039184365513843 0.032733401983508305 0.3345301373845954 -0.35699434714812023 -0.33531111474102976 0.09266693133179005 0.24007208309006184
-0.02138566357708191 -0.3967756822191118 -0.2364890968029387 -0.12708961819242018 -0.369147637272829 0.012404361046964827 0.03872914575422983 0.10537613837425568

bias f8 [64]
00000000: 20d0 db90 b989 c4bf f6bf 4643 9318 d03f
00000010: e536 8b1f 762d c03f 17c6 d116 9756 e0bf
00000020: cfdc 910e 32c5 dfbf 5deb 0ae3 4882 c13f
00000030: 5866 ee6a 3ccb d73f cad8 0167 6877 e0bf
00000040: fd71 3524 8e4a dfbf 84f2 f285 ab28 c1bf
00000050: d0fd dcbe 93b3 b63f 702b e3dd b1b2 c43f
00000060: 533c b791 ac57 d13f 0c71 5f42 c4df c7bf
00000070: 52dd 39b8 f85f d0bf 5204 b8b5 fbaf d03f
00000080: de55 8dd6 1188 d8bf 86c8 d10d e360 dfbf
00000090: f5ed 1d68 be56 d4bf 9662 0551 a397 d03f
000000a0: 2dcd 3bb2 efbb c5bf 83d4 3abf 4b68 e8bf
000000b0: 7cba 8adb f2dd debf bed9 92b9 952d cc3f
000000c0: 54ec f731 b3a2 c4bf a494 76d3 d802 dc3f
000000d0: 96af 9083 ebfd d13f 4d29 ecd3 b895 cd3f
000000e0: 9766 c622 7f2e de3f f2ae 3d69 e32d c23f
000000f0: c942 8584 2471 d93f b7fd 9cad 65f4 cc3f
00000100: d05d cb8d 0515 e0bf 38d4 f482 f837 c8bf
00000110: ca55 7eb2 1a0b d73f 8337 5ee6 90f7 d6bf
00000120: acf9 33d7 f098 943f 39ce d5de 5954 d7bf
00000130: 9c34 8ba5 41be d7bf a3ce b160 45e7 d6bf
00000140: 87ab eb49 78a9 c3bf 1d5d 6b6f 7afe b6bf
00000150: cabd 7cc6 1fff da3f d658 4808 7830 c3bf
00000160: 3420 ef05 09a5 c63f 2048 b568 b154 d13f
00000170: 5d12 324d 2892 d6bf 6737 cd8f 03ae d83f
00000180: 4749 e1f4 2c05 d7bf 1f10 1346 c536 dcbf
00000190: d856 701f 86de df3f 88ab 6bd0 59b7 d83f
000001a0: 4faa b930 9f70 d83f 2598 813e 3859 e03f
000001b0: f9bb d983 65ac df3f ab02 caf0 82d8 debf
000001c0: c000 8899 972f c7bf 8109 5e4e fcca be3f
000001d0: f1ee 0977 2599 d73f 5446 4d57 4205 e0bf
000001e0: c19c 57ff e86d d6bf a4b1 f7de 9ffb de3f
000001f0: d4ca 389b e147 c6bf 8bfb 37b0 4072 d93f
-0.16045302937675476 0.2514999539371269 0.12638737240052147 -0.5105700917903871 -0.49641086027936593 0.13678847395007213 0.37177954142098235 -0.514576150117841
-0.48892549072277786 -0.134053650288383 0.08867762956378233 0.16170333227486422 0.27097620229773617 -0.18651631584987916 -0.25585763922523086 0.26074116464594
-0.38330503418305095 -0.4902885088878367 -0.31779441993396 0.259255246278863 -0.16979786112606501 -0.7627314314801342 -0.4822966712917276 0.22014113961422582
-0.16121520938745226 0.437673765666043 0.2811230454269603 0.23113165233400892 0.47158792873379113 0.1420254005309896 0.39753067914447776 0.22620841004571243
-0.5025661248609428 -0.18920809168199226 0.3600527518368294 -0.35886023041609166 0.02011467278952643 -0.3645233799099717 -0.3709873310697931 -0.3578656620295339
-0.15360931023982635 -0.08982053013038578 0.42182154067537836 -0.14991665272163485 0.17691147603750468 0.27079425073054786 -0.3526707414496622 0.38562096636893844
-0.35969089426102524 -0.4408429321595139 0.4979567820567872 0.3861908469540869 0.38187389143300704 0.5108910771202814 0.4948972499468592 -0.48196481241761074
-0.18113989826816201 0.12028481400742487 0.3687223112572005 -0.500641985427317 -0.35045838294758985 0.4841079404275439 -0.17406864241782805 0.3975984307179991
