models/model.pkl (torch_old, 80402 bytes, 18 tensors)

action_log_std f8 [1, 1]
00000000: e791 b732 7953 ebbf
-0.8539396277015471

weight f8 [64, 4]
00000000: aee0 1f3a 7f81 abbf e19a cb45 adf9 cb3f
00000010: 66e6 c287 5437 9d3f 5889 5cf8 695f c0bf
00000020: c062 acd1 42c7 c03f ee99 9548 162c c73f
00000030: 89d8 241c 5a17 b33f a68a c1e5 94bd c33f
00000040: 3e8a 5526 0fc4 99bf a607 32d9 fe32 c1bf
00000050: dd62 17ad 2d8e bfbf c4db e1b1 59ae b2bf
00000060: 4532 db2c 246a 7cbf bb83 9a47 251a b83f
00000070: 4784 7fac 792a b23f eabb 8160 cdc1 b3bf
00000080: 351f 5cee b02e 983f 4d23 00aa 4449 953f
00000090: d926 df37 09dd a7bf 4c7d 4e55 9a69 b03f
000000a0: 5ad2 1a5c de0c c8bf 5d50 1e3e f157 993f
000000b0: 6fb3 128b 1b8a aabf 358d 382c f376 6cbf
000000c0: 8ff8 5ef5 cce7 b83f 8c70 101b 593e 7bbf
000000d0: 796a 5e52 d9df a6bf b91d ef14 5349 b7bf
000000e0: d99f 999e 2dcf 943f 7304 c5aa cb56 a0bf
000000f0: 15cb 79ef d125 bdbf 63fb 8b3e 5149 6dbf
00000100: 889c d51a 4c80 b83f 6c5a a9e4 4c89 b2bf
00000110: dce8 91a2 71cf ae3f 43fe 6ebd de2a c63f
00000120: 9a5a e27a fe66 a63f b8f8 e4b2 2479 8c3f
00000130: 276d 5a0c 0f78 b53f f50d 9289 7cfb a73f
00000140: 1f0b 618e a7a6 5d3f 202c 56a2 0f2c 81bf
00000150: 86f8 a484 5974 b53f 32b6 d5a0 74b6 be3f
00000160: e741 134f 6c95 b3bf da69 645f 7408 a5bf
00000170: a965 9744 548a b4bf f928 02dc 08a6 b9bf
00000180: 1e15 37b9 3920 a03f d68b e1b7 d581 92bf
00000190: b1e1 bf0b 3817 a23f 8cc3 ad26 5322 a43f
000001a0: 9925 dbdd f1f3 a8bf 9996 fd14 48d2 bc3f
000001b0: e485 e91b 3a6e cfbf a097 9ef7 97c0 d0bf
000001c0: e84e 3041 9528 bd3f 69ad 3b83 2849 b7bf
000001d0: 721c bdcf 072a a63f 3c33 28a3 231c a83f
000001e0: c43b 6ddf 620b 893f 97c8 3c74 ce3b a0bf
000001f0: fc94 fd5b 54bf b6bf 8c3b 7bc4 a6eb bebf
00000200: 8a4f 6196 e22d babf da06 9eb5 5e88 70bf
00000210: e19b 360d cf53 c33f 0c55 1140 80ee b63f
00000220: 7395 3624 a397 c03f 4843 38cd d4f4 c5bf
00000230: 3beb 985f 1bc2 b63f adfb 7de9 0464 ad3f
00000240: bef3 7773 9960 9f3f 39e2 c789 6c34 a7bf
00000250: f244 16eb 220b b33f 3fd9 259e 28c0 b93f
00000260: c9a6 cdaf d655 c53f bb3e 97ea 2f0c a8bf
00000270: d7c2 e404 d3cc 9bbf 073c 6a4b 57db a0bf
00000280: 0946 df6d bc01 d03f 0e83 61dc a6ae b23f
00000290: 369a 4618 9d70 c6bf 5786 448d c98a b6bf
000002a0: f9f1 970d 1f5b bc3f ec82 512c 1d1e 85bf
000002b0: 67a9 52bc 0a09 9a3f 8797 b248 61f6 943f
000002c0: 631a e06b 63c3 c3bf 1f05 3d8c 9201 c5bf
000002d0: df81 72f2 6263 bc3f d60a 3c7d 57cc af3f
000002e0: c393 7539 3ed3 943f d820 62ba 933b b5bf
000002f0: 1c0e d9a2 27d4 9b3f e3a5 7f5f f0ae a53f
00000300: bd07 b4c4 65b8 83bf c706 cb50 9fc5 b13f
00000310: fa95 8fbc 16cf ba3f b583 f632 1e46 c33f
00000320: 9c67 ba98 2ce6 bcbf 371b 30c5 876a c93f
00000330: a8ad 0446 8491 bfbf bce1 c955 4911 bcbf
00000340: 6d2f 2634 eae7 a1bf a488 3854 e19a 81bf
00000350: b5e2 a52b 91bd a6bf 34c8 da07 fbc7 a7bf
00000360: 6c77 93bd 9b79 c13f 1ca3 64fe 792e 96bf
00000370: 19de d12d 6ee2 8f3f 05ef c28f 283e 9d3f
00000380: deb9 eb9f 1541 aabf 1a90 c87b 5d02 c2bf
00000390: 350e d782 9e0c 53bf fab7 3eec 1993 a6bf
000003a0: 0da5 984e 59dc a23f 477b 6a89 72c6 b5bf
000003b0: e40b 64d6 702a 8a3f 1aa0 9340 5f74 a13f
000003c0: e53d 1ac4 aed8 bfbf 273b c0ce dc73 bc3f
000003d0: 60a1 d06d 4996 bdbf 4972 a44a e5d4 bdbf
000003e0: 5551 b425 3ac3 ba3f a930 752c c11b b2bf
000003f0: 0ac0 e17e 5581 963f 45a2 2a95 ec8c a13f
00000400: 3197 a46e 5f29 b1bf 06d4 fcb5 7e58 babf
00000410: cf7d 306e 678a b63f 441b 92fc df6d be3f
00000420: 335a ef68 aac4 c33f 001a f7d4 cbee c2bf
00000430: 9410 e83e 3270 bdbf abb0 218f e6da b8bf
00000440: ac7a d5a0 99f2 aa3f 4128 8457 1dbf a7bf
00000450: 6a6e 9bdb 8499 c2bf dfc5 b3b4 be22 a1bf
00000460: b465 6335 007f 90bf 1755 7748 51a9 8a3f
00000470: 5573 d314 5536 70bf 9760 d2ea fbf3 82bf
00000480: 98c8 5118 aa0f 9d3f 60e6 e752 e4b3 c0bf
00000490: c12a d983 7de4 d13f 35c3 28ba 9935 ce3f
000004a0: ef3e 4d56 fc64 c73f add9 3691 eb53 a53f
000004b0: caf4 66a6 166a 6ebf dbcd e1f0 aab9 783f
000004c0: 17aa 5dc3 0045 b13f 2ef7 07a8 a39d b3bf
000004d0: c584 2922 984f abbf 5516 7fdf 4e97 b1bf
000004e0: 6a5e d5f2 dc78 b13f 65fe 72d4 24bb c4bf
000004f0: bcee b6e8 4c6d c5bf 1797 0881 8d5a bbbf
00000500: 5eeb d235 da3d b43f b149 81f2 ad98 c0bf
00000510: d715 9c9d 7a60 c1bf 3215 454a 3d2a 82bf
00000520: 4bbf 4ba6 3641 c0bf 4eb9 1dc7 3cab c03f
00000530: 6c8b d5b9 babd b83f fbf8 bd34 455c 903f
00000540: d055 d380 ed47 97bf 9fd8 af13 47bb b7bf
00000550: ccb5 8ff6 166f 83bf 068f 6d42 1157 c5bf
00000560: 0f1a 3cff f8aa b93f f489 3412 6cb0 aa3f
00000570: f8fe 4ab3 f5a6 c93f 7639 52a2 ad91 c33f
00000580: ab34 3dd5 4b14 b93f aaa3 6cca cc14 893f
00000590: 363f 8613 75f2 c1bf 74b4 db0a 0813 c7bf
000005a0: 7db3 923c 9979 a6bf c08e e0b1 0029 a8bf
000005b0: 1d84 8c63 1ef8 9d3f 0ffc ad1b 7368 9d3f
000005c0: 94a0 3dad 6324 c1bf 87e2 b135 fafb bc3f
000005d0: b0f8 3d2b 2877 a8bf 8231 9df3 b183 a9bf
000005e0: 39df 140d c904 93bf cd98 6b23 5994 8ebf
000005f0: 3588 3ef3 6ed2 ba3f cee8 68bf 2fe8 723f
00000600: 0b05 6ffb a71d c3bf bb94 6491 0979 c53f
00000610: 4c59 2d9e 8fb4 a73f a177 cf60 6786 c43f
00000620: 1da9 c121 a029 b33f 4cd3 c833 4ec6 b9bf
00000630: 4452 f87d 6b3c a1bf 4abb 7e94 a447 98bf
00000640: 841c 73fc a632 c83f edd6 8e03 289f c3bf
00000650: db40 5a30 4766 9e3f bff2 4088 7e8f a83f
00000660: 9acc c947 accc c03f 4a0c bf22 6b39 b5bf
00000670: 7c0f fbdc 7ad3 963f 90b5 ee68 8177 a43f
00000680: 6474 f4a8 0653 a43f f6b8 91a7 46e5 a1bf
00000690: 6d19 6aad 34a1 6f3f f46a efdd ed28 ac3f
000006a0: 5176 4bb5 62c1 b03f f15f d4da 7d51 7b3f
000006b0: 6244 8fed 609e c1bf eb14 74e4 080c c6bf
000006c0: 3783 e79a 73a7 afbf 5d0f 8f23 030c c83f
000006d0: fb5b 3223 780c ac3f 22bc 788b 69f6 b13f
000006e0: 5a34 d8b1 c622 a63f 7b1d f77c 81f0 82bf
000006f0: 26e4 db41 0b27 b1bf e56a a7c0 437a b8bf
00000700: 3e12 fb1e c695 a63f 4f03 4f9f 1108 b23f
00000710: 1483 6a21 fce1 b93f 3dc5 3d74 46f3 a53f
00000720: 695a 803d 79d9 bdbf 48ca 269e 763d a43f
00000730: a6c5 265e 42d2 87bf 501f 8e54 df73 10bf
00000740: c592 43b5 1621 b53f 2449 8b3f a7c1 bb3f
00000750: 7708 931d df9d 9b3f ed4b 5732 2dc8 963f
00000760: 4648 ab2c 88de a63f 7e98 1c0c 0d7b b0bf
00000770: 8997 0f02 63bb c53f f61d a380 0417 c33f
00000780: a219 7074 69fa 98bf 5c5b 997b 1033 bb3f
00000790: e1ad 1970 d0e6 b63f f8be c981 49e0 c13f
000007a0: 37e5 2d61 2f1d a9bf 769b 1727 7f44 c0bf
000007b0: a764 cb9c ecb1 a83f f8c5 59fa 6a82 af3f
000007c0: 1071 0d6e bf3e aa3f 473b d062 3a40 c4bf
000007d0: e094 fe9b 93c8 b9bf 4359 012c 74cd b6bf
000007e0: 87e8 a631 3858 c9bf 0c5e cafb 4718 a93f
000007f0: 5fe2 3b49 29ee 863f ed8c 47bd fa48 843f
-0.05372235855605943 0.21855703266120144 0.02853138044949901 -0.1279118025496 0.13108096349676224 0.18103292984160596 0.0745750731192364 0.15422307222896342
-0.02516196891282107 -0.13436875920529906 -0.12326322055686086 -0.07297287552670101 -0.006937161740733948 0.09414895055898757 0.0709606214654893 -0.07717593771097567
0.02361561255295826 0.020787308574685515 -0.046608245916628106 0.06411137182884835 -0.18789271828940707 0.024749535957724656 -0.05183492729825089 -0.0034746884791886598
0.09728699675085493 -0.006651256627289947 -0.044676581673418654 -0.09096259366116656 0.020321572117978668 -0.031912197681330044 -0.11385833832336474 -0.003574999504393815
0.09570766120087815 -0.07240753729397803 0.0601764212560327 0.17318329095540905 0.04375453233767708 0.013902937611984675 0.08386320163338166 0.04684056453063682
0.001809753064222881 -0.008384821073169901 0.08380660522832004 0.11997155119544159 -0.07649876528308362 -0.04108012833076531 -0.08023573565096477 -0.10018973704623936
0.03149586091925925 -0.018073405597885138 0.035333396372098654 0.03932437750962156 -0.048736151058231765 0.11258364212479889 -0.24555136073017458 -0.26175498181907564
0.11390049783249945 -0.0909600563424441 0.04328941737053861 0.04708968512213693 0.012228748744432034 -0.03170628708757411 -0.08885695691931866 -0.12078325554760577
-0.10226265117063185 -0.004036302527198743 0.15099514146024176 0.089576736108331 0.12962760227416545 -0.17153415699479013 0.08889933666152398 0.05740371084447502
0.030641935036317618 -0.045321838206238536 0.07438867797306495 0.10058835850745583 0.16668208679339205 -0.04696798075349081 -0.027148530172044296 -0.032923438983850466
0.25010596017554626 0.0729774749793359 -0.17531169591275536 -0.08805522631566852 0.11076540071366726 -0.010311344065657 0.025425117248837916 0.020471115171538237
-0.15440027968743938 -0.16411048743797438 0.11089151782153504 0.06210587886564205 0.020337078339611524 -0.08294032383321637 0.027176493944592747 0.04235030332331371
-0.009629054131895626 0.06942172739493478 0.10472242454087413 0.15057733047890812 -0.11288717964853706 0.19856354835811782 -0.12331415852957284 -0.10963877052734622
-0.03497249495111885 -0.008596191771236335 -0.04441503198444733 -0.04644760580903587 0.13652369267122866 -0.021661668922351315 0.015568600438412837 0.0285574281449348
-0.051277805110533356 -0.14069717926133835 -0.0011626766166593753 -0.04409104355669054 0.036837378353377394 -0.08505931715852198 0.012776261847198662 0.034090973503964686
-0.12440006530436383 0.11114292190198381 -0.11557444506673198 -0.11652978012393435 0.10454142971531628 -0.07073600135226123 0.02197774493146202 0.034278290947729086
-0.06703754855388123 -0.10291282599503412 0.08804937782451037 0.1188640586498027 0.15443925975587688 -0.14791248224919684 -0.11499322925380034 -0.09709015840934636
0.052632141955418404 -0.04637996381104915 -0.14531002734189552 -0.033468207891825356 -0.016109469660340728 0.013018260025015977 -0.0039580653658191816 -0.009254425147716723
0.028380067571966622 -0.1304898648084416 0.27957094074069394 0.23601075734907231 0.18276933874084686 0.04165588519701955 -0.0037126963026979697 0.006036441553181028
0.0674591519324753 -0.07662413456270364 -0.05334163109797311 -0.06871502834754868 0.06825047424842415 -0.1619611775731641 -0.1673980842878019 -0.1068504753135041
0.07906879247722773 -0.12965940800729706 -0.13575680442606483 -0.008869627789531796 -0.12699015731731786 0.13022575113741158 0.0966450408646275 0.015976983398553007
-0.022735320079694976 -0.09270138006817995 -0.009489230536895564 -0.1667195867877284 0.10026508551900569 0.05212724420768558 0.20040770773447725 0.15288324762191124
0.09796594577820154 0.012246704032422635 -0.14021171048488562 -0.18026829271494516 -0.043896473545237825 -0.047187825883410195 0.0292668102512189 0.028718756260328656
-0.13392301520366756 0.11321986971769081 -0.04778409507615444 -0.049832879055062854 -0.01857294218390779 -0.014931389230195791 0.10477345884876928 0.004615961565429495
-0.14934253479990675 0.16775626754057335 0.04629944616196954 0.16035167910643813 0.07485390495427109 -0.10068215145367992 -0.03366409218520919 -0.02371079593984441
0.18904578520434623 -0.15329456495026453 0.02968703491802747 0.0479697743726084 0.13124612336432478 -0.0829073867635525 0.02229110692748247 0.03997425466455262
0.03969593822896725 -0.034952362017849056 0.0038610485892746544 0.05499976476831661 0.06545082975522944 0.006669513340305842 -0.13764583205787334 -0.17224227099374131
-0.06182442918703262 0.18786658512373836 0.054782633110498545 0.07016620307034363 0.04323407097772565 -0.00924779093374072 -0.06700201375851175 -0.09561561063257391
0.04411143425162266 0.07043562068339536 0.10110450568982926 0.042871667565928175 -0.11659963370798611 0.03953142815170857 -0.011631506441377958 -6.27617893212949e-05
0.08253614354505164 0.10842366505975015 0.026969419651102968 0.022247987935610714 0.04466653390194657 -0.06437760873504492 0.16978108978872467 0.14913994103538614
-0.024392745715908888 0.10624793069415034 0.08945944535087548 0.13965720021541705 -0.04905078946371549 -0.12709035309600453 0.04823245443339746 0.06154188447989023
0.051259977516311506 -0.1582100851523711 -0.10071680601557231 -0.08907247614238138 -0.19800474571622237 0.04901337574591133 0.011196444079801525 0.009904822255470036

bias f8 [64]
00000000: d353 6de5 68d5 d3bf 3b5a 7bc8 7940 db3f
00000010: 3b1d 7625 d888 d23f 9cc0 0c76 8551 e6bf
00000020: 7caf 0d1f 2149 e5bf 09cb 7334 6226 d33f
00000030: 9427 1e6e ae36 e23f 83cc 7e82 251d e6bf
00000040: 284d be4f 7f94 e5bf 74be 8824 ab36 d6bf
00000050: e4f4 9ac6 80e1 d13f 37d9 7bb2 b417 d53f
00000060: 0741 2700 49b9 dd3f a9b6 504d be2e d5bf
00000070: 8788 e186 49a2 dcbf 1ae0 7c61 297b dd3f
00000080: e4fe 3904 bb82 e2bf f240 f526 e59b e4bf
00000090: c9b2 a6d7 cc1e e0bf c329 69a9 7152 db3f
000000a0: c0df ebcc a907 d1bf 0f40 d17a 3704 d5bf
000000b0: 285d 5d3a bc4a e5bf 9ff0 7aab 6089 da3f
000000c0: 111e a608 6132 d6bf 431c d799 bd97 e43f
000000d0: d183 3351 8c63 de3f 61d6 d9c6 05af da3f
000000e0: 5f35 ef4e 3135 e43f 0bed 42f5 60f7 d53f
000000f0: c984 fbeb 1cb1 e23f 7fae a18c 8654 db3f
00000100: f852 4d31 5921 e6bf d0ce 6fca 7ef7 d8bf
00000110: 68d2 5889 c054 e13f 925d 930d 4ed9 e1bf
00000120: a957 79ba bfd9 d03f 02f6 ddef 63e5 e0bf
00000130: 9e55 ed83 040c e2bf e7e8 2c2f b8e8 e1bf
00000140: ea1f 3d05 c9f0 d5bf 451c be2c 3b67 d1bf
00000150: 7cb3 b31e ddeb e23f 0aa5 92ff 3788 cebf
00000160: d4d4 7d7e 9586 d73f 5683 5e37 9bce dd3f
00000170: 2fe4 71c6 a319 e1bf 9d78 35d2 5002 e23f
00000180: cafe fd23 a5e0 e0bf 747a c9d0 f15f e4bf
00000190: 09ec dc0a 3372 e53f cfc5 6fe9 f740 e23f
000001a0: 7abc 7a43 614f e23f c39e b274 5648 e63f
000001b0: f75d d2cc 437a e53f 3b29 d7e2 c9db e4bf
000001c0: e302 4018 2349 d7bf cc51 fc02 9fc1 d43f
000001d0: 7290 5dea 0c29 e23f 7383 4e6b 77f5 e4bf
000001e0: 21ef 6323 eb3a e1bf 776c d312 ef4b e53f
000001f0: e33e d292 aaea d7bf 042b aea5 e0e2 e13f
-0.30990049748407705 0.42581028536133986 0.2896023145517181 -0.6974513345394544 -0.6651769262802953 0.2992177498082787 0.5691749716508974 -0.6910579251038061
-0.6743771131026834 -0.3470867020396107 0.2793886126999736 0.32957189016396476 0.4644339086053297 -0.3309779887230016 -0.4474052254864848 0.46064219017307695
-0.5784583170461386 -0.6440301667116997 -0.5037597858368709 0.42690698188803483 -0.2660927296815281 -0.3283823680294526 -0.6653729572234726 0.41463486429325686
-0.3468248924695852 0.6435230259602424 0.4748259346943629 0.4169325296310032 0.6314932386100444 0.3432238001948497 0.5841202363045791 0.4270340321879544
-0.6915708506517992 -0.3901059128686315 0.5415957148130248 -0.557776476397452 0.26329034052229844 -0.5280017552283314 -0.5639669968319827 -0.559658138408193
-0.3428213645133825 -0.271925729459728 0.591291961636315 -0.23853206614629868 0.36758935311020235 0.46573524863383875 -0.5343798519016952 0.5627826791421914
-0.5274224951717426 -0.6367119863387658 0.670190354553939 0.5704307135876493 0.5721899335820944 0.6963302878620755 0.6711749077248318 -0.6518296652296053
-0.363838933641132 0.32431769649090536 0.5675110413981328 -0.6549641700586178 -0.5384422007768742 0.665519272584233 -0.3736978944589124 0.5589450107521263

weight f8 [64, 64]
00000000: 4595 470c 3754 c4bf f7a6 25ab cdc9 ce3f
00000010: b1d6 f171 fcac c33f a828 f01b a0da c2bf
00000020: 5f40 1892 a2ca c2bf 3c9c 17d0 b69d d23f
00000030: 1ffb 3af0 5137 c33f 1810 a5d0 b4e4 cfbf
00000040: d1b8 c909 4c48 5fbf a5f2 9034 23d0 d2bf
00000050: b112 477d be63 b93f 1e30 6543 a436 bb3f
00000060: 6e1a 250d 3a69 cd3f f8cb 370c f712 bbbf
00000070: 7e07 5d62 bc5d a7bf 8a92 2250 4ead cf3f
00000080: 97c9 c4f7 1556 9bbf 3daf 8023 c1af cebf
00000090: 4967 3bcc 4545 cfbf a588 b2fd 6b44 773f
000000a0: 5c79 261b 2b78 cabf 9acc 1638 8855 c9bf
000000b0: ebca 6f27 f77b ccbf 952f 376e a058 c73f
000000c0: 1aee da49 934e b0bf 7479 f7eb 1809 cc3f
000000d0: 2793 f7b0 82ea c13f 1441 51e3 d680 cb3f
000000e0: 6bb2 2bd7 5757 cc3f 40d4 8749 d470 d03f
000000f0: 32a1 a565 fd18 c43f 52cf 7d5e 8006 ca3f
00000100: 6116 d893 2bb4 c5bf e856 84b6 3d41 c5bf
00000110: 602a 48ac 31a8 913f 8d5d 9969 81ed b2bf
00000120: deea 4405 200a ce3f 67d0 ea76 cc9e 98bf
00000130: 64b7 e65e 39c4 97bf 6764 ff2b 9850 a5bf
00000140: a0b1 a181 65bb cdbf 592b ebd7 a770 d1bf
00000150: 5d87 5e61 451b cd3f a8b7 7835 d3be c0bf
00000160: 6b7d 61d6 8ee7 ca3f 8674 c266 5eaf bf3f
00000170: 20ad 6f84 a374 cbbf e5fd 2770 cdbd ac3f
00000180: 805c 650d 1a66 aabf ae8e 14b1 c337 c0bf
00000190: 7ec2 f48e e6f1 c73f 93dd 5b4b 978b aa3f
000001a0: 039e 862a 826b 983f d596 4d6e f73b cc3f
000001b0: e742 ff8c 0a9a ba3f e368 30ab 9190 b8bf
000001c0: f35a b013 c4c5 b4bf bf91 ad74 4040 d23f
000001d0: f435 6a4c 7cbb aa3f 026c 79e2 125a b9bf
000001e0: 5e8e 7e74 4798 a7bf d9e0 e742 3825 c83f
000001f0: 9a2c 67ca 7c43 bfbf 68ab 00f9 4cd2 983f
00000200: 58d0 e1bd 7deb c6bf f9e6 573c a9fa b93f
00000210: 4dad c7ff cc55 d03f c3d4 1c96 caa1 c6bf
00000220: 7ac7 bf51 4346 aebf c0d3 d143 1f24 cc3f
00000230: e9e6 31f5 4234 cc3f 08d3 bf1f 1fc8 98bf
00000240: bc44 d897 37ca acbf 2377 f18f b494 a8bf
00000250: 238b 1386 26ed c23f 0380 f150 edaa d13f
00000260: 2848 e2c5 46c9 cd3f 3bdb cbf0 1206 b8bf
00000270: c724 16bc 705e c3bf 84ca fe99 6398 bd3f
00000280: 5909 7231 28d3 a9bf 66c0 d310 5122 b6bf
00000290: b24f 3e97 65b2 b9bf e817 b05a 4866 b83f
000002a0: 0e58 21ac 1a49 b3bf 79bf 3dd2 7b9f d0bf
000002b0: 471a 1d4a 7f5d c6bf bca4 4d4b faf9 b03f
000002c0: ba84 876d 85cd bebf 4231 bc92 11a9 bb3f
000002d0: a241 a302 5f71 a23f e73b 29aa 3ab6 c23f
000002e0: a1cb 137b 961e cf3f a2d5 a2dd 3ecc c83f
000002f0: ce09 33d0 66a9 b83f 1fa1 b1b7 c6ad b13f
00000300: 2c76 58cb 60f8 b2bf e835 9c97 b431 c4bf
00000310: bf4b 77f4 b856 b03f 0ae0 8ff3 8f07 b9bf
00000320: db64 1aed 868d ba3f 65f0 c146 c088 8dbf
00000330: 01d2 234f 65cc c9bf 06cb 7f35 b412 c5bf
00000340: 3e61 c095 15ca cabf b755 451b bc99 ccbf
00000350: 0976 e30a a7b0 753f 5515 908b 25e8 cabf
00000360: 8015 0571 9dbd ad3f 95a0 0d0d 0aca cf3f
00000370: e7bd 04e3 6b0d cbbf 6c25 f23a aa08 c83f
00000380: ac04 5219 e8e5 b1bf 8d60 a92b 3815 263f
00000390: 516d 9bcd c7c4 b43f 2ddb c538 e746 ba3f
000003a0: 0d2b b224 f103 be3f a471 6578 219f c03f
000003b0: 4993 1de2 5b1d ca3f 4fd3 42a1 1c4e c0bf
000003c0: 0659 89d8 9a9e b6bf 557a 0a4c b7fc b03f
000003d0: 1e0e fe56 77bd c13f 7394 ba37 ea83 97bf
000003e0: 94aa 2443 e4a4 c2bf d92a 41ff cf21 b73f
000003f0: f4cd e9a1 f7be c6bf 788c b7df 6d50 cb3f
00000400: e73f 174d 091a ca3f 8e9e 48a0 49a2 c2bf
00000410: 3a58 021f 4d32 cebf 598c dfa2 b24f af3f
00000420: 06fb 7a80 923a c13f 672d 8be0 9a98 cabf
00000430: 5e1e 1351 06d4 b8bf 2e76 8a1a c807 a03f
00000440: 825d 42d7 539c 873f 94ca f0b2 b4b0 b13f
00000450: e4c5 039a b252 cbbf b068 1842 a394 c0bf
00000460: 0dac 49b8 8c5f cdbf c1d7 a2c4 b5b7 af3f
00000470: 54c1 b5a8 0e3e c43f 26e5 ff9e c7f0 96bf
00000480: 9ac9 78d5 c547 c33f dd57 58b6 77de c03f
00000490: f153 1261 6715 c73f 8a5c 5c69 6ae8 c8bf
000004a0: 9c10 f99d 6fc2 c13f 3fa7 b8b2 6086 c23f
000004b0: 69c8 4034 305d c33f 6cb4 8939 8b21 b3bf
000004c0: f21d 7ae8 1029 c13f da1a 3f83 fe4e c1bf
000004d0: 0cd5 10e8 6047 9bbf 390f 25e9 2566 82bf
000004e0: 5e3c 3075 ef93 c4bf 2c5f 48a1 73d2 ccbf
000004f0: 9218 7ea7 d5f8 c4bf 7512 069f b7f3 c3bf
00000500: aa95 2971 482d bd3f ea1c 879c ca26 b23f
00000510: 2a6a 9d7b 3142 bcbf 9c8c f897 128b c93f
00000520: 5e3f 433e a604 cabf 33a8 1ba1 8e2d b63f
00000530: 5f5d 0b31 4a44 a43f f004 311a 8b6e bb3f
00000540: aa1b 5f1d 7389 c93f ed3b f3f1 fd87 ba3f
00000550: 8c01 9357 88b6 bdbf c02e 5c92 2f7a c83f
00000560: d6d1 7c77 370a 98bf 6410 0461 da0a a7bf
00000570: bbe0 abfa fc36 b33f c0cb d209 4144 cbbf
00000580: aee8 6eb0 a7bb ca3f 9ac6 6170 9bcc c53f
00000590: 6386 fe09 7bbf 9cbf cb70 616d b08e b7bf
000005a0: 9fbf 1c2a 7445 c1bf 470f 4bef 5a24 aabf
000005b0: 2b0a 8ccc caa2 c4bf 7639 4543 ce28 c33f
000005c0: 8e59 c2ff ea84 c83f d566 1e6b 89f3 a2bf
000005d0: b65e a49b 87c8 97bf c565 308f be75 ba3f
000005e0: 62af 4dcb 1e6b b23f 6c50 814b 9c2f c7bf
000005f0: 9403 af8e 0736 b33f 8c93 6dc1 4756 c9bf
00000600: 29b2 297a 6552 c63f 0151 5bf9 34bc cebf
00000610: bb7f fab3 210d 9cbf 8f87 f644 f28d be3f
00000620: 564f 6ce1 10c1 cb3f c5a0 7c02 2954 d3bf
00000630: 863a 5a33 032d ccbf 21eb c1a5 eab3 803f
00000640: f276 f3ed ce66 cc3f a370 2a0d d3c1 cd3f
00000650: a05b 68d9 04be b4bf 7ef7 d8fb 6e7f a8bf
00000660: 578f 9b7d c4b2 95bf b853 3ca8 eff2 c03f
00000670: d94f a87a e05e d13f 1d46 c8f0 e877 aabf
00000680: 6ee2 d59a 9f14 ca3f f612 6ddb 8b1f c63f
00000690: db37 d9db a558 c23f d513 a9f9 8810 cebf
000006a0: e10a da1c e9dc ca3f 13e7 d733 e48d c53f
000006b0: 85f2 7e9a ae6c c13f 8225 f685 d135 c5bf
000006c0: f4f8 415b 1a59 c33f 6010 d628 47fa 91bf
000006d0: f649 b92a d508 c6bf 4d58 e239 04e5 afbf
000006e0: b749 a097 0543 cbbf 0cde 342a ef95 c2bf
000006f0: c08d 8d9a dab7 babf 995e 5392 a3c6 ccbf
00000700: d7aa 97c1 e2e1 973f 4435 5d6f 59dd a43f
00000710: a2d4 6296 d3b1 c5bf b53f 2b86 bc89 c73f
00000720: f59f 211c e709 c7bf 414e 1cba 09bf c33f
00000730: f18f 967f 6e31 c33f 02ae 2037 dbe1 b03f
00000740: 84ac 10e9 8abb b33f ebd0 1a48 b1a1 c63f
00000750: 1e89 3547 7026 b5bf efa9 478b 5554 b33f
00000760: cbaa 064d ef21 c2bf 1159 f09a 7f3c b1bf
00000770: 333e bb2c 72e0 c33f 11a8 8003 e419 cbbf
00000780: cf06 d536 0753 c53f bb55 7729 1e5e a13f
00000790: f1c8 bb1e 04ec abbf 490c fc7b 7345 bcbf
000007a0: 0b40 b1c9 4f30 b7bf 2b27 5f83 7fa1 8abf
000007b0: 0902 a6c1 c513 98bf 5406 db9b b131 cd3f
000007c0: 370e cb3d e286 bb3f f868 bfe8 df0e cdbf
000007d0: 2305 66fe ab8b c2bf 2973 f6fb d2f6 cc3f
000007e0: ddbd 14e8 d764 a53f 24e8 2ac6 07a6 acbf
000007f0: e5b2 eebd 6472 bb3f 1f32 2c6f 1f6c acbf
-0.1588200387915696 0.240533550804052 0.15371661723809418 -0.14729691852727922 -0.1468089307168183 0.29087610551363574 0.15012573461532328 -0.2491670626424145
-0.0019093267975694337 -0.29395370610635957 0.09917822416816581 0.1063025154628012 0.22977376596300608 -0.1057581333950991 -0.04563702297902149 0.2474763766559998
-0.026695578811265355 -0.23973860009697914 -0.24430153343456087 0.005680486526360583 -0.20679224801728935 -0.19792273272250754 -0.2225331251680339 0.18239217168445224
-0.06369896462540972 0.2190276291066301 0.13996919289561413 0.21486936664087664 0.22141550070172697 0.25688655071946087 0.15701262915832498 0.20332340825882028
-0.16956085890722064 -0.166053499335866 0.017243171825649717 -0.07393654659369116 0.23468399293218217 -0.02404326892674682 -0.023209473054229504 -0.04163051163750069
-0.2322813876120451 -0.27250095449260453 0.2273947453914457 -0.13082351790347713 0.21019158809483982 0.12376966484812799 -0.21449703184712465 0.056135578099197926
-0.05156022466206256 -0.12670179506777884 0.18706972103383984 0.05184624476344903 0.02384761223370725 0.22058003316776956 0.1039129823905217 -0.09595594815656087
-0.08114266853986489 0.28517161745392267 0.05221165116118334 -0.099030666629389 -0.04608367249536792 0.188635857266269 -0.12212352696876608 0.02423973340789179
-0.17906162044130514 0.10148103450037728 0.2552368638850638 -0.17681248025625082 -0.05912981388963963 0.21985235988145568 0.22034489605339694 -0.024200903237175303
-0.056230294500104944 -0.04800953156585155 0.14786225840278985 0.2760575571501251 0.23270497000027146 -0.09384268168274172 -0.1513195913687808 0.11560652265215238
-0.05043912509519783 -0.08646113072222902 -0.10037836973634631 0.09531070913371276 -0.07533423139952353 -0.25973411113135786 -0.17472830885727061 0.06631435717067097
-0.12032350467736111 0.10804853279495766 0.03602120310972913 0.14618619259496698 0.24312096604952863 0.19373308012079088 0.09633486350052253 0.0690578649970388
-0.07410244907847446 -0.1577668895992439 0.0638232800331897 -0.09777164169634048 0.10372203148508012 -0.014420988234853558 -0.20155016292814312 -0.1646332989908716
-0.2092921239097993 -0.2234416134985346 0.005295422086616161 -0.21020955385771836 0.05808727268826441 0.2483532489525301 -0.21134708962334445 0.18776443365303963
-0.06991434686826165 0.00016847906757067426 0.0811276318522023 0.10264439712578328 0.11724764963052454 0.12985628489231005 0.20402096310422227 -0.12738378404687942
-0.08835761820350649 0.06635614019840237 0.13859454868007587 -0.02296415295736094 -0.14565709379651948 0.09035968763161452 -0.17770285993502422 0.21339200423890126
0.2039195658130659 -0.145577624572287 -0.23591007246131018 0.06115492094229386 0.13459998391586953 -0.2077821346668813 -0.09698523978578907 0.03130936931595972
0.0115286397997767 0.06910256737391257 -0.21346123237849135 -0.12953606345474133 -0.2294784450380977 0.06194847131102633 0.15814383733551074 -0.022402876929821812
0.1506278316824819 0.1317891731602562 0.18034069289993185 -0.1945927633721321 0.13874621594925862 0.14472588278413842 0.1512813811437497 -0.07473058848127473
0.13406573630730595 -0.13522321136971166 -0.02663947502533852 -0.00898389451743463 -0.16076462957468868 -0.22517247557765907 -0.16384382894847654 -0.15587516083555256
0.11397221338992006 0.07090441056708455 -0.110385029487056 0.19955665989354976 -0.20326688804788778 0.08663264687825815 0.03958350990950054 0.1071555079406783
0.19950713094860123 0.1036375728319709 -0.11606647623103167 0.19122881552208604 -0.023476473491614268 -0.04500467714572734 0.07505780334384131 -0.2130204484907079
0.20885177721885867 0.17030661570929767 -0.02807419060230244 -0.09202101393151733 -0.1349320607782802 -0.051058618269535 -0.16121802318237263 0.14968279156387226
0.19155633438340341 -0.03701428825952539 -0.023225897669447014 0.10335913654161917 0.0719470259043056 -0.18114045798086253 0.07504317506301411 -0.19794556565025478
0.17438953843101615 -0.24011861968632078 -0.027393843278900692 0.11935342963854921 0.21682940489756203 -0.30201173060278236 -0.22012367255634419 0.008155663665311121
0.22188746088698214 0.23247755186901484 -0.08102445895961674 -0.04784724067984224 -0.02118975655220309 0.13241382326728313 0.271415824682888 -0.05169609011876395
0.20375437794043044 0.17283771719134905 0.14333031878271538 -0.23487960997058957 0.20986665638709837 0.16839268237509283 0.13612921279663595 -0.16570490876283023
0.1511567063898337 -0.01755629717582996 -0.17214455209848695 -0.0622941322955489 -0.21298284438723922 -0.1452006298147669 -0.10436788819566001 -0.224811979721143
0.023322623315759152 0.0407512615625856 -0.16948933451718512 0.18389088202684226 -0.1799897086486905 0.15426751696996813 0.14994603376283025 0.06594629379167574
0.07708042326037129 0.17680946369876635 -0.0826177762842559 0.07550558710469323 -0.14166060696637425 -0.06732938320815075 0.1552870481886984 -0.21172762080215127
0.1665963189826045 0.03392118698290455 -0.054535034896518904 -0.11043473984686715 -0.09058092760210472 -0.013003345677038055 -0.023512926048626457 0.22807903394827866
0.10752691277144143 -0.2270164381469113 -0.14488744661142858 0.22628247549882843 0.04178499897022523 -0.05595421117818969 0.10721425663968949 -0.05551241142356766

bias f8 [64]
00000000: 8f7b 0256 0e4e 653f 6784 589c f7f2 c03f
00000010: 6bb6 b43a a2c5 aebf d11a eb0f 1199 b3bf
00000020: 5aed 110a 4bc7 afbf da41 48e0 694b c8bf
00000030: 94d0 111c a38e 80bf 7bbe 797a 55f9 ca3f
00000040: f366 643a f45e a0bf 8574 8168 953a 85bf
00000050: 7e82 75d8 9973 773f 194b 1519 02e1 afbf
00000060: 2235 44f5 5295 b33f 19a3 1253 e53c bdbf
00000070: a0c9 a233 9267 883f a407 4892 32b5 c93f
00000080: f417 9df1 4556 b3bf 9c03 cb7c 3107 ce3f
00000090: a2b0 f410 ae88 be3f 97ef 4222 b822 a5bf
000000a0: fd68 bafd b33b c8bf 2af1 21b5 7578 ae3f
000000b0: 4b46 ef32 2da2 c03f fbc4 77a6 1213 c93f
000000c0: e2df 6d29 a562 c0bf 4ca5 fc7d 1470 9ebf
000000d0: 3748 86be a51d 9cbf 443f 6ecb 6b7b b63f
000000e0: 76a2 d07c 851f cb3f 0598 d7cc d134 b73f
000000f0: fb45 2b24 6ed7 b3bf 6651 77b4 250d b43f
00000100: 7dca d1f4 d774 74bf 6854 1865 5caa c13f
00000110: 577c 3dba 898e c43f 102e 04b8 dde7 c1bf
00000120: 6185 2c19 5b91 a73f c913 887b 4b94 ca3f
00000130: 4449 52db dd3f c23f 564d 2443 8c29 bb3f
00000140: 7bae ffb1 45cc b13f 0a03 f9c4 c270 c33f
00000150: 0d21 14d4 ac15 b33f 2c75 8c38 f7a2 b13f
00000160: fa8e 9c26 1585 b0bf cf5f ea86 536a b7bf
00000170: 0cf7 b168 5eef a93f 037c 7268 0699 c0bf
00000180: e3cd 0f12 4493 99bf 8080 9dc4 6e61 cdbf
00000190: f9ac 5070 d8e6 bf3f f4ac a1c1 fd51 c2bf
000001a0: 71c8 07da eeea bc3f 73a0 53b2 9918 bfbf
000001b0: 6af8 7ae7 c97e 883f 6987 2e56 9fc9 c43f
000001c0: ed61 8c4a bf9d c5bf c948 15b6 6970 be3f
000001d0: a56a 77be 09af 9ebf b372 bd67 506e b73f
000001e0: 5b41 0818 7177 b2bf 9867 e660 cfc9 b53f
000001f0: 215e 70e1 83ab c43f 02e9 43db 79b1 c1bf
0.002600696563674849 0.1324147714049417 -0.060101575533150285 -0.07655436171180986 -0.06206736085820337 -0.18980143977434133 -0.00808455876742923 0.21073406677486503
-0.03197444165034637 -0.010365645648727781 0.005725480040695728 -0.062263551294242166 0.07649725425672618 -0.11421044614929733 0.011916296196748999 0.200842210222672
-0.07553517483492539 0.2345945224133431 0.11927307046852545 -0.0412805120299417 -0.1893219937235883 0.05951278530207767 0.12994923579258208 0.19589455726921998
-0.1280104114809993 -0.02972442645037647 -0.027456846002287896 0.08782075611656831 0.21189945787888903 0.0906497120955408 -0.07750595458062286 0.0783256116477041
-0.004994243220709846 0.13801150261193418 0.16059991449125974 -0.13988849148914584 0.04603085214899739 0.2076505997830778 0.14257405480436536 0.10610272063450074
0.06952319713280446 0.15187868707473512 0.07454948594761764 0.0688929093416461 -0.06453067963280637 -0.09146616023860975 0.05065436389939579 -0.12966995334588213
-0.024975837328339422 -0.22953590965608228 0.12461617223805267 -0.143127173945096 0.11295979331024043 -0.1214691219680633 0.011960580231399304 0.16240302761166994
-0.16887656345421878 0.11890278525723653 -0.02996459221854288 0.09152700932231532 -0.07213503681874071 0.08511062732432462 0.16148422725449144 -0.13822863775551048

weight f8 [1, 64]
00000000: fec8 760e 440b 91bf 62de 89f9 cfe4 a33f
00000010: daef 76db 58b3 9dbf 090b 9cbb 6c89 a6bf
00000020: 1242 8d8f 8392 b0bf a4d4 be84 434f a1bf
00000030: c4a5 843b 9fa9 9e3f 8aaf de84 3f81 8a3f
00000040: 485b 0bec 6ee4 90bf 8fc0 6d63 3b43 ae3f
00000050: 8c3a d9e3 b529 9a3f 33e5 8a93 d6ff 98bf
00000060: 2760 b4cc 7c76 a03f 0b61 0763 88e9 a3bf
00000070: 70ff 8e4b dc17 9c3f b1cb bb76 b34a 7bbf
00000080: feec 029f c762 ae3f f302 234a df4b a5bf
00000090: 0e0f e127 3c72 abbf 2c52 174f d654 9c3f
000000a0: 3e60 105c 11f6 993f 382d b6e2 5d45 aa3f
000000b0: 2bc9 9cb9 78eb 833f 6a31 f519 08c4 75bf
000000c0: 8ad1 67a4 5d77 a53f ac35 cc39 21fc a5bf
000000d0: b388 d59f a6e9 a33f b5b9 a43c 5486 ae3f
000000e0: 2c20 9bc8 1bd5 aabf 2de7 0281 d6c3 a43f
000000f0: 4c03 3e5c aea7 993f 85d6 1071 1bb9 85bf
00000100: 535a 9511 5bc7 a5bf 2855 1fb0 99a4 a4bf
00000110: 0be4 3d7a 29e2 803f 9abf 6fb0 e477 8abf
00000120: c9f8 718c 88aa 92bf 9531 beb8 78ff 6fbf
00000130: 3b43 c50e 442a 863f 1a97 83a5 8532 9e3f
00000140: 1adc 9bdf 10b9 853f b7be 7b75 f215 9dbf
00000150: 48b6 64c2 89d6 aa3f 6805 b8bf b7ce 5abf
00000160: ccca f6f2 a295 a43f bc1e f506 9360 4b3f
00000170: 280e 7593 8b2f a5bf bcf4 a437 8275 853f
00000180: e208 bad8 c5be aabf ea63 3cbc c970 a33f
00000190: 9b3f 8cc3 6424 a03f 3aa8 5b05 3f96 a5bf
000001a0: 220b ea49 ed0c a4bf fea1 a897 ecd0 99bf
000001b0: 513e 1fd0 17e8 8fbf a6cd c47f 9b97 77bf
000001c0: c5f4 8f22 e7fb 903f cc4d 3fea f90c a9bf
000001d0: 7eee 0879 14e0 ab3f 09fd 7305 4d66 913f
000001e0: c08f d9fd a132 a23f a20b 3b5d 40f6 a73f
000001f0: 79c0 82ef ca3f 97bf 48bc d6f8 a31b 23bf
-0.01664453829079892 0.038855075083969806 -0.0290044673872528 -0.04401721754222449 -0.0647356248348461 -0.03380785937717093 0.029943931586932995 0.012941833727232472
-0.016496403843883983 0.059106689345641 0.025549737960597826 -0.02441344523933715 0.03215398787341455 -0.03889108857009845 0.027434770690660526 -0.006663037329178432
0.0593473798375843 -0.04159448413839142 -0.05360591875844821 0.027667378022515773 0.02535273670591231 0.05131047623134538 0.009726470150415686 -0.005313903471073503
0.04192631370452478 -0.04293922262705094 0.03889198971843779 0.059618599322095824 -0.05240713905146807 0.04055662464948138 0.025053715114612005 -0.010606970203393526
-0.042536588570034305 -0.040318300961795395 0.008243869822523583 -0.012923990854659274 -0.018228658268065332 -0.003905998024441535 0.010822803211938506 0.02948960135190424
0.01060689146423326 -0.028404034062019714 0.05241804597822558 -0.001636199419295126 0.04020413604611903 0.0008354871660367284 -0.041378366232063535 0.010478036234980663
-0.05223673124875618 0.037969879367842754 0.03152766120012914 -0.04216191234975537 -0.03916112448953003 -0.0252110450329912 -0.01557940105331493 -0.005759818476053813
0.01658593319369996 -0.04892712578262212 0.05444396951176332 0.016991809327916694 0.03554254745247887 0.046800624256796 -0.02270428740365602 -0.0001457822476544654

bias f8 [1]
00000000: 66af e417 9bed 7c3f
0.007062536080677839

weight f8 [1, 64]
00000000: 4ce1 32dc 20a8 d5bf d0e3 fdfe 9c5f d7bf
00000010: 6710 eb98 1469 da3f 3343 644d c174 d73f
00000020: c008 4d48 c0dd d93f 7673 4a92 933a da3f
00000030: 6ea3 d28b 02f8 da3f 334b 016e 905d d5bf
00000040: 6421 38f5 5176 d83f 216b 87d0 4596 da3f
00000050: 0afd 90df 0905 d4bf c74f 8bdf 3d1d d63f
00000060: 41a8 517b 5406 dabf 9b83 1e5d d113 d63f
00000070: 792e c02a 36ab d83f 6659 1e83 20d2 d4bf
00000080: 826a df2b 809b da3f 3c92 2f23 aaf1 d2bf
00000090: 245e a54c 3889 d7bf 4243 ba2d c0c7 d53f
000000a0: d1f5 7733 b8f8 d33f dcba 6239 9fc5 d5bf
000000b0: dcad 0b54 52c3 d3bf edc8 22ee 099e d4bf
000000c0: fec4 1162 33b3 d43f b136 339e bc4e d43f
000000d0: 3a4c cb7b 35b3 d43f a72d 51ac 6c83 d9bf
000000e0: e146 a297 599f d7bf 9277 bf1e af87 d7bf
000000f0: 9964 9546 0e9e da3f c970 7d2d 4685 d5bf
00000100: e503 657e dcc1 dabf 1916 571c cf75 d6bf
00000110: 6600 9fc1 6828 d8bf fada c818 97a6 d73f
00000120: ac27 58c0 c73e d2bf 1f14 bd6c 019b d9bf
00000130: e207 5af7 a2b5 d4bf f148 8bf8 57b4 dabf
00000140: bbaf 190a 840a d7bf 0cb7 dd83 d6dc d2bf
00000150: 2103 7175 5661 d5bf 6884 0108 0006 d3bf
00000160: e312 45d5 dd3a da3f 4377 80d0 74f9 d53f
00000170: 618c b34f f7c4 dabf 4c0a 5318 8767 d43f
00000180: 7a02 653b 6b5f d43f da8c c749 453e d73f
00000190: 3d2a a61b e753 d7bf 8c2b 561f 217e da3f
000001a0: 0d03 b093 b3d4 d4bf c7fc df23 6456 d83f
000001b0: 9ea6 22ba b381 d6bf 6ecb 714e c8da d1bf
000001c0: 7f04 c9d2 2ab4 da3f 4e03 a433 9968 d5bf
000001d0: c176 8ce1 accc d53f 2fc7 e3b1 ec49 d2bf
000001e0: 2c36 ab8d 4d1b d43f dd30 62a8 a9d9 d8bf
000001f0: 5993 801b c482 d2bf 26ca a492 0311 d53f
-0.33838674072059827 -0.36521077062166984 0.4126636021940215 0.3665011649873577 0.4041596132339116 0.40982522283757505 0.4213873258072941 -0.33383570425683046
0.38222168872063933 0.41542191852720306 -0.3128075297608609 0.3455347712563221 -0.4066363529478885 0.34495958417579126 0.38544992613672197 -0.3253251343206983
0.41574100765652855 -0.2960000365840505 -0.3677502392287997 0.3403168150480732 0.31205563570241873 -0.34018688777989126 -0.30879648406582105 -0.3221459222360313
0.32343754365054156 0.317305712215652 0.323438044445712 -0.39864651515810084 -0.3691009503173586 -0.36765649798132316 0.41589695828367607 -0.3362594074476531
-0.41808235495778795 -0.3509404923209743 -0.37746638210592776 0.36954286022539373 -0.28508180411938144 -0.4000857889080311 -0.3235862174552705 -0.41725730201609595
-0.3600168322216139 -0.2947288787607796 -0.33406602352993003 -0.2972412183936002 0.4098429281914788 0.3433506046438774 -0.4182718542417146 0.31881883025576907
0.3183239059472168 0.36317569928196536 -0.3644960184107367 0.4139483266850952 -0.3254822675954053 0.3802728987065617 -0.3516663854339671 -0.27897842083546365
0.41724653801436057 -0.33450918238672933 0.3406173899291894 -0.28576199886366543 0.31416643938868805 -0.388285078465527 -0.28923132596746864 0.3291634494845844

bias f8 [1]
00000000: b4e1 0cf9 ed9c 90bf
-0.016223638845276958

weight f8 [64, 4]
00000000: 955a 1011 db83 abbf 475f 0e9f c1fa cb3f
00000010: 5506 0503 543a 9d3f 6d51 e672 1d64 c0bf
00000020: b009 ba56 71c7 c03f b1c7 04aa 632d c73f
00000030: 204c 1327 dc14 b33f 1109 72af 37c2 c33f
00000040: b840 fc79 fcc9 99bf ce8e 61e8 2034 c1bf
00000050: 5c41 87dd 788d bfbf 21b6 de7d c4a6 b2bf
00000060: bfae 09cc 6c6d 7cbf a7ad 8348 4b1c b83f
00000070: 27d5 d400 c42c b23f c142 1f97 3fc8 b3bf
00000080: b9aa d539 d135 983f e88a cd6b 9b4c 953f
00000090: ee0e fdf1 dce3 a7bf 7478 16c2 726a b03f
000000a0: 4d68 186f 660f c8bf 9bac 2c2e 625c 993f
000000b0: 9778 88c8 f786 aabf 7116 dfe9 b12f 6bbf
000000c0: 17c3 a0f2 a8e8 b83f 4a5c a156 ab4e 7bbf
000000d0: c9d1 15a0 0bd9 a6bf 5fa2 af8f 3149 b7bf
000000e0: 19b6 1d9d d7d6 943f b0af d491 a657 a0bf
000000f0: fd43 e2b7 9228 bdbf 663b 4413 a837 6dbf
00000100: 6165 e37e 0185 b83f f053 76b7 9f8b b2bf
00000110: 21b5 c1fe 47c8 ae3f ccd8 1886 9d2b c63f
00000120: bfb4 c76d 6b6b a63f 2a0e 7770 417a 8c3f
00000130: e275 7089 0977 b53f 5993 8109 04f1 a73f
00000140: 6747 0ac0 ad4b 5d3f ac75 39e6 ee2f 81bf
00000150: b64f 9b2d bf79 b53f 938b 90d2 47c1 be3f
00000160: 6cb2 78ba 0098 b3bf 4b83 b13c ae09 a5bf
00000170: 24b8 897c 1786 b4bf 58d6 f4b2 48a4 b9bf
00000180: b364 5e96 b61f a03f fb36 e2e7 1485 92bf
00000190: 1401 5aaf 3e1c a23f 3722 38bd b431 a43f
000001a0: 5f52 62b7 6af5 a8bf 447a e11e 86d4 bc3f
000001b0: 8ee8 e415 5171 cfbf cf3d 6b74 97c2 d0bf
000001c0: 8829 f187 d62b bd3f 33cd 2610 7c4b b7bf
000001d0: 2037 053e 8c24 a63f 5dc3 4f94 a916 a83f
000001e0: e6e2 d79b 4e05 893f 99be 6860 763d a0bf
000001f0: bebe 8fda ddbb b6bf fbd4 402e 5ceb bebf
00000200: 7da0 fb1b e72e babf 5aaf dd79 e482 70bf
00000210: 73f5 8212 6f54 c33f 3a8a 08a2 d4e9 b63f
00000220: 1920 4506 8e99 c03f b8c3 b212 8bf6 c5bf
00000230: a013 8ab1 6fc2 b63f 57cd 9f7a 115b ad3f
00000240: 1fd5 50cb 0b69 9f3f 645d e993 9736 a7bf
00000250: 9c71 50a5 bd08 b33f ed5a b30c aebf b93f
00000260: 0fa7 fe2c 9d56 c53f cd97 b6b4 5f10 a8bf
00000270: 90e7 e526 09bf 9bbf d6ee 5653 2ed6 a0bf
00000280: 7d22 3589 8d03 d03f 093f f0bc d4ae b23f
00000290: ccc1 32ea 9b74 c6bf 624c 497f 2d91 b6bf
000002a0: 6ca6 071c 7c5f bc3f bcda b326 0324 85bf
000002b0: 69c1 e568 2bf4 993f aa75 b256 1cd4 943f
000002c0: 23a1 b047 ddc3 c3bf 746b a3d0 eb02 c5bf
000002d0: e567 d43d 6865 bc3f a19b a772 12c2 af3f
000002e0: 145b 9244 a9d2 943f b629 2592 223d b5bf
000002f0: 9f9b aa1e 88e7 9b3f bc67 61c0 32bb a53f
00000300: 8a3b e2f8 7db2 83bf c0c5 7ef4 28c7 b13f
00000310: ddf9 3f2d 15ca ba3f 638e dec1 ee45 c33f
00000320: c296 36d8 c3ea bcbf d199 9b04 9e6c c93f
00000330: 14f4 ac16 9a91 bfbf 9374 94d4 c50e bcbf
00000340: ff2d a81e 63eb a1bf 0dd8 a9bd 389c 81bf
00000350: 2f45 1c50 cab8 a6bf f8d4 e456 3dc4 a7bf
00000360: 1d6a a3f5 307a c13f 4a65 6dd3 e833 96bf
00000370: b835 14ea 1102 903f f738 9129 e063 9d3f
00000380: 0830 bfd0 f142 aabf 1731 96d4 6a03 c2bf
00000390: 6102 f3e8 6402 52bf f369 45cf 9992 a6bf
000003a0: 9de2 b8ef 32dc a23f a9fc 55c9 14c8 b5bf
000003b0: 64a0 33cc 0040 8a3f 9470 acdf d085 a13f
000003c0: cd98 29a9 90dc bfbf b75b 431e f376 bc3f
000003d0: 5f29 fc71 3295 bdbf 9b74 2c30 f3d3 bdbf
000003e0: e622 7dd3 4fc4 ba3f 9045 408e cc1d b2bf
000003f0: d143 a8ab fc8e 963f 6df8 9074 819f a13f
00000400: 4e50 c966 3029 b1bf a1d6 86d3 4a5a babf
00000410: 535c 23ba d388 b63f 59a6 9c2d c06d be3f
00000420: ad1b 053b dbc6 c33f f537 d5ff 46f0 c2bf
00000430: 8f52 dfa8 bf73 bdbf 2e20 a9b1 ade1 b8bf
00000440: 21c5 2866 b4f3 aa3f fddf 5ccd 7fc1 a7bf
00000450: b903 8e83 499a c2bf 0f3c 27d9 1115 a1bf
00000460: 90cf 6738 777d 90bf ccb4 4beb ecad 8a3f
00000470: 9704 ffe0 fb51 70bf 9720 77e9 2d06 83bf
00000480: fad1 ccc8 7a0f 9d3f e877 c84d e2b4 c0bf
00000490: 8340 c5b2 9ee6 d13f 0ba4 8db1 5239 ce3f
000004a0: c0ac 11a5 c466 c73f 1619 1fb5 8b53 a53f
000004b0: bcb0 a225 77ef 6ebf 424e f4b4 a488 783f
000004c0: e245 f4ba ff47 b13f d659 c785 809f b3bf
000004d0: 3c3e 774e 8653 abbf 4352 42d8 3e9c b1bf
000004e0: 3011 fcff 977c b13f d01f 9dce 90bc c4bf
000004f0: 80bd 019d ab6e c5bf ff28 d6a8 555e bbbf
00000500: ca2a 22bc b841 b43f 7c3e f26a d199 c0bf
00000510: 07af 1748 5563 c1bf ff8b 31da a730 82bf
00000520: 1a40 b345 a541 c0bf 97c9 265a 6aac c03f
00000530: 6ad1 a5a4 c7bc b83f 1cfb d38c b32f 903f
00000540: f8ed 6872 7a4c 97bf 7d53 9f90 cebd b7bf
00000550: cbe6 940e 393d 83bf 9281 09ba 1758 c5bf
00000560: 06d8 9d27 38ae b93f 5f7c 736c d1b2 aa3f
00000570: 3262 6112 91a5 c93f 831f ffec 978e c33f
00000580: b032 5fe1 5414 b93f bfed 85ae 7712 893f
00000590: 8b94 f75b 33f0 c1bf 1d02 716d ec12 c7bf
000005a0: 40ce c959 907c a6bf 4fb6 9a48 7c2a a8bf
000005b0: 9377 899a 7206 9e3f 67c7 2317 5b87 9d3f
000005c0: 2d19 dcd7 3c25 c1bf 164a 8868 b0fe bc3f
000005d0: 045f 45cd 2980 a8bf 365a 9891 9f93 a9bf
000005e0: 1db7 1d1b 000c 93bf 9037 fe01 199b 8ebf
000005f0: 6ef7 084e ccd5 ba3f 5140 621b b1e4 723f
00000600: 3f57 149b f51e c3bf e866 b252 3c7b c53f
00000610: 954d 6662 63a6 a73f 5635 a914 f586 c43f
00000620: 4c31 1f1e 9a2c b33f 6d47 deaf 6ac8 b9bf
00000630: 835b 5ef3 893f a1bf cad3 fe68 0e52 98bf
00000640: bd57 aba4 dd33 c83f 6876 2271 f4a0 c3bf
00000650: 7320 f13d ca74 9e3f 383d 5b61 2798 a83f
00000660: d8b6 8a72 6ecd c03f 0d13 d034 e43b b5bf
00000670: 9c55 06ea 8ce1 963f 9e67 960c f383 a43f
00000680: a4d9 023b 6f53 a43f 6d35 78e4 b2e7 a1bf
00000690: ef01 2d89 66a1 6f3f 6a39 210d 5532 ac3f
000006a0: 9889 3e71 d6c1 b03f de45 9fff 7e4b 7b3f
000006b0: d8a8 62b3 369d c1bf 0140 78ef 430c c6bf
000006c0: e67e 8f62 89ae afbf 4835 8433 6d0d c83f
000006d0: 8394 db76 a30d ac3f c0ef 9fef 41fb b13f
000006e0: b225 809f bd25 a63f 8f27 af6b 44f3 82bf
000006f0: 077a c7c0 5f28 b1bf 6706 950a 707d b8bf
00000700: 7ca0 c8c8 6799 a63f cec4 2af2 4409 b23f
00000710: 7e50 1658 b4e1 b93f 934d efb7 4ee6 a53f
00000720: 3861 25df 03dd bdbf 2d56 2820 e33f a43f
00000730: 46c6 97d4 83b5 87bf 4c10 529a bd80 173f
00000740: 2c41 738b 1b21 b53f 0771 0698 44c3 bb3f
00000750: 2e15 de6e 74a6 9b3f 6dd7 dd74 1bef 963f
00000760: 195c 18c8 bce3 a63f 9b6d 2674 287d b0bf
00000770: 4899 1f74 9abb c53f 9da7 9d7e 8416 c33f
00000780: 7406 a59b c4fb 98bf d980 8b93 9f35 bb3f
00000790: 7cf9 5b54 46e2 b63f a2d1 d347 7ae0 c13f
000007a0: 6bd3 14f7 b71e a9bf 2fd6 46f7 7645 c0bf
000007b0: 8c8e a330 91ba a83f 185e ec92 7b8d af3f
000007c0: dfd4 c97b ec45 aa3f ff02 4fb8 aa41 c4bf
000007d0: 1c58 d23b 2acb b9bf 9b30 a372 58d5 b6bf
000007e0: be27 d91f ae59 c9bf 28df cd24 521c a93f
000007f0: e658 d080 460a 873f 695c a623 d17d 843f
-0.05374035437869399 0.21858997599042082 0.02854281681471201 -0.12805526838622985 0.1310865090818658 0.18107267190640422 0.07453704790104654 0.15436454836532978
-0.025184578843494093 -0.13440333697064094 -0.12325244339377178 -0.07285717080113631 -0.006940293300981614 0.09418173332567524 0.07099556942269612 -0.07727429809097953
0.023642796664186536 0.02080004544712724 -0.046660332240689203 0.06412427175971108 -0.18796997475220892 0.024766477649944645 -0.051810973385941476 -0.0033186411737656176
0.09730010913405028 -0.006666821756957717 -0.044624675075201355 -0.09096059568367697 0.020350808109858762 -0.031918721486675294 -0.11390034665443234 -0.003566578170768708
0.09577950809343384 -0.07244299153383316 0.06012177452871926 0.17320603416164315 0.043788296843425105 0.01390505909410596 0.08384761434032087 0.04676067939798285
0.0017880627421260288 -0.008392206574337667 0.08388895858234843 0.12013672724473982 -0.07653812935377297 -0.04108948222051952 -0.08017107763745962 -0.10016302460720661
0.03149195275836671 -0.018085791256956956 0.035371741204473534 0.03944172677808349 -0.0487473820550448 0.1126178574936399 -0.24564565247584763 -0.2618769299415051
0.1139501649751421 -0.09099555391621976 0.04324758774838089 0.047047900537910727 0.012217153674087777 -0.03171892096395119 -0.08880411706899857 -0.12077880982618076
-0.10227817948509883 -0.004031078800703936 0.15101421741375595 0.08950547176258619 0.12968612009194727 -0.1715864030170715 0.08890436253029899 0.05733542081716319
0.030674156460198106 -0.04533837967454238 0.07435212408058195 0.10058105287621873 0.16670574852951645 -0.04699992257091843 -0.027095931052350475 -0.032884071038521576
0.250216850272899 0.07298020947223106 -0.17543362555944808 -0.08815273625923362 0.11083198246310538 -0.01032259427891568 0.025345495488580925 0.020340388099261787
-0.1544148063706042 -0.16415164649410097 0.11092235097422039 0.06202752732843143 0.020334858713421403 -0.08296409671780833 0.02725041091130331 0.04244383428949969
-0.00961779037268486 0.06944519013520445 0.1046460376237301 0.1505716749789939 -0.11295722988742354 0.19862723565093046 -0.1233154588089323 -0.10960041465701158
-0.03499898671369905 -0.008598750389165155 -0.04437858798895388 -0.04641906438556903 0.13654148096141308 -0.021682393936633994 0.015632896339459385 0.028701307808938172
-0.05129199670008694 -0.1407292879124575 -0.0010992036293801177 -0.044087225486425206 0.03683623482033236 -0.08508424678255956 0.01281738875555067 0.03422405939474618
-0.12445930604880857 0.11119002808423671 -0.11555781634175365 -0.11651534963717085 0.10455798066426389 -0.07076719735075288 0.022029827096108626 0.034420056800159006
-0.0670347453063311 -0.102940251009239 0.08802531523120764 0.1188621627194605 0.15450611478646917 -0.14795768253173916 -0.11504743454799836 -0.0971935805074515
0.05264056918202643 -0.0463981569468501 -0.1453334705693388 -0.03336387420460351 -0.016103613679618045 0.013027048998504397 -0.003984435941618922 -0.00928912991265944
0.028379362588752934 -0.13052014158250747 0.2797009225660149 0.23612435979455912 0.18282373485576464 0.04165302835422062 -0.0037762953844176755 0.00598968828787211
0.06750486673651993 -0.07665255800325296 -0.05337161739191429 -0.068790366933464 0.06830739974617894 -0.16200456703722788 -0.16743989149425076 -0.10690818187700656
0.07912783234693702 -0.12969415399537698 -0.1358439065946799 -0.008881865831602552 -0.12700334456758428 0.13026170160226222 0.09663055200309648 0.015806966276609477
-0.022752679093384715 -0.09273997336215518 -0.009394117124077358 -0.16675087531895066 0.10031462638093566 0.05214552353731316 0.20036519429665273 0.15278910705660217
0.09796648504488803 0.012242255223774088 -0.14014284124929008 -0.18026500076122512 -0.04391909690903306 -0.04719913851054668 0.029321470911206026 0.0288366539834394
-0.13394890346553137 0.1132612471776969 -0.04785280829190522 -0.0499544015148569 -0.01860046544555082 -0.014944262860605823 0.10482479958679189 0.0046126287690101
-0.14938230583418918 0.1678233531754849 0.046191316377327464 0.16036857136570387 0.0748993228473342 -0.10071436685237041 -0.03368788810546788 -0.02375051990357572
0.18908281841748745 -0.15334945224906282 0.02974239352286685 0.04803584159310009 0.13126926987518206 -0.08294512071013234 0.022344781669365696 0.040069194113313986
0.039699054673678874 -0.03497084654746172 0.0038611414578613094 0.05507150445247329 0.06545772804978467 0.006663795555100075 -0.13761028060009184 -0.17224930947168107
-0.06187848404056044 0.18790974631739688 0.0547915537443169 0.07024013614858315 0.043256688804898316 -0.009253057991276651 -0.06702230888866022 -0.09566402681687124
0.044139140376786096 0.07045393860132096 0.10110022688451356 0.04277273173616005 -0.11665367315197706 0.03954992072628403 -0.01157668106586408 8.965642207853334e-05
0.08253643183275433 0.10844830237914858 0.027002162234130704 0.022396496780366194 0.04470624868934454 -0.06440975986190837 0.16978769941415295 0.1491246813050652
-0.0243979187009757 0.10628697731181393 0.08939017829468371 0.1396630144805729 -0.04906248942498944 -0.12711989473398108 0.048298394381871196 0.06162630241868444
0.05131472598160668 -0.15825399398274695 -0.10075630150308296 -0.08919289397016643 -0.19804932170000983 0.04904419612188199 0.01125006752594655 0.010005601787993439

bias f8 [64]
00000000: 459b 41f1 8dd6 d3bf 7a63 c596 8b41 db3f
00000010: ddce b21b d18a d23f e08c 3306 3052 e6bf
00000020: c7db a767 9d49 e5bf 62ce b5cc 7328 d33f
00000030: 1036 7347 5837 e23f af38 3500 a51d e6bf
00000040: cab9 47e8 1f95 e5bf 8a72 97db 7838 d6bf
00000050: 52ec 4fdc 5ce3 d13f a541 18c7 1519 d53f
00000060: be55 0b8f 7aba dd3f 6e04 ec65 9430 d5bf
00000070: 2bce 38e3 6fa3 dcbf b1b7 c2bc 8d7c dd3f
00000080: ea02 83cf 6483 e2bf 4c70 8aa9 509c e4bf
00000090: c07b c0d6 621f e0bf 0c2d 8c69 8a53 db3f
000000a0: 3870 7f7a de09 d1bf cc21 dbed 9f06 d5bf
000000b0: 28b1 d0b2 4d4b e5bf 958f 3577 b18a da3f
000000c0: c343 e73c ce33 d6bf a558 5a04 6198 e43f
000000d0: 7300 4f5e da64 de3f 7aba a7a1 3bb0 da3f
000000e0: 35ce 81e3 a935 e43f 3de5 29e9 a7f8 d53f
000000f0: 4a69 7c40 acb1 e23f d48d 7035 ea55 db3f
00000100: 02fc 70a9 f021 e6bf 2d23 d9b0 e3f8 d8bf
00000110: 1259 fd1c 5c55 e13f cbb7 3602 e3d9 e1bf
00000120: fc5d 86ef cddc d03f 9f81 f0b8 15e6 e0bf
00000130: f93b 43ea a10c e2bf fd72 fdb6 5be9 e1bf
00000140: 01d9 5186 47f2 d5bf a8e8 0151 bf68 d1bf
00000150: 38a2 8db6 87ec e23f f2f6 c87a c18c cebf
00000160: c342 70a0 3588 d73f d08b 2bd9 cfcf dd3f
00000170: 773a 4c52 291a e1bf 119f a6ed dc02 e23f
00000180: 4ed2 66f7 47e1 e0bf c0f7 9fae 8560 e4bf
00000190: b4a5 0521 af72 e53f a525 f9c3 9441 e23f
000001a0: bf1d 78d8 ff4f e23f 1892 e79c f548 e63f
000001b0: 6add 9f39 c27a e53f 806a b3fc 3ddc e4bf
000001c0: f035 fa53 b84a d7bf a8f7 62e5 78c3 d43f
000001d0: 916e b878 b529 e23f 469b cf71 edf5 e4bf
000001e0: dc9f 5a80 983b e1bf 616e 2d43 754c e53f
000001f0: 9411 f20b 48ec d7bf 8a1b 8c84 5ae3 e13f
-0.30997036514456894 0.4258755657552268 0.2897227068417417 -0.6975326653595424 -0.6652361893201196 0.29934401503780894 0.5692559619434991 -0.6911187175808403
-0.6744536911699524 -0.3471967834900985 0.2795021201597524 0.32965607111784784 0.4645067593495148 -0.331090068371913 -0.44747540654791135 0.46072715219167565
-0.5785392811740995 -0.6440814315169603 -0.5038313097355669 0.42697391803149354 -0.2662273594157827 -0.328529341012225 -0.6654423229679525 0.41471516267324066
-0.34691196391673546 0.6436009488122819 0.47490557870697286 0.41700640474929396 0.6315507358071445 0.34330175180328465 0.5841885814182117 0.42711882799832535
-0.6916430768395687 -0.39019100447017047 0.5416698995784677 -0.5578475039708278 0.2634768332586359 -0.5280865299319436 -0.5640420508806293 -0.5597361158393991
-0.3429125606266013 -0.27201826964268117 0.5913733067982951 -0.23867052550661289 0.3676885668547067 0.46580883224504266 -0.534443531740023 0.562849487459035
-0.5275001365722092 -0.6367824946062157 0.6702495236360648 0.5705055072405015 0.5722655513681544 0.6964061798613015 0.6712351918676351 -0.6518850265086513
-0.3639355487910896 0.3244306793311531 0.5675914151974714 -0.6550204489584324 -0.5385248667635056 0.66558325882529 -0.3737964741378843 0.5590031231703148
